car_model_final.pth (torch, 274592 bytes, 8 tensors)

fc1.weight f4 [128, 9]
0	0x3dc5a465	0.096504964
1	0x3ea28115	0.31739107
2	0x3c083a3b	0.0083146645
3	0xbe27d92d	-0.1639144
4	0xbeb53da1	-0.35398582
5	0xbebc6ec9	-0.36803272
6	0xbd2557b3	-0.04036684
7	0xbe4ae9e4	-0.19815785
8	0xbd705e34	-0.05868359
9	0x3f7b677b	0.98204774
10	0xbe6e3c52	-0.23265198
11	0xbeebc161	-0.46045974
12	0xbca2f87f	-0.019893883
13	0xbdeb9d8d	-0.1150466
14	0xbe8b0655	-0.27153268
15	0x3f877513	1.0582603
16	0x3cf3c153	0.02975527
17	0x3edeed9f	0.43540666
18	0xbf81677e	-1.0109708
19	0xbfd04123	-1.6269878
20	0xc0211577	-2.516935
21	0xbe3f1cd0	-0.18663335
22	0xbe5325ac	-0.2061984
23	0x3ee66a56	0.45003003
24	0x3ef48529	0.47757843
25	0x3eabcf3b	0.33556542
26	0x3f071bfe	0.5277709
27	0xc093e53c	-4.6217327
28	0xbdf4f67d	-0.119610764
29	0x3f530de2	0.8244306
30	0xbdc736ea	-0.09727271
31	0x3eb11441	0.34585765
32	0xbb65e0c5	-0.00350766
33	0xbde8dc59	-0.11370153
34	0x3edf6ba7	0.4363682
35	0x3f42a719	0.7603622
36	0x3f97baf0	1.1853924
37	0x3e9e29df	0.3089132
38	0x3e26ef74	0.16302282
39	0xbe0bd271	-0.13654496
40	0x3f1158da	0.567762
41	0xbeaa9b05	-0.33321396
42	0xc022e803	-2.5454109
43	0xc09ef86a	-4.967824
44	0xbe617a5b	-0.22019331
45	0x3f6f7b80	0.9354782
46	0xbf3ea5ff	-0.7447204
47	0xbef8d85c	-0.4860257
48	0xbe414392	-0.18873432
49	0x3f2f6bda	0.68523943
50	0x3ee8035b	0.4531506
51	0xbe66f656	-0.22554907
52	0xbe7503bf	-0.2392721
53	0x3ebfc3d3	0.3745409
54	0xbe0e5638	-0.13900077
55	0x3d6efe04	0.058347717
56	0xbe54f987	-0.20798312
57	0xbdd1b88f	-0.1024028
58	0xbda231ba	-0.07919641
59	0x3e816dde	0.25279135
60	0xbeb51c12	-0.35372978
61	0xbeae70d3	-0.34070453
62	0xbe2b502e	-0.16729805
63	0x3f036988	0.513329
64	0x3f124cc8	0.5714841
65	0xbed9cf5c	-0.42541015
66	0xbef67fa4	-0.48144257
67	0x3e9c06b1	0.30473855
68	0xbeec3201	-0.461319
69	0x3d6548f7	0.055977788
70	0xbf25f529	-0.6482721
71	0xbee4bffa	-0.44677716
72	0xbe408636	-0.18801197
73	0x3e9c1113	0.30481777
74	0xbe59ce15	-0.2127002
75	0xbdbb8d1b	-0.09157773
76	0xbe94b4bc	-0.2904414
77	0x3ea58777	0.32329914
78	0x3f4f24bf	0.80915445
79	0x3fb11aa1	1.3836251
80	0xbe604663	-0.2190185
81	0x3f055904	0.5208895
82	0xbf09c2c7	-0.5381283
83	0xbf73332d	-0.94999963
84	0xbdcaf462	-0.099098936
85	0xbdc9d526	-0.09855108
86	0xbe4eafcd	-0.2018425
87	0x3e1bf98e	0.15231916
88	0xbeac32f9	-0.3363264
89	0x3e8c9096	0.2745406
90	0x3e00e94e	0.12588999
91	0xbceceac0	-0.028920531
92	0xbe8517a7	-0.25994608
93	0xbdd89bec	-0.10576615
94	0xbc56afa0	-0.013103396
95	0xbea358fa	-0.3190382
96	0xbda253e4	-0.07926157
97	0xbe1a4966	-0.15067062
98	0x3e9d6489	0.30740765
99	0xbfe8ff9f	-1.8203009
100	0x3f08d24e	0.534459
101	0x3f640b58	0.8907981
102	0x3ddfa483	0.1092005
103	0xbe7a2855	-0.24429448
104	0xbf8d7df7	-1.1054066
105	0xbde2aba3	-0.11067893
106	0x3f8fe2c5	1.124108
107	0xbe624254	-0.22095615
108	0x3f99510c	1.1977859
109	0x3d396487	0.045261886
110	0xbe55f27b	-0.2089328
111	0x3d255fdd	0.040374625
112	0xbc8151b6	-0.015786033
113	0x3e6340e2	0.2219272
114	0x3f6e3781	0.9305344
115	0xc0328b7a	-2.789763
116	0x3cf0d09c	0.029396348
117	0xbebf08a6	-0.37311286
118	0xbbb5146b	-0.0055261157
119	0x3f36348a	0.7117392
120	0xbf8a50d3	-1.0805916
121	0x3e80506a	0.2506135
122	0xbed62acc	-0.41829526
123	0xbe8d907a	-0.2764929
124	0x3f2cd224	0.6750815
125	0xbf2c98a1	-0.67420393
126	0x4028226f	2.6271017
127	0xbd59fdbc	-0.053220496
128	0xbeb8cb3a	-0.3609255
129	0x3c8f7a9d	0.017514521
130	0x3d420d32	0.047375865
131	0x3f3d3d8d	0.73922044
132	0xbf16018c	-0.5859611
133	0xc09bcec4	-4.86899
134	0x3df26970	0.11836517
135	0x3f02dc44	0.5111735
136	0x3c4ea85e	0.012613384
137	0x3d658125	0.056031365
138	0xbef45cf4	-0.47727168
139	0xbe883896	-0.26605672
140	0xbf780ecf	-0.96897596
141	0xbe597dba	-0.21239367
142	0x3d671c6e	0.056423597
143	0x3e162ce4	0.14665562
144	0x3d67596f	0.056481775
145	0x3c7a3efa	0.015273804
146	0xbf491006	-0.78540075
147	0x3ec847ef	0.3911738
148	0xbe97a24c	-0.2961601
149	0xbf9a8d26	-1.2074325
150	0x3f0f88b6	0.5606798
151	0x3f53f1a4	0.8279059
152	0xbffd078c	-1.9767928
153	0x4019111a	2.3916688
154	0xbdb98513	-0.09058585
155	0xbeee70f6	-0.46570557
156	0x3e02fc96	0.12791666
157	0x3e2d4c1b	0.16923563
158	0x3e48e681	0.1961918
159	0xc020f9d2	-2.5152478
160	0xc0b11363	-5.5336165
161	0x3ede7b01	0.4345322
162	0xbf59297a	-0.84828913
163	0x3f69c1f9	0.91311604
164	0xbe0993b2	-0.13435248
165	0xbf22a11e	-0.63527095
166	0xbf60cab2	-0.8780929
167	0xbef2ed5a	-0.4744671
168	0xbc424fd9	-0.0118598575
169	0x3fd5f81f	1.6716346
170	0xbe01c44e	-0.1267254
171	0x3f12b7a8	0.5731149
172	0x3ed82f4f	0.42223594
173	0x3f8b7f63	1.089825
174	0x3ea59e3d	0.3234729
175	0xbdaee52e	-0.08539806
176	0x3ebe2b07	0.37142202
177	0x3f7140f1	0.9423972
178	0x3f75fb06	0.96086156
179	0xc01e28e0	-2.4712448
180	0x3f88200b	1.0634779
181	0x3e48488c	0.19558924
182	0x3f82f0a0	1.0229683
183	0x3edcbd70	0.4311328
184	0x3d342959	0.043984745
185	0x3f39dc7b	0.7260205
186	0x3f8179c3	1.0115284
187	0x3df54d9d	0.11977694
188	0xbf9773a1	-1.1832162
189	0xbc97b088	-0.018516794
190	0xbe68a84c	-0.2272045
191	0xbce998e1	-0.028515281
192	0xbe897ded	-0.26853886
193	0x3d9b8048	0.07592827
194	0xbd7b109f	-0.061295148
195	0xbe6a16ae	-0.22860214
196	0x3e8e50bb	0.27795967
197	0xbe742bca	-0.23844829
198	0xc0038bb0	-2.0554008
199	0x3f2fc441	0.68658835
200	0xbd92e516	-0.07172601
201	0xbf2b04fb	-0.66804475
202	0x3e62bc63	0.22142176
203	0x3ec51f36	0.38500375
204	0xbf717b9c	-0.9432924
205	0xbf112c88	-0.56708574
206	0xbfca6643	-1.5812458
207	0xbecd1984	-0.4005853
208	0x3f7ebcf7	0.9950709
209	0x3eca4858	0.3950832
210	0xbebde253	-0.37086734
211	0x3d81f42e	0.06345402
212	0x3e4ee5ff	0.20204924
213	0xbef77588	-0.48331857
214	0x3fb0f2c2	1.3824084
215	0xbe602c99	-0.21892013
216	0xc038b594	-2.8860826
217	0xbdb02ebb	-0.08602663
218	0x3db00e49	0.08596475
219	0x377b9183	1.4994645e-05
220	0xbddd9d9a	-0.10821076
221	0x3e89fc67	0.2695038
222	0x3eb7ee1f	0.3592386
223	0x4006f243	2.1085365
224	0x3f209900	0.6273346
225	0x3f93a5c2	1.153496
226	0xbf7b158b	-0.98079747
227	0xbfa55cee	-1.2918985
228	0xbf39b847	-0.7254681
229	0x3eb890d9	0.3604801
230	0xbea52725	-0.32256427
231	0x3f73ebc2	0.9528161
232	0xbf4cb60e	-0.79965293
233	0x3e628af1	0.22123314
234	0x3f78b1f2	0.97146523
235	0xbf893b56	-1.0721233
236	0x3f8f182c	1.1179252
237	0xbee1a91d	-0.44074336
238	0x3e342f88	0.17596257
239	0xbf2b3b2f	-0.6688718
240	0xbe311da6	-0.17296466
241	0x3ec27171	0.37977174
242	0xbdfa378f	-0.12217628
243	0xbda863de	-0.08222173
244	0xbd5df816	-0.05419167
245	0xbed51dc8	-0.41624284
246	0xbdf5c83f	-0.120010845
247	0xbdaa5e9e	-0.08318828
248	0xbe962e2f	-0.2933211
249	0xbd51b1ba	-0.051194884
250	0x3e28fbe8	0.16502345
251	0xbdbe0b51	-0.09279502
252	0xbfb84015	-1.4394556
253	0xbf911f73	-1.1337723
254	0xbf9f83df	-1.2462119
255	0xbfc6dd3a	-1.5536263

fc1.bias f4 [128]
0	0xbe3a6000	-0.18200684
1	0xbe8c243e	-0.273714
2	0xbe5cd97c	-0.21567339
3	0xbdc6bdf0	-0.097041965
4	0x3dcad323	0.099035524
5	0xbe097278	-0.13422573
6	0xbe0027fd	-0.12515254
7	0x3e8d7d6b	0.2763475
8	0xbf6de00f	-0.9292001
9	0x3f527122	0.82203877
10	0xbe8e52e4	-0.27797616
11	0x3d96277f	0.07331752
12	0x3ca79fb8	0.020461902
13	0x3efe10c5	0.4962217
14	0x3d78721b	0.060655694
15	0x3ed72bc3	0.42025575
16	0xbe86cffe	-0.2633056
17	0xbdc0308d	-0.0938426
18	0xbd844c83	-0.06459906
19	0xbf7f729a	-0.99784243
20	0xbf50b38f	-0.81523985
21	0xbea3df0e	-0.32006115
22	0x3edd9094	0.43274367
23	0xbf079303	-0.529587
24	0xbe59cbae	-0.21269104
25	0x3da17a69	0.07884676
26	0xbeec8de1	-0.46201995
27	0xbd03b1d3	-0.03215201
28	0x3c9cd870	0.019146174
29	0x3ea77631	0.3270736
30	0x3dc284c2	0.09497978
31	0xbf13d653	-0.5774891
32	0x3cb600f7	0.022217257
33	0x3dec825e	0.11548303
34	0x3d3daf5c	0.046309814
35	0xbf0d212b	-0.55128735
36	0x3eb4c83c	0.35309017
37	0x3dea326f	0.11435401
38	0xbda50184	-0.0805693
39	0x3df0807b	0.11743256
40	0x3e4b85d2	0.19875267
41	0xbea68f46	-0.32531184
42	0x3f1a9fb0	0.60399914
43	0x3f29aec1	0.6628228
44	0x3ca407a4	0.020023175
45	0x3e354894	0.17703468
46	0xbf57057f	-0.8399276
47	0xbeba64ce	-0.36405033
48	0xbf1355bb	-0.5755269
49	0x3d0ca690	0.034338534
50	0xbe9ef835	-0.31048742
51	0x3e3ded54	0.18547565
52	0xbf6444db	-0.89167565
53	0x3f0cdff7	0.55029243
54	0xbf2e7e73	-0.68161696
55	0x3e1006d2	0.14065102
56	0xbcc19b30	-0.02363357
57	0xbe3229b4	-0.17398721
58	0x3da0ce66	0.078518674
59	0xbcd6509a	-0.02616148
60	0xbd13e919	-0.03611097
61	0xbd1858b9	-0.037193988
62	0x3f0fd07a	0.56177485
63	0x3e3adaa9	0.18247475
64	0xbe5ef048	-0.21771348
65	0x3e65fca4	0.22459656
66	0x3edb6470	0.42850065
67	0x3ea4cbba	0.3218668
68	0xbefd80b6	-0.4951226
69	0x3ec19563	0.37809286
70	0xbd5b6e50	-0.053572
71	0x3e6d827a	0.23194304
72	0xbe8403db	-0.2578419
73	0x3e1adc59	0.15123118
74	0x3f48a9c7	0.7838406
75	0x3e07dfdf	0.13268994
76	0x3f183092	0.5944911
77	0x3e5f7d84	0.21825224
78	0xbe48ed16	-0.19621691
79	0xbf263449	-0.6492353
80	0x3d0110b2	0.031510063
81	0x3ebad5a4	0.3649112
82	0x3f1ef717	0.6209578
83	0x3ed851b4	0.42249835
84	0xbf646592	-0.89217484
85	0x3e7c4317	0.24634968
86	0xbed4dab0	-0.41573095
87	0x3e7bb5f8	0.24581134
88	0x3f220360	0.632864
89	0xbf8316c4	-1.0241323
90	0x3b60c0e7	0.0034294666
91	0xbe98aea3	-0.29820737
92	0x3f67e460	0.9058285
93	0xbe623973	-0.22092228
94	0x3e571b4a	0.21006504
95	0xbf1175ff	-0.5682067
96	0xbc15b7a8	-0.009138025
97	0x3ecd49fb	0.40095505
98	0x3e1c433c	0.15260023
99	0xbe559f7e	-0.20861623
100	0x3e6a970a	0.2290918
101	0xbf61f104	-0.88258386
102	0x3e9754f6	0.29557008
103	0x3e042f2e	0.12908623
104	0x3ec8fbfe	0.39254755
105	0x3e458856	0.1929029
106	0x3f28bf4f	0.65916914
107	0x3e654693	0.22390203
108	0xbd848b0c	-0.064718336
109	0xbe9e2a12	-0.30891472
110	0x3e20def8	0.15710056
111	0x3ef2fe64	0.4745971
112	0x3eb0cbe7	0.34530565
113	0x3ead6b81	0.3387108
114	0xbf31a0ab	-0.69385785
115	0x3eb08810	0.34478807
116	0xbea772f7	-0.327049
117	0x3caef040	0.021354795
118	0x3eb52f59	0.35387686
119	0xbe893562	-0.2679854
120	0x3d11f942	0.0356381
121	0xbe12f849	-0.14352526
122	0x3e1cbb83	0.15305905
123	0xbdfef529	-0.12449104
124	0xbe7a4003	-0.24438481
125	0xbe20773b	-0.15670483
126	0xbf54848e	-0.8301476
127	0xbedd733e	-0.43251985

fc2.weight f4 [256, 128]
0	0xbc439f30	-0.011939809
1	0xbd083972	-0.03325791
2	0xbd5daf1f	-0.054122087
3	0xbd1c1c32	-0.038112827
4	0xbd1f15e1	-0.038839225
5	0xbcb6432b	-0.022248825
6	0xbc90fec0	-0.0176996
7	0xbdf34c4d	-0.118797876
8	0x3d24b16d	0.04020827
9	0x3c571b5e	0.013129083
10	0x3d9fe73b	0.078077756
11	0x3b7fc268	0.0039025787
12	0xbb047010	-0.0020208396
13	0xbd8ee9fc	-0.06978223
14	0xbd64baf6	-0.055842362
15	0xbcc784f6	-0.024355393
16	0x3d40578a	0.046958484
17	0xbdd13c8b	-0.10216626
18	0xbd483574	-0.048879102
19	0x3d18f6ef	0.03734487
20	0xbda84976	-0.082171366
21	0x3d046b12	0.032328673
22	0x3dab551d	0.083658434
23	0xbdb9344b	-0.09043177
24	0xbd76511a	-0.06013594
25	0xbdf376f6	-0.118879244
26	0x39f1eaa2	0.00046141917
27	0xbd73336a	-0.059375204
28	0x3d70d9d9	0.058801506
29	0xbd8ab162	-0.06772114
30	0xbd19b355	-0.03752454
31	0x3c978436	0.01849566
32	0x3ccb4ec7	0.024817837
33	0xbd23c849	-0.03998593
34	0x3ba27df0	0.0049588606
35	0xbce396ec	-0.027781926
36	0xbd9851bf	-0.07437467
37	0xbd318caa	-0.04334704
38	0xbbfc1be0	-0.0076937526
39	0xbd4e2806	-0.050331138
40	0xbccae9d5	-0.024769703
41	0xbd82a0f0	-0.06378353
42	0xbde2973d	-0.11064003
43	0x3d80eec7	0.06295543
44	0xbd19d1d0	-0.03755361
45	0xbc758e11	-0.014987485
46	0xbd1123f7	-0.03543469
47	0xbc9c9600	-0.019114494
48	0xbdda592b	-0.10661539
49	0xbdbe1604	-0.09281543
50	0x3c4fe4e8	0.012688853
51	0x3c6b7394	0.014370818
52	0xbd580974	-0.05274339
53	0xbdf5396f	-0.11973845
54	0xbbcc3450	-0.006231822
55	0x3b9d9e21	0.00481011
56	0x3db2ea3f	0.08736085
57	0x3c277370	0.010220394
58	0xbdbc15cb	-0.09183844
59	0xbd56af02	-0.052412994
60	0x3cc0dec7	0.023543729
61	0xbcab9fda	-0.020950247
62	0xbdf88739	-0.12135167
63	0xbbc0d89f	-0.0058851982
64	0xbd8b0400	-0.06787872
65	0xbda461ee	-0.08026491
66	0xbc9b8c07	-0.018987669
67	0xbb828100	-0.003982663
68	0x3d3ac678	0.04559943
69	0xbe03b15b	-0.12860624
70	0xbdc4cfdf	-0.09609961
71	0x3d019d61	0.03164423
72	0xbdb35357	-0.0875613
73	0x3a25a53c	0.00063188723
74	0xbdad757d	-0.08469675
75	0x3d239554	0.039937332
76	0xbc8ab81f	-0.016933499
77	0xbdff5087	-0.12466531
78	0x3d9a704b	0.075409494
79	0x3d746c65	0.059673686
80	0x3c9ca95d	0.019123727
81	0xbd3e749e	-0.046497934
82	0xbc5fa3e3	-0.0136499135
83	0x3d6ddbbf	0.058070894
84	0x3d619367	0.055072214
85	0xbd49443e	-0.049137346
86	0x3d82cdb5	0.06386892
87	0xbd7e4c48	-0.062084466
88	0xbdb970b5	-0.090547
89	0xbbca9d8b	-0.0061833314
90	0xbc9d8251	-0.019227179
91	0x3d71f4ba	0.05907128
92	0xbd279d3f	-0.040921446
93	0x3d2d05b6	0.042241774
94	0xbe023566	-0.12715682
95	0xbcc5fb09	-0.024167554
96	0x3d5308ec	0.05152218
97	0xbd7184b0	-0.05896443
98	0x3bc42f7e	0.005987107
99	0xbd60457b	-0.05475376
100	0xbb00a554	-0.0019629793
101	0x3d881f38	0.066465795
102	0xbd023224	-0.0317861
103	0xba95c358	-0.0011426015
104	0xbe16d1bf	-0.1472845
105	0x3c3ad01a	0.011402154
106	0x3ca63b65	0.020291993
107	0x3cef42f6	0.029206734
108	0xbd57450c	-0.052556083
109	0xbe04b8af	-0.12961076
110	0xbd2dd693	-0.042440962
111	0xbd58cca2	-0.052929528
112	0xbda7dadb	-0.0819604
113	0xbdd4885c	-0.10377571
114	0xbca02021	-0.01954657
115	0xbd23d69d	-0.039999593
116	0x3d95ec09	0.07320411
117	0xbd058c37	-0.032604422
118	0xbdd4fd17	-0.103998356
119	0xbd229ab1	-0.039698306
120	0xbd1c8c50	-0.03821975
121	0x3ccd3d3f	0.025053618
122	0xbd321bf6	-0.043483697
123	0xbd786ec9	-0.060652528
124	0xbd7bf3bd	-0.061511744
125	0xbbd209ee	-0.006409875
126	0xbc19531c	-0.009358194
127	0xbce5e709	-0.028064268
128	0xbd664aa3	-0.056223523
129	0xbfa0e41b	-1.2569612
130	0xc00920eb	-2.1426342
131	0xbef734df	-0.48282525
132	0xbdd4d5e4	-0.10392359
133	0x3f63b591	0.88948923
134	0x3d0d2623	0.034460198
135	0xbfa3ecb4	-1.2806611
136	0xbdd97317	-0.10617655
137	0x3f92c9c0	1.1467819
138	0xbd3561ca	-0.044282712
139	0x3d9b47ee	0.07582079
140	0x3e876fa4	0.26452363
141	0xbe358637	-0.1772698
142	0x3fbdeba3	1.4837536
143	0x3bda9fa1	0.0066718613
144	0x40406bbc	3.0065756
145	0x3f8df610	1.1090717
146	0xbfc0ae46	-1.5053184
147	0xbe2a655c	-0.16640228
148	0xbf5c1b80	-0.8597946
149	0x3da5d3c3	0.08097031
150	0xbf870adc	-1.0550189
151	0xbf95b232	-1.1695006
152	0xbb957a5f	-0.004561707
153	0xbf9ae287	-1.2100381
154	0xc031295e	-2.7681499
155	0x3d1ed285	0.038774986
156	0x3dc9fc08	0.09862524
157	0x3f8fd857	1.1237897
158	0x3f8db28b	1.1070112
159	0xc075e55b	-3.8421237
160	0xbf896392	-1.0733511
161	0x3f791572	0.9729835
162	0xc0389602	-2.8841558
163	0x3ee04d97	0.43809196
164	0xbf0e08d8	-0.55482244
165	0xc00e37c4	-2.2221537
166	0x3d18259a	0.037145235
167	0x3f707d29	0.9394098
168	0xbf794715	-0.9737409
169	0xbd3d2cd6	-0.046185337
170	0x3e8b23d8	0.27175784
171	0xbfed7bc1	-1.8553392
172	0x3e2108d0	0.15726018
173	0x3f6e0266	0.9297241
174	0xbf19cc64	-0.600775
175	0xbd916946	-0.071001574
176	0x3f0c80ae	0.5488385
177	0x3ef3a5fc	0.47587574
178	0x3d2239af	0.039605793
179	0xbed2ba82	-0.4115792
180	0xbde6af45	-0.11263899
181	0xbf190eed	-0.597884
182	0x3e3ffb35	0.18748172
183	0x3f731872	0.94959176
184	0xbd2fe246	-0.0429404
185	0xbf40127f	-0.7502822
186	0xbeb1e56e	-0.34745353
187	0x3e60a9d9	0.21939792
188	0x3e58314a	0.21112552
189	0xbe90d4a5	-0.28287235
190	0x3ed5560f	0.4166722
191	0xbdd56c41	-0.104210384
192	0xbce6e85c	-0.02818697
193	0xbefae97a	-0.49006253
194	0x3fbc155d	1.469402
195	0xc003771f	-2.0541456
196	0x3f21841a	0.63092196
197	0x3f709c3e	0.93988407
198	0xc000a417	-2.0100152
199	0xbf010dae	-0.504115
200	0xbf816b2b	-1.011083
201	0x3f2c5412	0.6731578
202	0x3f9db141	1.2319719
203	0xbd3233bf	-0.04350638
204	0x3f439637	0.76401085
205	0x3f03c706	0.5147556
206	0x3d94e643	0.072704814
207	0xc0873cc8	-4.2261696
208	0xbf928a35	-1.1448427
209	0x3dcfb053	0.10141053
210	0x3f5bdfe9	0.85888535
211	0xc02fb235	-2.745252
212	0x3fa5181c	1.2897983
213	0x3f6c37b2	0.92272484
214	0xbe5c5020	-0.2151494
215	0xbf726181	-0.9468003
216	0xbf47845f	-0.7793636
217	0xbf241fda	-0.641111
218	0xbfda6d0b	-1.7064527
219	0x3cedd9bb	0.029034486
220	0x3e41cee3	0.18926577
221	0xbc49910f	-0.012302651
222	0xbd1a0a6c	-0.037607595
223	0xbf25e313	-0.6479961
224	0xbf9a5bf6	-1.2059314
225	0x3fcc678f	1.5969104
226	0x3f691296	0.91043985
227	0x3ce3cbd8	0.027807161
228	0xbea73d9e	-0.32664198
229	0xbf579cac	-0.8422344
230	0xbd16e978	-0.036843747
231	0xbf6edeec	-0.933089
232	0x3f1546cc	0.5831115
233	0x3f31253b	0.69197434
234	0x3f1d3dc0	0.6142235
235	0x3ec37d2e	0.38181442
236	0xbd096b0f	-0.033549365
237	0xbf7ecf43	-0.99535006
238	0xbf20e68e	-0.628518
239	0x3f6a7a04	0.9159243
240	0x3f0fda45	0.5619243
241	0x3f0ef835	0.55847484
242	0xbea2d83b	-0.31805596
243	0x3f3f81af	0.74807256
244	0x3d85eed6	0.06539695
245	0x3d5ae82a	0.053444065
246	0x3d3bd546	0.04585769
247	0x3d9fd8c2	0.07805015
248	0xbe2bd8be	-0.167819
249	0xbe791451	-0.24324156
250	0x3fb7a0dc	1.4345965
251	0x3f60e216	0.8784498
252	0xbf6437fa	-0.89147913
253	0xc004aa6d	-2.072902
254	0xbe1fbb3e	-0.15598771
255	0xbed4d77e	-0.41570657

fc2.bias f4 [256]
0	0xbdb86344	-0.090033084
1	0x3f18210b	0.5942542
2	0x3e524712	0.20534924
3	0x3f66ec81	0.90204626
4	0xbd475816	-0.04866799
5	0xbda6aad8	-0.081380546
6	0x3d981e7e	0.07427691
7	0xbe95a109	-0.29224423
8	0xbee28ffa	-0.4425047
9	0x3e72ded5	0.23717816
10	0xba250d76	-0.00062962563
11	0x3e71df6e	0.23620388
12	0xbd48416b	-0.048890512
13	0x3cfcef74	0.030875899
14	0x3ca8b107	0.020592226
15	0xbdba0400	-0.09082794
16	0xbdccd2c3	-0.10001137
17	0x3f9a1517	1.2037686
18	0x3bdc0ad6	0.006715159
19	0x3ebc3eb0	0.36766577
20	0x3ea57348	0.32314515
21	0xbcdfaea1	-0.02730495
22	0xbdbef1d2	-0.09323467
23	0x3de16630	0.11005819
24	0xbee33efc	-0.4438399
25	0xbe077972	-0.13229921
26	0x3e8c5aaa	0.2741292
27	0xbf006145	-0.5014842
28	0xbe00e1c2	-0.1258612
29	0x3f2b01e9	0.6679979
30	0xbd17bc71	-0.037044946
31	0xbda680b9	-0.08130021
32	0x3ea77d3c	0.32712734
33	0xbd2fde22	-0.04293645
34	0x3d8d427c	0.068974465
35	0x3c581f85	0.013191109
36	0x3f46ef86	0.77709234
37	0x3e0e02e0	0.13868284
38	0xbd5808be	-0.052742712
39	0xbe0187a5	-0.126494
40	0x3c274fe3	0.010211918
41	0xbdf8afae	-0.12142883
42	0xbf37daed	-0.7181843
43	0x3f1223cf	0.5708589
44	0xbd3168d9	-0.04331288
45	0xbcbbd391	-0.022928031
46	0xbee756b9	-0.45183352
47	0xbd978438	-0.073982656
48	0x3f163569	0.5867525
49	0xbe000af1	-0.12504174
50	0x3c737dd8	0.014861546
51	0xbd1fcc05	-0.039012928
52	0xbcf3ce33	-0.02976141
53	0x3f04f801	0.51940924
54	0x3f14be09	0.5810247
55	0xbf073801	-0.5281983
56	0xbd48ea45	-0.04905154
57	0xbdef22f7	-0.11676591
58	0xbe199b9e	-0.1500077
59	0x3e5dde18	0.21666753
60	0x3cc43397	0.023950381
61	0xbcae431e	-0.021272238
62	0x3f47ca54	0.78043103
63	0xbf5d87c5	-0.8653529
64	0x3e81f79d	0.25384226
65	0xbf33c665	-0.702246
66	0xbea7d466	-0.32779235
67	0xbc947582	-0.018122438
68	0xbd9a520e	-0.07535182
69	0xbf027f75	-0.50975734
70	0x3ea9ed84	0.33189023
71	0x3ee92ecd	0.4554352
72	0x3f7aa689	0.9791036
73	0xbc0db57b	-0.008649225
74	0xbd20c42a	-0.039249577
75	0xbf8cddb8	-1.1005163
76	0xbdaea399	-0.085272975
77	0xbd6e5ff9	-0.058196995
78	0x3e37eda6	0.1796175
79	0xbf30695e	-0.6891078
80	0x3f3d2130	0.73878765
81	0x3e8ca809	0.2747195
82	0xbd53f307	-0.05174544
83	0xbda49ab6	-0.08037321
84	0x3e3b19dd	0.18271585
85	0x3e915598	0.28385615
86	0x3eceb7d9	0.4037464
87	0xbdb7a89d	-0.08967707
88	0xbda7dbce	-0.08196221
89	0xbdf3b22e	-0.118992195
90	0xbd49fdc6	-0.049314283
91	0xbd70887b	-0.058723908
92	0x3f3fb6f5	0.74888545
93	0x3a8b274b	0.0010616569
94	0x3f578df8	0.84201
95	0xbe22feb2	-0.15917471
96	0xbc87c7be	-0.016574737
97	0xbd6ceaeb	-0.057841223
98	0xbf1f96a6	-0.62339246
99	0xbd875744	-0.066084415
100	0xbd301e34	-0.042997554
101	0x39e941a4	0.0004449013
102	0x3eebd950	0.46064234
103	0x3eb00293	0.34376964
104	0xbdbbbe66	-0.09167175
105	0xb90a6182	-0.0001319703
106	0xbd29dbfc	-0.04146956
107	0xbda50930	-0.08058393
108	0x3ed12500	0.4084854
109	0x3d20cd9d	0.039258588
110	0xbcce68e6	-0.025196504
111	0x3e8b60be	0.27222246
112	0x3f666367	0.89995426
113	0xbcb53f6d	-0.02212497
114	0xbee8cd2d	-0.45469037
115	0xbd0c9cc8	-0.034329206
116	0x3ea6688c	0.32501638
117	0xbd90764e	-0.07053815
118	0x3dfafe8f	0.122555844
119	0x3f5654b4	0.83722997
120	0xbe20d91d	-0.15707822
121	0xbd6e77a4	-0.058219567
122	0x3f68b695	0.909036
123	0xbcc30eba	-0.023810733
124	0xbe4304ce	-0.19044802
125	0x3e9435e9	0.2894738
126	0xbe639e6e	-0.22228405
127	0xbeda8b74	-0.4268452
128	0x3e97bf71	0.29638246
129	0x3ef34491	0.4751325
130	0xbd7990e7	-0.060929205
131	0xbdc2cc84	-0.095116645
132	0xbed02547	-0.4065344
133	0xbf71f583	-0.94515246
134	0x3e895c3d	0.26828185
135	0x3f2a6845	0.6656535
136	0xbdafaa4a	-0.08577402
137	0xbddb0cd8	-0.10695809
138	0x3e44cce8	0.1921879
139	0x3e538ce9	0.20659222
140	0x3ea8a85b	0.32940945
141	0x3f780fcd	0.9689911
142	0x3ef6cc95	0.4820296
143	0xbdbf4c07	-0.09340673
144	0xbddd3ec6	-0.10802989
145	0xbda4323e	-0.080173954
146	0xbdf3c5bd	-0.1190295
147	0x3e60ad5a	0.21941128
148	0x3f616f36	0.8806032
149	0x3f1f8ee0	0.62327385
150	0xbdb954b3	-0.09049358
151	0x3eddc717	0.43315956
152	0xbccc56a4	-0.024943657
153	0x3e56614a	0.2093555
154	0xbdad9b35	-0.08476869
155	0x3c53a7bc	0.012918409
156	0xbeed1721	-0.46306708
157	0xbf2452a9	-0.6418863
158	0x3ef301c5	0.47462288
159	0xbdc558bb	-0.096360646
160	0x3eee7eef	0.46581218
161	0xbe7ce522	-0.24696782
162	0xbf0fc59b	-0.56160897
163	0x3e5b2f66	0.214048
164	0x3e51aad5	0.20475323
165	0xbf081e94	-0.5317166
166	0x3ebace55	0.36485544
167	0x3ca054f4	0.019571759
168	0x3facc16d	1.3496529
169	0xbd80f1b6	-0.06296103
170	0xbaa5dcc5	-0.0012654295
171	0xbd63c282	-0.05560542
172	0xbdf0ed67	-0.11764031
173	0xbf44a8a0	-0.768198
174	0xbd6badfd	-0.057538975
175	0xbdca4fe1	-0.09878517
176	0x3ebdeec0	0.37096214
177	0xbd045f44	-0.032317415
178	0xbde57559	-0.11204023
179	0x3e5aab75	0.21354468
180	0xbd958529	-0.07300789
181	0x3eff90d9	0.49915197
182	0xbcbda3c7	-0.023149384
183	0x3e28355e	0.16426608
184	0xbf81b177	-1.0132283
185	0x3f7c6b82	0.98601544
186	0x3f53cf7e	0.8273848
187	0xbd9e7fa5	-0.0773919
188	0xbd1eb287	-0.038744476
189	0xbdcccaae	-0.099995956
190	0x3def1628	0.11674148
191	0x3e6cd203	0.23126988
192	0xbdeddd27	-0.11614447
193	0xbec61a50	-0.3869195
194	0xbc5a53f0	-0.013325676
195	0xbec057d7	-0.37567016
196	0x3f74f309	0.9568334
197	0xbd89087c	-0.066910714
198	0xbeed27d6	-0.46319455
199	0x3ef07d2c	0.469705
200	0x3c949815	0.018138925
201	0xbd279eae	-0.040922813
202	0xbd6ea9e4	-0.05826749
203	0x3f8abeff	1.0839537
204	0xbdae37bd	-0.08506725
205	0xbdc97bb4	-0.098380476
206	0xbee2fca3	-0.44333372
207	0xbd8b2fc5	-0.06796221
208	0x3e31393f	0.17306994
209	0xbdbcc18f	-0.09216606
210	0xbdb17017	-0.086639576
211	0x3dd68a5e	0.1047561
212	0xbe09789b	-0.13424914
213	0xbdc18537	-0.09449237
214	0xbd80c6e1	-0.06287933
215	0xbd082ba5	-0.033244748
216	0xbd0de6e0	-0.034644008
217	0xbcbf7a3b	-0.023373714
218	0x3f3eeae2	0.7457715
219	0x3ed74d1a	0.4205101
220	0x3e9de1e0	0.3083639
221	0x3e2bc071	0.1677263
222	0xbd7af296	-0.061266504
223	0xbf109dad	-0.56490594
224	0x3f0df5e3	0.5545332
225	0xbd8de55c	-0.069285125
226	0x3ea8f670	0.33000517
227	0x3eb1e180	0.34742355
228	0xbd82757e	-0.06370066
229	0xbdc579d4	-0.096423775
230	0xbef8a62e	-0.48564285
231	0x3f3bea8c	0.73404765
232	0xbef7cdf1	-0.48399308
233	0xbe3037ee	-0.17208835
234	0x3e95e878	0.29278922
235	0xbf0bd7a6	-0.5462593
236	0x3fa4c49a	1.2872498
237	0xbee6bea7	-0.4506733
238	0xbf09f86f	-0.53894705
239	0xbc016478	-0.007897489
240	0xbebf1acf	-0.3732514
241	0xbee5ebe3	-0.4490653
242	0xbd1f2c08	-0.03886035
243	0xbdca6c4b	-0.098839365
244	0x3f707e32	0.9394256
245	0xbc9c262d	-0.019061172
246	0x3f47865d	0.779394
247	0x3f61cc09	0.8820196
248	0xbc5fc2a2	-0.013657244
249	0x3d4f4871	0.050606195
250	0x3ee457c8	0.44598222
251	0x3c5b4632	0.013383435
252	0x3eeae57c	0.45878208
253	0x3f5a0da3	0.8517706
254	0x3da8e770	0.08247268
255	0xbdd875a7	-0.105693154

fc3.weight f4 [128, 256]
0	0xbd6eefa2	-0.058334
1	0x3b4fd83a	0.0031714574
2	0xbd33785b	-0.04381595
3	0xbda10afb	-0.078634225
4	0x3c814b6c	0.015783034
5	0x3c0067a0	0.007837206
6	0x3c2fd1da	0.010731185
7	0xbcd39803	-0.02582932
8	0xbd8bf366	-0.06833534
9	0x3cfbf56c	0.030756675
10	0x3d576c4e	0.05259352
11	0xbdaa3573	-0.08310976
12	0x3d0ea96c	0.034829542
13	0x3c0556c2	0.00813836
14	0xbc7c21e1	-0.015388937
15	0xbc8732cc	-0.016503714
16	0x3d5a2814	0.053260878
17	0xbda258b3	-0.07927074
18	0xbd158902	-0.036507614
19	0xbd791ae5	-0.060816664
20	0xbaed5a8f	-0.0018108654
21	0x3cf716b0	0.030162185
22	0x3c86c678	0.01645206
23	0xbca3e849	-0.020008223
24	0xbc81fa75	-0.015866498
25	0xbd452532	-0.048131175
26	0x3cd437ed	0.025905574
27	0xbd37cf51	-0.044875447
28	0xbd775db8	-0.06039211
29	0xbcb71a5a	-0.022351433
30	0xbbfdcd55	-0.0077454248
31	0xbccf3a58	-0.025296375
32	0xbd1677d3	-0.036735367
33	0xbd536a80	-0.05161524
34	0xbdbec047	-0.09314018
35	0x3d5127b6	0.051063262
36	0xbd555e24	-0.052091733
37	0xbd53ef98	-0.051742166
38	0xbcec236c	-0.028825484
39	0xbda93778	-0.08262533
40	0xbcc1abb8	-0.023641452
41	0x3d105384	0.035235897
42	0xbd558218	-0.05212602
43	0xbd7e6289	-0.06210569
44	0x3d72fc1a	0.059322454
45	0x3cc4e694	0.02403573
46	0x3cc9db4e	0.024640705
47	0x3d1df472	0.0385632
48	0xbb32db9a	-0.0027291537
49	0xbcc24f90	-0.023719579
50	0x3b5f0e40	0.0034035593
51	0xbd81bcdf	-0.063348524
52	0x3d5fe62e	0.054662876
53	0xbd996484	-0.07489875
54	0xbd2e1a87	-0.042505767
55	0x3d00c3a2	0.03143657
56	0xbcf8ecf4	-0.030386426
57	0xbd52ba66	-0.051447295
58	0xbd2474e2	-0.04015053
59	0xbcd4e8f3	-0.025989985
60	0xbba37a30	-0.004988931
61	0xbcce1e64	-0.025160976
62	0xbd1eb4fa	-0.03874681
63	0xbd3de847	-0.046364095
64	0xb9fde3c2	-0.00048425613
65	0x3d31da0e	0.043420844
66	0x3bbe5f9c	0.0058097374
67	0xbd25bf48	-0.040465623
68	0xbc976b5c	-0.01848381
69	0xbd23fb33	-0.040034484
70	0xbda01a20	-0.07817483
71	0xbdc57377	-0.09641164
72	0xbd862fff	-0.06552123
73	0xbca69918	-0.020336673
74	0xbd8d1334	-0.06888428
75	0xbccc17a6	-0.02491362
76	0xbd77416e	-0.060365133
77	0xbd29a224	-0.041414395
78	0xbcf1ee99	-0.029532718
79	0x3c1e0f51	0.009647206
80	0xbcd1f392	-0.025628839
81	0xbcb565f6	-0.022143345
82	0x3cf549ac	0.029942356
83	0xbca6c858	-0.020359203
84	0xbd7ed0b0	-0.06221074
85	0xbdbea8a4	-0.093095094
86	0xbcd2c50a	-0.025728721
87	0x3a98df40	0.0011663213
88	0x3cd927cc	0.026508234
89	0xbc6a2b48	-0.014292546
90	0xbd2ccc18	-0.042186826
91	0x3ca3498c	0.01993253
92	0xbb0d246f	-0.0021536609
93	0xbd3ea6ee	-0.046545915
94	0x3c31898c	0.010836016
95	0xbc4da37f	-0.012551188
96	0x3ca2176c	0.019786559
97	0xbd620d5c	-0.05518852
98	0xbd789715	-0.060690958
99	0x3c8850f0	0.016640157
100	0xbb87bb40	-0.004142195
101	0x3d6c5b0a	0.05770401
102	0xbdad7962	-0.084704176
103	0xbd05922a	-0.032610096
104	0xbc851b5c	-0.016248398
105	0x3d034c0c	0.032054946
106	0xbce17ff4	-0.027526833
107	0x3cd09a80	0.025464296
108	0x3c92b1c3	0.017907029
109	0xbd2239a2	-0.039605744
110	0xbc362ec0	-0.0111195445
111	0xbcb254d9	-0.021768974
112	0xbdc6ff96	-0.09716718
113	0xbd73e45e	-0.05954396
114	0xbd7ef0c5	-0.062241334
115	0xbc9d0d8c	-0.019171499
116	0xbb2b74b4	-0.002616209
117	0xbd4bdc1a	-0.049770452
118	0xbb3bd773	-0.0028662353
119	0xbd3440f7	-0.044007268
120	0x3d11d777	0.035605874
121	0xbd12941e	-0.035785787
122	0xbdc3813e	-0.09546135
123	0xbc8e1610	-0.017344505
124	0xbd721e0a	-0.05911068
125	0xbc9572d1	-0.018243225
126	0xbd4a93f2	-0.049457498
127	0xbd86381d	-0.065536715
128	0xbc6f8346	-0.0146187
129	0xbd01ecfd	-0.03172015
130	0x3d1a28b8	0.03763649
131	0xbcfd7d54	-0.03094355
132	0xbbe3ba2b	-0.006949683
133	0xbd65a202	-0.056062706
134	0xbd7618b2	-0.060082145
135	0xbd678d3d	-0.05653118
136	0xbc88d8d0	-0.016704947
137	0x3d631b78	0.055446118
138	0x3d1fe1f5	0.03903385
139	0xbd98c1cd	-0.074588396
140	0xbcc3d735	-0.02390633
141	0xbd55c841	-0.05219293
142	0xbdbe0c7f	-0.09279727
143	0xbd627530	-0.05528754
144	0xbcea0a30	-0.02856931
145	0x3bd3d620	0.0064647347
146	0x3d6c5e84	0.057707325
147	0x3d2b3f08	0.04180816
148	0xbd8a3806	-0.06748967
149	0xbd00a06b	-0.031402986
150	0xbd36b6e0	-0.044607997
151	0xbc82639b	-0.015916636
152	0xbd07a47a	-0.03311584
153	0xbd75e68c	-0.06003432
154	0x3cff65b8	0.031176433
155	0x3bc2c810	0.0059442595
156	0xbc639538	-0.013890557
157	0xbc88ff4c	-0.016723298
158	0xbd8d883f	-0.069107525
159	0x3a377e58	0.00069997227
160	0xbdaed842	-0.08537342
161	0x3c4ffad3	0.0126940785
162	0xbd3e9f0a	-0.04653839
163	0x3d2f069c	0.042730913
164	0xbcace7b8	-0.021106586
165	0xbba28253	-0.0049593835
166	0xbcf3ad1d	-0.029745633
167	0xbcdb4040	-0.026764035
168	0xbccedca9	-0.025251703
169	0xbd7f820c	-0.06237988
170	0x3b2d529d	0.0026446946
171	0xbd6b099a	-0.057382204
172	0xbcc04c70	-0.023473948
173	0xbd53b8a3	-0.051689755
174	0x3c947670	0.018122882
175	0xbc043910	-0.008070245
176	0x3d73e68b	0.059546035
177	0xbcb588c8	-0.022159949
178	0xbcd0fd04	-0.025511272
179	0xbdba6bfa	-0.09102626
180	0x3d2538ce	0.040337376
181	0xbda89923	-0.082323335
182	0xbc1de2c7	-0.009636587
183	0xbbcf5fd5	-0.0063285627
184	0xb9ba6b8e	-0.0003555682
185	0xbcff6d87	-0.031180156
186	0xbcc6fb09	-0.024289625
187	0xbd1d7914	-0.038445547
188	0x38c4a800	9.377301e-05
189	0xbd6e3b47	-0.058162
190	0xbddcd432	-0.107826605
191	0xbd9c1853	-0.07621827
192	0x3d071f4c	0.03298883
193	0xbd8e7682	-0.06956197
194	0x3b4ac000	0.0030937195
195	0xbd9b987c	-0.075974435
196	0x3ca02e10	0.019553214
197	0xbc2234a8	-0.00990025
198	0xbd69e04a	-0.057098664
199	0x3d226880	0.03965044
200	0xbd9f0b81	-0.07765866
201	0x3d368fbe	0.044570677
202	0x3c83ddd0	0.01609698
203	0xbcbfbaff	-0.023404596
204	0xbd78feba	-0.0607898
205	0x3d161b1c	0.036646947
206	0x391800e9	0.00014496189
207	0xbd785868	-0.060631186
208	0x3d2039d4	0.03911765
209	0xb9a7d4c2	-0.0003201124
210	0x3ca84c6c	0.020544253
211	0xbdb3818e	-0.08764945
212	0x3ce4cda8	0.027930096
213	0x3ca8c3e0	0.020601213
214	0x3d59b17a	0.05314777
215	0xbad42280	-0.0016184598
216	0x3d6e5fcc	0.058196828
217	0x3d655702	0.05599118
218	0xbdb21cc3	-0.08696892
219	0x3b9041b6	0.0044023646
220	0xbd71fad5	-0.059077103
221	0xbd3222bf	-0.043490168
222	0xba6e5600	-0.00090917945
223	0x3ca6f266	0.020379256
224	0xbdc84d31	-0.09780348
225	0x3d19d558	0.037556976
226	0xbd853ced	-0.06505761
227	0x3cb71be8	0.022352174
228	0xbcffa994	-0.03120879
229	0x3d08cf8c	0.033401057
230	0x3cc6a84e	0.024250176
231	0x3cfa5cd2	0.030561838
232	0x3c0b3c63	0.008498284
233	0xbd083f0b	-0.033263247
234	0xbd781933	-0.060570907
235	0xbc0ea467	-0.008706189
236	0x3bae03e1	0.005310521
237	0xbd94c0f4	-0.072633654
238	0xbd2bb6c2	-0.04192234
239	0x3c60f800	0.013731003
240	0x3c3ae262	0.011406513
241	0xbd69d355	-0.057086308
242	0x3d634018	0.055481046
243	0x3b0f7ca0	0.002189435
244	0x3c1afab9	0.009459191
245	0x3c7e0728	0.015504636
246	0xbd77d05d	-0.060501445
247	0xbaebe5ac	-0.0017997525
248	0x3a89fc00	0.0010527372
249	0xbd048d9e	-0.03236162
250	0xbd8bbc07	-0.06822973
251	0x3ba6f106	0.00509465
252	0xbb0744e0	-0.0020640418
253	0xbd3517c9	-0.044212136
254	0xbd221d33	-0.039578628
255	0xbd5d389e	-0.054009072

fc3.bias f4 [128]
0	0xbd5f0b43	-0.0544541
1	0x3f309628	0.6897912
2	0x3f2e607a	0.6811596
3	0xbdbbdcd1	-0.09172977
4	0x3fbc0d15	1.4691492
5	0xbd8b6a55	-0.068073906
6	0xbd8d1932	-0.06889571
7	0xbd3af73e	-0.045645945
8	0x3f143e57	0.57907623
9	0xbd9e6f68	-0.07736093
10	0xbd212c75	-0.03934904
11	0xbecc9299	-0.39955595
12	0xbd8f6afc	-0.070028275
13	0xbdaa5c10	-0.08318341
14	0xbdce4165	-0.10071067
15	0x3b6e52ef	0.003636535
16	0x3f0d863e	0.5528296
17	0x3f2630df	0.6491832
18	0x3f901cb7	1.1258763
19	0xbd38dc84	-0.045132175
20	0xbcdc3f15	-0.026885549
21	0xbe97dc0c	-0.2966007
22	0xbd82a2e6	-0.06378727
23	0x3f420e49	0.7580305
24	0xbdc71877	-0.09721463
25	0x3fb46cda	1.4095719
26	0x3f394c0e	0.72381675
27	0x3fae758d	1.3629624
28	0xbe467e8b	-0.1938421
29	0x3e9eff18	0.31053996
30	0x3c2c1677	0.010503403
31	0xbf9b11dd	-1.2114826
32	0x3f93dbe6	1.1551483
33	0x3f6edc78	0.9330516
34	0x3f8030af	1.0014857
35	0xbdb3d107	-0.08780103
36	0x3f4216a2	0.75815785
37	0xbdc5cb1f	-0.09657883
38	0xbdbf470d	-0.09339724
39	0xbd8b2e11	-0.06795896
40	0x3ecd835d	0.40139285
41	0xbd7a11f6	-0.061052285
42	0xbd4da470	-0.050205648
43	0x3d9f0922	0.07765414
44	0xbd691947	-0.056908872
45	0xbd81d929	-0.06340248
46	0xbdde5836	-0.10856669
47	0xbbc19b0d	-0.005908376
48	0x3f84a6bb	1.0363382
49	0x3ef87d2e	0.48533005
50	0xbc467be4	-0.012114499
51	0x3b9309d5	0.004487256
52	0x3f811c40	1.0086746
53	0xbd399a42	-0.045313127
54	0xbcca7e44	-0.024718411
55	0xbd060c92	-0.03272683
56	0xbd8e9163	-0.06961324
57	0x3e505f3c	0.20348829
58	0x3f353525	0.7078422
59	0x3f38281d	0.7193621
60	0x3dfa5058	0.122223556
61	0xbdc2bb46	-0.09508376
62	0x3ab7f695	0.0014035279
63	0x3fc40e2a	1.5316823
64	0xbda2c2af	-0.07947289
65	0x3f2e0876	0.6798166
66	0x3debd3b8	0.115149915
67	0x3f9b2544	1.2120748
68	0xbe4cb0cb	-0.19989316
69	0xbda8e000	-0.082458496
70	0xbd4585fd	-0.048223484
71	0xbdbd4b45	-0.09242872
72	0xbd86e3cc	-0.065864176
73	0xbd9999e3	-0.07500055
74	0xbcf37536	-0.029718976
75	0xbd163d03	-0.03667928
76	0xbe7b2a65	-0.24527891
77	0xbd84273e	-0.06452797
78	0x3f9b3103	1.2124332
79	0x3fb90e48	1.4457483
80	0x3e42e822	0.19033864
81	0xbb2c4fb9	-0.0026292636
82	0x3fc20730	1.5158443
83	0x3aeecaf3	0.0018218443
84	0x3f36d8ed	0.7142475
85	0xbe35dea5	-0.17760713
86	0xbd4a7781	-0.049430374
87	0xbcf3c2fe	-0.029756065
88	0x3f3e0b47	0.7423596
89	0xbd2e2603	-0.04251672
90	0xbd9f06ce	-0.0776497
91	0xbcf8a60a	-0.030352611
92	0x3f5f3bd1	0.8720065
93	0x3e133f6e	0.14379665
94	0xbceedcaf	-0.029157965
95	0x3fbf3bac	1.4940085
96	0xbdc9bea2	-0.098508134
97	0xbeb4dc84	-0.3532449
98	0x3f2fbcd6	0.68647516
99	0xbc6f50d0	-0.01460667
100	0xbe912dbf	-0.28355214
101	0x3f315107	0.6926426
102	0xbe25c646	-0.16188917
103	0xbd6c5904	-0.05770208
104	0xbd61a33f	-0.055087324
105	0xbdbdde3e	-0.09270905
106	0x3fa82535	1.3136355
107	0x3f337658	0.70102453
108	0xbde92931	-0.1138481
109	0xbdccb056	-0.09994571
110	0x3fbb4f5b	1.4633592
111	0xbdb42d05	-0.08797649
112	0x3e59bd83	0.21263699
113	0xbda1493b	-0.07875296
114	0x3e65b2cd	0.22431488
115	0xbdd5fbc3	-0.1044841
116	0xbe8ada2a	-0.2711957
117	0xbe73119c	-0.23737186
118	0xbbf6897d	-0.007523714
119	0x3e8e5f0d	0.27806893
120	0xbd81ebb4	-0.06343785
121	0xbd82e353	-0.06391015
122	0x3f3ca491	0.7368861
123	0xbd9e7ae6	-0.07738285
124	0x3fb91fdf	1.4462851
125	0xbd3d3c59	-0.04620013
126	0x3fb01e8b	1.3759321
127	0xbeb09530	-0.3448882

fc4.weight f4 [5, 128]
0	0x3d932cbc	0.07186267
1	0x3e150f56	0.14556631
2	0x3e8d7501	0.2762833
3	0xbd1b1fde	-0.037872188
4	0x3ee98db4	0.45615923
5	0x3d2a7ff6	0.04162594
6	0x3cb452dd	0.022012169
7	0xbcca40fd	-0.024689192
8	0xbf824768	-1.0178041
9	0x3c1cc888	0.009569295
10	0x3bef0207	0.007293943
11	0x3f410ac0	0.7540703
12	0xbccbd80c	-0.024883293
13	0x3d19d239	0.037554
14	0x3b9429d9	0.00452159
15	0xbc3b7752	-0.011442022
16	0x3f730913	0.9493572
17	0x3d9cf8a1	0.0766461
18	0xbeb013d6	-0.34390134
19	0xbc478751	-0.012178258
20	0xbd24bd67	-0.04021969
21	0x3f792511	0.97322184
22	0x3c5f9f14	0.013648767
23	0x3f425e7f	0.7592544
24	0xbd2140e5	-0.03936853
25	0x3e1794bc	0.14802831
26	0xbdbeac6b	-0.0931023
27	0x3eb9e352	0.36306244
28	0x40010a7f	2.0162656
29	0xbf755232	-0.95828545
30	0x3d475740	0.048667192
31	0x3ed9ea71	0.42561677
32	0xbfa9e8c4	-1.327416
33	0xbf031455	-0.512029
34	0xbeb5d7a9	-0.35516098
35	0x3c3355ee	0.01094578
36	0x3ee97308	0.45595574
37	0x3dae7936	0.08519213
38	0x3caf32c4	0.021386512
39	0x3d0f5d44	0.035001054
40	0x3ed78a11	0.42097524
41	0x3da5837b	0.080817185
42	0x3dc0129f	0.09378552
43	0x3b78604e	0.00378992
44	0x3d12983a	0.035789706
45	0xbd89e382	-0.06732847
46	0xbab503b1	-0.0013810304
47	0x3e02be72	0.12767962
48	0x3e3629af	0.17789339
49	0x3e49f630	0.1972282
50	0xbd4d35f7	-0.050100293
51	0xbd127b56	-0.035762154
52	0xbff64b0f	-1.9241656
53	0x3c8d2a87	0.017232193
54	0xbcbdf1a0	-0.023186505
55	0x3d30b87c	0.043144688
56	0x3cbbad27	0.022909714
57	0xbf5375ae	-0.8260144
58	0x3e6e9d08	0.2330209
59	0xc03480f1	-2.82037
60	0x3e5cae87	0.21550952
61	0x3c807dcf	0.01568499
62	0xbc6eaa32	-0.014566945
63	0x3ead4661	0.33842757
64	0xbd2a31e9	-0.041551504
65	0x3ea830ce	0.32849735
66	0x3f9a19a9	1.2039081
67	0xbf44924e	-0.76785743
68	0x3f089bff	0.5336303
69	0xbbd14855	-0.0063867965
70	0x3c83d14c	0.016091011
71	0xbda730f1	-0.08163632
72	0x3ccbb59a	0.024866868
73	0xbd72cce6	-0.059277438
74	0xbd930732	-0.07179107
75	0xbda20795	-0.079116024
76	0x3e71cf87	0.23614322
77	0xbd9f3b6a	-0.07775004
78	0xbfb16ccd	-1.3861328
79	0xbfc7fe8f	-1.562456
80	0x3ebacadd	0.36482897
81	0x3d449745	0.047995824
82	0x3ebe1b21	0.37130073
83	0x3c532d18	0.012889169
84	0x3d34e525	0.04416384
85	0x3eb8cee6	0.3609535
86	0xbca611df	-0.020272193
87	0xbd9edbee	-0.07756792
88	0xbf9626ad	-1.1730553
89	0xbd698d18	-0.057019323
90	0x3c7ca385	0.0154198455
91	0x3d20ff13	0.039305758
92	0xbea49afc	-0.32149494
93	0x3e69c088	0.22827351
94	0xbb4b92bb	-0.00310628
95	0x3ef501b4	0.47852862
96	0xbae7b9c0	-0.0017679259
97	0xbd7a573f	-0.06111836
98	0xbf0607cd	-0.52355653
99	0xbd337b2a	-0.04381863
100	0x3e8692e6	0.2628395
101	0x3ef738c9	0.4828551
102	0x3f03a51f	0.5142383
103	0xba881958	-0.001038353
104	0x3da36fa2	0.07980277
105	0xbb745520	-0.0037282184
106	0x3e351fd3	0.17687921
107	0x3e72bfb7	0.23705946
108	0x3d89be0b	0.06725701
109	0xbcc0e260	-0.023545444
110	0x3e477e11	0.19481684
111	0xbcb16c44	-0.02165807
112	0x3ec9fb77	0.39449665
113	0xbd982a68	-0.07429963
114	0xbf579702	-0.84214795
115	0xbbc6b7da	-0.0060643973
116	0xbf01523e	-0.50516117
117	0xbe8d4247	-0.27589628
118	0x3d54ee79	0.051985238
119	0x3f5c199c	0.85976577
120	0xbd839705	-0.06425289
121	0xbc506707	-0.012719876
122	0xbe799ebf	-0.24376963
123	0xbd89d498	-0.06730002
124	0x3ea0e339	0.31423357
125	0x3cc8d48d	0.024515415
126	0x3e9c86c2	0.30571562
127	0x3c86a81b	0.01643758
128	0xbd0dc3df	-0.034610625
129	0x3f2957b1	0.6614943
130	0x3e16f4fb	0.1474189
131	0x3da0e09f	0.07855343
132	0x3e9e477c	0.30913913
133	0xbd3eb33a	-0.046557643
134	0x3d287aec	0.041132852
135	0x3c926b85	0.017873535
136	0xbf86f59d	-1.0543705
137	0xb8e1250b	-0.00010735736
138	0x3c2d3cf0	0.010573611
139	0x3f838db0	1.0277615
140	0xbcb846f2	-0.022494767
141	0xbd4210df	-0.04737937
142	0xbd9440fb	-0.072389565
143	0x3cd5f125	0.026115963
144	0x3f8b69fc	1.0891719
145	0x3e1595e2	0.14607957
146	0xbf7a0304	-0.9766085
147	0x3cd3d66b	0.025859078
148	0x3c0ef191	0.008724586
149	0xbf89519b	-1.0728029
150	0x3c9ea689	0.01936652
151	0x3f1969d0	0.5992708
152	0xbb72aeb6	-0.0037030405
153	0x3e80ca14	0.25154173
154	0x3e3d3b85	0.18479736
155	0x3e60e5a0	0.21962595
156	0x3e48a272	0.19593218
157	0xbfe199cb	-1.7625059
158	0xbd397338	-0.045275897
159	0x3ec9ea3a	0.39436513
160	0xbf40ccf7	-0.7531275
161	0xbf9d2c7c	-1.22792
162	0xbfa6c197	-1.3027829
163	0xbd95b2da	-0.07309504
164	0x3ef7f4d7	0.48428985
165	0xbd22b7df	-0.039726134
166	0xbd8ec288	-0.06970698
167	0x3cb2bfa6	0.0218199
168	0xbf02c027	-0.5107445
169	0x3cb6d33a	0.022317518
170	0x3b3d87d9	0.0028920083
171	0x3ff124d2	1.8839362
172	0xbcc71270	-0.024300784
173	0xbce70391	-0.028199943
174	0x3bae276b	0.0053147576
175	0x3e31746f	0.17329572
176	0x3e3505ec	0.1767804
177	0x3e3e2f38	0.185727
178	0xbd7cdda8	-0.061734825
179	0xbd5b8d75	-0.0536017
180	0xbf970632	-1.1798766
181	0xbd6f40c2	-0.058411367
182	0x3ca05b88	0.019574896
183	0xbcada607	-0.021197332
184	0xbd87b25a	-0.06625815
185	0xc00058a9	-2.0054114
186	0x3f122047	0.570805
187	0xc0108195	-2.257909
188	0x3e67677a	0.22598067
189	0xbc8c76ac	-0.01714643
190	0xbd3642e0	-0.04449737
191	0x3ecf4577	0.40482685
192	0xbaae7cc0	-0.0013312325
193	0x3eb19547	0.34684202
194	0x3eb29125	0.3487636
195	0xbfb9e23a	-1.4522164
196	0x3d809e23	0.06280162
197	0xbd188a10	-0.03724104
198	0x3ae0e71c	0.001715872
199	0xbb89ec52	-0.00420908
200	0x3ddccca4	0.107812196
201	0x3d356795	0.044288237
202	0x3c2e5eb8	0.0106427
203	0x3b6313c3	0.003464923
204	0xbf61ff00	-0.88279724
205	0x3daaf48f	0.08347427
206	0xbf8c6caf	-1.0970668
207	0xbfcccb0e	-1.5999467
208	0xc01ff3f5	-2.499265
209	0xbcb33cf8	-0.021879658
210	0x3ea0c91e	0.3140344
211	0x3bf88b98	0.0075850002
212	0xbbc0d7ae	-0.005885086
213	0x3e44b15d	0.19208284
214	0x3ce8374e	0.028346684
215	0x3a665b89	0.00087874435
216	0xbf2c4b56	-0.67302454
217	0x3c0ced0d	0.008601439
218	0xbd48821f	-0.04895222
219	0xbd6cc87d	-0.057808388
220	0xbf43ab0f	-0.7643289
221	0x3e8cea00	0.27522278
222	0x3d9cade9	0.07650358
223	0x3f07fdfa	0.5312191
224	0x3d8bee59	0.068325706
225	0x3dc3c00e	0.09558116
226	0xbe205d54	-0.15660602
227	0xbd9ee947	-0.07759338
228	0x3e10eaa9	0.14152016
229	0x3e8f314d	0.279673
230	0xbf22db34	-0.6361573
231	0x3b7e9ad1	0.0038849602
232	0x3d8873be	0.06662701
233	0x3c9cc8e3	0.019138759
234	0x3e00069b	0.1250252
235	0x3e968ff3	0.294067
236	0x3d22e5ee	0.03977006
237	0x3d82e8c9	0.063920565
238	0x3e8b164a	0.27165443
239	0x3d5cd405	0.053913135
240	0x3f8ce49f	1.100727
241	0xbc906809	-0.017627733
242	0xbe83e91b	-0.25763783
243	0x3c218ab1	0.009859727
244	0xbebaeefb	-0.36510453
245	0x3e183e36	0.14867482
246	0xbdba7229	-0.091038056
247	0x3f7639aa	0.9618174
248	0x3bcfd791	0.006342836
249	0x3cc4ba7a	0.0240147
250	0xbc9dc3a3	-0.019258326
251	0xbd5e7b10	-0.05431658
252	0x3e98917d	0.297985
253	0xbd3dad55	-0.04630788
254	0x3e82a106	0.25513476
255	0x3cf09af0	0.029370755

fc4.bias f4 [5]
0	0x3e2fabe2	0.17155412
1	0x3fbd5a0d	1.4793106
2	0xbcd9ebdd	-0.026601726
3	0x3ebac2a4	0.36476624
4	0x3fa6c2e7	1.302823
