car_model.pth (torch, 274520 bytes, 8 tensors)

fc1.weight f4 [128, 9]
000000 9a c9 55 bf 89 dc 90 bf 78 ef ac be fe bd 1b 3f
       -0.83510745 -1.1317302 -0.3377645 0.6083678
000010 69 3c e2 be 87 c8 6d 3f 60 f4 bb be f1 ba d4 bc
       -0.44186714 0.92884105 -0.3670988 -0.025968047
000020 6a ae 1d bf 2d 9a 64 bf 49 71 04 3f 0e 61 db be
       -0.6159426 -0.89297754 0.5173536 -0.42847484
000030 7a 01 f0 3d 6a 35 cd bd ad 18 0d 3f 16 1b fb 3d
       0.11719032 -0.100199535 0.5511578 0.122610256
000040 85 7e e6 3f 57 cb 62 3f 7d 0f b9 bf 99 c3 9b be
       1.8007361 0.8859152 -1.4457852 -0.30422667
000050 43 3a 7d 3e c8 2f ff be c0 a7 48 be 7a ab 5c be
       0.24729256 -0.49841142 -0.19595242 -0.21549788
000060 06 44 d6 be 61 20 39 be f1 31 94 3f 61 36 69 3f
       -0.41848773 -0.18078758 1.1577741 0.910986
000070 a6 61 5d bf 14 de 3a 3e 67 05 ad be 6e 09 35 3e
       -0.86477125 0.18248779 -0.33793184 0.17679378
000080 91 1b 1e c0 e1 18 c3 3f 37 a5 60 3e e6 76 d5 be
       -2.4704325 1.5241967 0.21938024 -0.41692275
000090 69 4e 38 3e 59 a8 9a bf a9 72 8a bf 77 7d 8a 3f
       0.17998661 -1.2082626 -1.0816242 1.0819539
0000a0 88 5b b7 3e 50 f8 70 3f 70 16 fe be 57 91 8a 3e
       0.3581202 0.94128895 -0.49626493 0.2706401
0000b0 4c 3d 46 3f c0 56 08 c0 66 cd 44 bf 61 a1 ce be
       0.7743728 -2.1302948 -0.76875913 -0.40357497
0000c0 60 7f d6 bf 72 af 3a 3e 61 ef be 3e b1 c6 84 bd
       -1.6757622 0.1823099 0.37292007 -0.0648321
0000d0 d2 28 40 be 6b 06 8d bf 86 a3 95 bf c7 6b 91 bc
       -0.18765572 -1.1017584 -1.1690528 -0.017751588
0000e0 8a a9 a6 3f d9 10 0d 3f b3 0b 5b 3f a1 72 8a be
       1.3020489 0.5510383 0.85564727 -0.2704058
0000f0 b6 2c 2a bf 2a c4 48 bf 8c 5b 89 bf 7f e6 df 3f
       -0.66474473 -0.7842432 -1.0731063 1.7492217
000100 1e 0c 17 c0 cb 66 b9 3f ea 83 96 be d9 de a4 bd
       -2.3601146 1.4484495 -0.29397517 -0.08050317
000110 9f fd dd 3e 69 d0 de bf 7f 85 29 bf c8 f4 27 3e
       0.4335756 -1.7407352 -0.66219324 0.1640197
000120 9d d1 4b c0 f9 fc 06 3f f6 6d 67 3f 86 1f d4 be
       -3.1846688 0.52729756 0.9040216 -0.414303
000130 58 36 5b c0 d1 22 01 c0 d1 54 64 3f 11 e5 10 3f
       -3.4251919 -2.01775 0.8919192 0.5659953
000140 b3 0e 5b 3f be 8e 4d 3e 39 4d 5b c0 e0 e1 fc bc
       0.85569304 0.20073983 -3.4265883 -0.030869424
000150 f6 c8 19 bf 23 e0 40 3f 2b 54 ec 3e 70 cc 00 40
       -0.6007227 0.75342005 0.46157965 2.0124779
000160 8f de 81 bf ee 23 b2 3e 6e a9 fb bf 82 5b 3c ba
       -1.0146044 0.34793037 -1.9661081 -0.00071852666
000170 a0 ae b1 be 81 ba 49 3f cf 4a 58 bf 68 f3 ab be
       -0.3470354 0.7880021 -0.8448915 -0.33584142
000180 a7 45 23 3e 4e f1 4f 3f 0f 45 9d bf eb ca 0f bf
       0.15944539 0.81227577 -1.22867 -0.56169003
000190 d0 08 fb be 86 8c 19 3f b7 62 d1 be af 55 ba 3e
       -0.4903016 0.59980047 -0.40895626 0.36393496
0001a0 11 b4 46 bf fe 53 24 be 60 f5 03 3d 41 8a 2a 3f
       -0.7761851 -0.16047665 0.03221643 0.6661721
0001b0 12 b0 1d bf 98 a6 09 bf 07 11 43 bf bb 33 d1 be
       -0.61596787 -0.53769827 -0.76197857 -0.4085978
0001c0 df 5c 93 be 6e b4 f8 3e b0 f6 6b bf 6a 1b e7 be
       -0.28781793 0.48575157 -0.9217329 -0.45138103
0001d0 36 40 f0 bd 8b 89 cd 3e 6e 87 02 be eb 1a 4d 3f
       -0.11730997 0.40144 -0.12746975 0.801192
0001e0 aa ad 05 c0 84 16 a4 bb a9 26 2d 3f 5c b4 cc bf
       -2.0887246 -0.005007567 0.67637116 -1.5992541
0001f0 23 81 63 bf ad 21 87 bc 4d 8a b0 bf b6 4f ad bf
       -0.8886892 -0.01649555 -1.3792206 -1.3539951
000200 47 8c 08 3f 65 27 af 3e 0b 30 7c 3e 0a e2 88 3f
       0.53339046 0.34209743 0.24627702 1.0693982
000210 fe 5b 22 3f c2 18 7c bf 7c 2e c6 3f 8d f2 80 bf
       0.6342162 -0.9847528 1.5482936 -1.0074021
000220 36 0d d6 be a2 40 5e bf 89 81 ea 3e c9 9a 58 3f
       -0.41806954 -0.8681737 0.45801952 0.84611183
000230 79 57 cc 3e 4a 8b 87 be 85 1b a5 bf 04 c4 de be
       0.39910486 -0.26473457 -1.2899023 -0.43508923
000240 ea 8c 8c bc ac 35 bb 3e e6 33 0a 3f f8 20 d4 3d
       -0.017157037 0.36564386 0.5398544 0.10357851
000250 ad 02 00 3f c0 ee dd be ef b1 7d 3e 82 5c 3d c0
       0.5000408 -0.43346214 0.24774908 -2.9587712
000260 b7 45 63 bf a8 a3 d8 bf bf 45 20 3e 82 c1 41 be
       -0.8877825 -1.6924944 0.15651606 -0.18921474
000270 5a 47 be bf db cc a1 3f 75 62 d3 be 87 2a 89 3e
       -1.4865525 1.2640642 -0.41286054 0.26790258
000280 b1 c3 d1 be 82 d1 77 3f 7c 5e 03 be 78 29 a3 bd
       -0.40969613 0.9680406 -0.12829012 -0.07966894
000290 d7 4f 0c c0 d4 7f f1 bf 0e 5f 07 3f 3d 10 91 3f
       -2.192373 -1.8867135 0.52879417 1.133308
0002a0 70 f4 96 bf d3 b7 2b 3f 9d aa 33 be e5 e8 f7 bf
       -1.1793346 0.6707737 -0.17545553 -1.9367949
0002b0 fb eb ea 3c b8 5b dd 3e 3e 77 d1 3d 95 fd 5c c0
       0.028676977 0.43234038 0.10227822 -3.4529774
0002c0 31 d9 eb be a1 c4 80 bf 83 66 20 3e a2 a0 37 3e
       -0.4606414 -1.0060006 0.15664105 0.1793237
0002d0 23 47 3b 3e 94 d1 8c bd 02 db 0c bf cb d9 f3 3e
       0.18288855 -0.06875911 -0.5502168 0.476271
0002e0 b9 02 d3 3c 62 c6 cb 3e 2a 6f 2c 3f a1 58 fd 3e
       0.025758134 0.39799792 0.6735712 0.4948168
0002f0 a2 d3 5d c0 3d e5 44 be 65 f7 7f 3f 38 a5 56 3f
       -3.466042 -0.19228072 0.9998687 0.83845854
000300 a1 16 b9 be 98 27 81 bd e2 b7 ca 3d fb 61 ec 3e
       -0.36150077 -0.0630638 0.09898354 0.46168503
000310 6a 7e 7c 3f e6 33 e6 be 53 bb fe 3c 91 47 d1 3e
       0.9863039 -0.4496147 0.031095183 0.40874913
000320 d3 30 3d be 7f 3c cd be 6b dd 38 3f cb 7d 09 bf
       -0.18475656 -0.40085217 0.72212857 -0.5370757
000330 63 c0 8d bf 67 dc bc c0 0d 62 26 3f c8 59 bc bf
       -1.1074337 -5.9019046 0.64993364 -1.4714899
000340 ca 2f 2f 3f 35 a1 73 3f 58 71 eb 3d 02 8f 78 bd
       0.68432295 0.9516786 0.11496228 -0.060683258
000350 c9 e6 36 3f 56 9f 19 3f 68 53 81 3f 2d ab e2 be
       0.714459 0.6000875 1.0103579 -0.44271222
000360 02 b7 85 3f ae 9f 71 3f 17 d7 11 c0 b0 8d 22 bf
       1.0446475 0.94384277 -2.278753 -0.6349745
000370 bd 3c 4d 3e 7b e1 25 bf f1 53 e6 3f 0b 6f 31 c0
       0.20042701 -0.6479718 1.7994367 -2.7724025
000380 eb 1d 8c be 1e 5b e5 c0 7c 64 31 c0 89 b3 e2 be
       -0.27366576 -7.1673727 -2.771758 -0.442776
000390 4b aa 1a 3f b0 22 2a 3f b4 c1 8d bf 46 7a 3d c1
       0.60416096 0.6645918 -1.1074739 -11.842352
0003a0 f8 4e 1c c1 a6 93 f6 bd 1e ac 95 3f 9f d8 7f bf
       -9.7692795 -0.120398805 1.1693151 -0.9993991
0003b0 b1 bf aa bf 39 01 5b 3f ec 87 3a bf 5f 0b 87 be
       -1.333975 0.8554874 -0.7286365 -0.26375863
0003c0 cc 15 1d 3e 00 0d ab be 5b 43 2c bf 99 d9 2a bf
       0.15340346 -0.33408356 -0.67290276 -0.6673828
0003d0 14 ba 95 3f 9c ec d0 3d 07 e6 cb bf 93 d6 87 3b
       1.1697412 0.1020138 -1.5929574 0.0041454523
0003e0 a5 92 ad bf 29 f6 32 3f b9 fb c4 3f 0d 38 89 3f
       -1.3560377 0.6990686 1.538932 1.072023
0003f0 83 67 dc bd 9a a7 72 bd fc b0 dc 3e 1a 4c fd 3e
       -0.10761931 -0.05924187 0.43103778 0.49472123

fc1.bias f4 [128]
000000 21 47 13 3d d1 be e9 be d7 48 3a bf c5 db c1 bd
       0.035956506 -0.45653394 -0.72767395 -0.09465746
000010 8d 85 37 bf 1f a8 0c 3f 12 26 d0 be 10 32 41 bf
       -0.7168816 0.5494403 -0.40654045 -0.75467014
000020 f6 5f 39 3f ea d5 07 3b 88 d0 e9 3e ef ea 34 3f
       0.7241205 0.0020726868 0.4566691 0.7067098
000030 e9 07 65 be b4 18 17 3f 47 e4 36 3e 62 df 62 3e
       -0.22366299 0.5902207 0.17860518 0.22155526
000040 c7 6c ea 3e 2a 4a 21 3d 00 35 cd 3e 3a ae 07 bf
       0.45786116 0.03937737 0.40079498 -0.53000224
000050 9b 1f fe be 73 0c 25 bf a6 6e bf 3e 96 39 5f bf
       -0.49633488 -0.6447212 0.37389106 -0.87197244
000060 07 43 b9 3d a1 bf 07 3f ba af 0c be df 93 05 bf
       0.090459876 0.5302678 -0.1373891 -0.5217876
000070 4a 36 09 be 6c 1c 63 3f 29 2d 53 3f 12 5b e8 3d
       -0.13399616 0.88715243 0.82490784 0.11345495
000080 c3 c3 c2 bd a8 a8 80 bf 3f 7d 6f be 1f ab 56 be
       -0.09509995 -1.005147 -0.23387621 -0.20963715
000090 60 6f 9d bf fb e3 2c 3e ea 2d ea be 35 eb 31 be
       -1.2299614 0.16883843 -0.45738155 -0.1737488
0000a0 e7 11 e3 3d 94 1b 9c 3e e5 62 51 bf 46 52 55 3f
       0.11087399 0.3048979 -0.81791526 0.83328664
0000b0 a9 e5 e6 3c 35 0c 0e bf 08 f5 84 bf 46 45 a4 bf
       0.028185682 -0.55487376 -1.0387278 -1.283364
0000c0 42 14 cf 3d 26 41 ac 3f b5 50 38 3f 65 de 30 3c
       0.10111286 1.3457382 0.7199815 0.0107952105
0000d0 02 ab ea be 2b 25 cf bd 7d c3 46 bf 6a a3 35 bf
       -0.45833594 -0.10114511 -0.7764204 -0.70952475
0000e0 1d 1f 69 bf 05 1c 62 bf 9d 12 4f 3f ae 83 8d bf
       -0.910631 -0.88324004 0.80887777 -1.105581
0000f0 fd 23 20 3d 8e 20 cc 3e 10 49 25 bf 16 1e 24 bf
       0.03909682 0.39868587 -0.6456461 -0.6410841
000100 2f 64 6d 3f 40 3e f2 be 01 ba e1 3e e3 b7 91 bf
       0.92730993 -0.47313118 0.44087222 -1.1384243
000110 b5 50 d3 be 31 73 62 bf a3 46 e0 be 38 89 12 bf
       -0.41272512 -0.8845702 -0.43803892 -0.5724063
000120 b8 b8 34 bf b1 ca 16 3f f5 dc ab 3e b7 3d 23 bf
       -0.7059436 0.5890303 0.33567014 -0.63766044
000130 f6 66 b2 3e 6f 51 f5 3e 82 5d 82 bf 3e 73 02 bf
       0.34844178 0.4791369 -1.0184786 -0.50957096
000140 27 8d 14 3e c8 3d 6f bf c1 63 85 3f 63 33 fa be
       0.1450697 -0.93453646 1.0421067 -0.4886733
000150 25 4d f6 3e 23 bd ba 3e 74 a8 2c bf d9 32 64 be
       0.48105732 0.36472425 -0.6744454 -0.22285022
000160 dc 61 91 bf c9 64 bd be fe a4 55 bc 90 10 a5 3f
       -1.1357989 -0.36990955 -0.0130398255 1.289568
000170 af bc ab 3e a4 e0 19 be f4 f2 3c 3f a1 80 31 3f
       0.33542392 -0.150271 0.7380822 0.693369
000180 6e 5d 6a be 98 e7 e7 be 9c 90 7d 3d e7 4b 13 3f
       -0.22887203 -0.4529388 0.06190549 0.5753769
000190 c9 ff a6 3e f9 4c a3 3e 56 51 3c bf d7 0f 4a 3f
       0.32617024 0.31894663 -0.7356161 0.7893042
0001a0 ee d8 3e 3f d9 09 03 bd 6e 26 0c 3e fb b1 5b bf
       0.7454976 -0.031991813 0.13686535 -0.8581845
0001b0 2b fe 68 3e 6a 25 8f bd d4 b7 f8 be 9d 6f ba bd
       0.22753207 -0.06989558 -0.4857775 -0.0910332
0001c0 60 4c 00 3f fa 3e a7 3f b1 7d 50 3f 91 c2 c3 3e
       0.5011654 1.3066094 0.8144179 0.3823438
0001d0 ad 3a 60 bf 93 04 34 bf 4e 8d 96 be 53 9d c2 3e
       -0.8758953 -0.7031948 -0.29404682 0.38010654
0001e0 b4 b4 37 bf 52 b0 03 3f a4 1b 85 3e ef 7c 7b 3e
       -0.71760106 0.5144092 0.2599765 0.24559377
0001f0 4a 12 e7 3d 7a 21 e0 3d df d4 6c be 9e 13 39 be
       0.11282785 0.10943885 -0.23128079 -0.1807389

fc2.weight f4 [256, 128]
000000 8c c1 c6 bf b8 e4 53 3d 78 7d fa 3e 01 94 ab 3f
       -1.5527816 0.051731795 0.4892385 1.3404542
000010 0a 75 67 bf 61 9e d0 3f 3a 5a 74 3c 55 c0 30 3f
       -0.9041296 1.6298333 0.01491409 0.69043475
000020 49 c5 8e 3f fb 2d d8 3e 02 d2 85 be ac 78 7c 3f
       1.1153957 0.4222258 -0.26136786 0.9862163
000030 10 44 be bd e3 5d 0f bf 20 9c 9b 3e 61 23 7f 3f
       -0.09290326 -0.56002635 0.3039255 0.9966336
000040 dc 21 d9 3d 07 bf b7 3f cf ea a4 bd 91 ea 8d 3d
       0.10602161 1.4355172 -0.08052599 0.069295056
000050 4e 7f 2e bf 26 cd 2b 3d fa 0a 05 3f 00 e1 d2 be
       -0.68163 0.04194369 0.51969874 -0.41187286
000060 8e af 1c bf e1 67 8e bd 78 c1 34 3f 46 c9 79 3e
       -0.61205375 -0.06953407 0.7060771 0.24393186
000070 15 06 90 3f 5d 03 ef 3e a9 85 ba bf 23 c5 5a 3e
       1.1251856 0.46682253 -1.457204 0.21364264
000080 ea 19 b8 bf 12 d0 a3 be 69 60 5b 3e da 3f 89 bf
       -1.4382908 -0.31994683 0.21423496 -1.0722611
000090 b3 2d b4 3f 9f 9f 6a 3f 29 d6 7a 3f c4 2b c7 3e
       1.4076446 0.9164981 0.9798303 0.38900578
0000a0 0e 05 00 3f ef 96 8f be 31 b5 27 3e 91 0c 72 3e
       0.5000771 -0.2804484 0.16377713 0.23637606
0000b0 eb 30 f4 3e ad 42 f6 bd 8b b2 3d bf 22 ce 33 bf
       0.4769357 -0.12024436 -0.7410056 -0.7023641
0000c0 ac 93 cd be 26 a9 a0 bf 4e 30 57 3e 7a 5a 8a bf
       -0.40151727 -1.255162 0.2101452 -1.0808861
0000d0 f8 7a e1 3f c3 a0 69 bd e6 a0 3a 3f 88 e1 d8 bf
       1.7615652 -0.05703808 0.7290176 -1.6943827
0000e0 57 17 e6 be 09 ba 61 be 9b 25 41 3f 1b 25 a5 bd
       -0.44939682 -0.22043623 0.75448006 -0.08063718
0000f0 c8 1a d3 3e ea 8d d4 3f c2 9d c2 3f d3 b8 ba 3d
       0.4123137 1.6605809 1.5204394 0.09117284
000100 76 e1 6d bf 34 1e 6a bf 6d 40 e0 3e c8 99 c0 be
       -0.9292215 -0.91452336 0.43799153 -0.37617326
000110 67 25 2a bd 03 ef 9c bc c6 8e a0 ba 39 a6 37 bf
       -0.041539576 -0.019156938 -0.0012249581 -0.7173801
000120 2f 10 2f 3f 89 43 45 bf d6 c5 9f 3f 91 dc 22 be
       0.6838407 -0.77056175 1.248225 -0.15904452
000130 0e 8a d6 be f0 33 ff 3e 7e 61 86 3f 26 64 8e be
       -0.41902202 0.49844313 1.0498502 -0.27810782
000140 b3 b0 63 3f 44 80 84 bf fd b4 e8 be 97 81 dd bf
       0.88941497 -1.0351644 -0.45450583 -1.7305173
000150 c2 2f b9 3d 02 21 52 bf f9 61 8d bf 78 3f 0e 3f
       0.09042312 -0.82081616 -1.1045524 0.55565596
000160 cf a8 fa bf 60 73 50 bf 61 f9 38 bf 1e 4a 07 bf
       -1.9582766 -0.8142605 -0.7225552 -0.5284747
000170 5f 23 90 be eb bb 0f be e0 bb be be d1 9c d6 be
       -0.28151986 -0.14036529 -0.37252712 -0.41916516
000180 24 fa 0d bf 1a 4c 01 3d 51 fb 4f 3f 01 cb 36 3f
       -0.5545981 0.031566717 0.81242853 0.7140351
000190 71 e2 99 3e 2a 95 5e 3f fb fb 85 bf 03 c1 f9 3e
       0.30055574 0.86946356 -1.0467523 0.4878007
0001a0 80 2d 97 be b4 4e fd bf 17 cf a5 bf ef 47 16 3f
       -0.295269 -1.9789643 -1.2953824 0.5870351
0001b0 35 31 16 be 7a 95 13 bf 8d 2e cc 3e f4 4b 22 bf
       -0.14667208 -0.5764996 0.39879265 -0.63397145
0001c0 0c 05 8c 3e 98 05 68 be 57 4b df 3e 11 cf 9f bf
       0.273476 -0.22658384 0.43612167 -1.2485067
0001d0 a0 e4 3b 3f 37 ff ab be c0 03 bf bd 64 60 bb 3e
       0.7339573 -0.3359315 -0.09326887 0.36596978
0001e0 8b e6 cf be 93 88 f5 3e bf 6b 44 bf 05 bf 12 bd
       -0.40605578 0.4795576 -0.7672691 -0.0358267
0001f0 91 05 d6 bc 01 6c f6 be af c5 a9 3e 81 f8 ba bd
       -0.026125701 -0.48129275 0.33158633 -0.091294296
000200 51 81 b6 3e a8 2b 63 be d3 e0 59 bf 47 0d 20 bd
       0.35645536 -0.22184622 -0.8510868 -0.039075162
000210 05 dd 6f 3f 17 2e a0 3e 49 d9 88 bf 6f 71 3c 40
       0.93696624 0.31285164 -1.069131 2.9444234
000220 ba a5 f9 bf ad 1a a9 bf ba a6 d4 bf 9f 66 b2 3e
       -1.9503701 -1.3211266 -1.6613381 0.3484392
000230 97 76 21 3f 04 8f 65 3f 63 16 7d be f1 f4 ed be
       0.6307158 0.8967135 -0.24715571 -0.46475938
000240 82 02 99 be ef 01 74 bf a7 97 c3 3f 90 34 fc 3d
       -0.29884726 -0.9531545 1.5280656 0.12314713
000250 ab bf fb 3e 57 4c 7f bf 3e d3 5e 3f 2c 6e 28 bf
       0.4916967 -0.9972586 0.8704108 -0.6579311
000260 03 d1 f4 3f 6e d3 ef bd 75 69 80 3e 1f 16 6a bf
       1.9126285 -0.11710249 0.25080457 -0.91440004
000270 2e 98 2a be ae 03 32 3f 48 6b f3 bf 85 65 21 3f
       -0.16659614 0.69536865 -1.9017115 0.6304553
000280 ff 11 c3 3f 16 6d 0d c0 b4 b4 ae bf 7a e9 c3 3f
       1.5239867 -2.209783 -1.3648896 1.5305626
000290 46 79 34 bc e0 91 b3 3f b0 e7 6b be d4 74 d6 3e
       -0.011015242 1.4028893 -0.230376 0.41886008
0002a0 26 d0 1b bf a6 e8 9f bf 71 ae 95 bf 7c 19 70 3f
       -0.60864484 -1.2492874 -1.169386 0.93788886
0002b0 e6 b6 0f 40 3a c2 d1 bb 72 a5 3e 3f 08 6b 78 bf
       2.2455382 -0.0064013274 0.744712 -0.97038317
0002c0 12 33 ea bf f4 e9 e2 3f 25 c8 37 3f 66 ac 34 be
       -1.8296835 1.7727647 0.7178977 -0.1764389
0002d0 49 39 23 3e 0e 86 fe be fd 0e e8 3e 94 43 e0 bf
       0.15939821 -0.4971165 0.45323935 -1.7520623
0002e0 ba 32 43 be ff 71 d9 bd 69 cb f2 3e ac 91 db bf
       -0.1906232 -0.10617446 0.47420815 -1.715383
0002f0 db 2c de 3f 7c 9c eb be 1d a2 a6 3f d5 f9 8b bf
       1.7357439 -0.46017826 1.3018223 -1.0935618
000300 5d 29 4e 3f 29 37 cb be 07 8f 78 bd 31 bf bc bd
       0.80531865 -0.3969052 -0.060683277 -0.09216154
000310 e6 33 a9 be 79 b5 ed bf 3b 21 b1 be 7e 3f bd 3f
       -0.33047408 -1.8571006 -0.34595665 1.4785001
000320 4f cd a9 bd 66 7a 0c bf 47 92 04 3f d0 3f b6 3f
       -0.08291113 -0.54874265 0.517857 1.4238224
000330 5e fa 55 3f 9f 0c 49 bf 2e 66 63 be e9 85 08 3f
       0.83585155 -0.78534883 -0.22206947 0.5332933
000340 55 5a 0e c0 66 1f 72 bf b3 af 8b 3f f8 cd 50 bf
       -2.2242634 -0.9457916 1.0912994 -0.81564283
000350 73 26 4c 3f 46 0a a9 3f 36 ae 68 bf 49 36 9b 3f
       0.7974617 1.320626 -0.90890825 1.2125942
000360 f1 05 31 bf 3d 0f ee 3f 8c 01 b0 3e 9a e6 dc 3c
       -0.6914969 1.85984 0.3437618 0.026965428
000370 e1 ce 7e 3f c9 94 44 c0 56 af c1 3e 1a a2 b3 3f
       0.9953442 -3.0715811 0.37829083 1.4033844
000380 3e b1 b2 3f 8a c6 5f bf bb 23 e2 3f 0a ea 05 bf
       1.396034 -0.8741232 1.7667154 -0.5231024
000390 27 22 2b 3f a5 5d ea bf 72 7a af bf 3c ab 5e bc
       0.6684899 -1.8309828 -1.3709242 -0.01359063
0003a0 2f 57 c6 bf 35 0d e0 3e 75 29 0d 3f 00 1d f0 bd
       -1.5495356 0.43760076 0.55141383 -0.11724281
0003b0 45 f8 c7 be 35 22 f9 bf 24 0e 82 3f 62 7b 47 3f
       -0.39056602 -1.9463564 1.0160565 0.7792264
0003c0 30 bb 84 be a9 4a 0c bd 21 00 70 bd 5a 54 5e 3f
       -0.25924063 -0.03425089 -0.058593873 0.8684746
0003d0 01 66 b0 bf e2 46 ed 3f bc 08 28 3f 2a 62 ea 3e
       -1.3781129 1.8537257 0.6563833 0.45778018
0003e0 d1 95 b7 3f a2 17 d3 be f0 b9 e5 bd 97 67 5f bf
       1.4342595 -0.41228968 -0.112171054 -0.8726744
0003f0 ab 5d 84 3f 80 db 55 3f 7e cd e9 be 12 e2 33 3f
       1.0341085 0.83538055 -0.4566459 0.7026683

fc2.bias f4 [256]
000000 ce 8b a5 bf 5f fe 05 bf 2b fc 34 3e 99 fc 11 3f
       -1.293329 -0.52341264 0.1767432 0.5702606
000010 6b 06 03 bf ec bb eb 3f 8b 8b c1 bf 50 88 06 c0
       -0.5118167 1.8416724 -1.512071 -2.1020699
000020 1e 78 c7 3d 13 91 a0 3e d5 67 b2 bf eb bf 2c 3f
       0.097397074 0.31360683 -1.3937937 0.67480344
000030 8d 86 e8 3f 51 a1 50 be bd b0 f8 3d b0 1a 7a bf
       1.8166062 -0.20374037 0.12143085 -0.9769697
000040 d0 16 4c bf cf 8d 80 bf bd 6d c9 be ee 96 81 bf
       -0.7972231 -1.0043277 -0.39341536 -1.0124185
000050 05 07 11 be fd 01 e1 ba 37 51 0c 3e ad 62 60 3f
       -0.14162834 -0.001716673 0.13702856 0.8765057
000060 74 63 0c c0 1d 66 05 3e ca 49 40 be 49 fc f2 be
       -2.1935701 0.13027234 -0.18778148 -0.47458103
000070 2c c2 f0 bc 79 79 91 bf 08 46 69 be 9c 2f 4e 3f
       -0.029389463 -1.1365196 -0.22780621 0.80541396
000080 ad fe 01 bf 53 2f 40 3f 1a bc 9a bf e2 81 0c 3f
       -0.5077923 0.7507221 -1.2088654 0.54885685
000090 08 6b 20 3f 5c a1 86 bf 9f c8 05 3e 34 ab a0 bf
       0.62663317 -1.0517993 0.13064812 -1.2552247
0000a0 9e ad fe bf e4 54 cd be 68 31 d4 bf 57 32 1c bf
       -1.9896734 -0.4010383 -1.6577578 -0.6101431
0000b0 39 2a 22 bf 13 2b 13 3c 02 9f 05 3e 2f f2 07 be
       -0.63345677 0.008982438 0.13048938 -0.1327598
0000c0 b6 12 2b bf 8c 59 8f bf 23 a7 91 bf 85 3f ea 3e
       -0.66825426 -1.1199203 -1.1379131 0.45751587
0000d0 6c e7 a2 be 9e 53 90 bf 37 f8 3c 3e bc fd b6 bd
       -0.31817186 -1.1275518 0.18454061 -0.08935115
0000e0 20 4a 02 3f da 89 8b 3f 89 b3 4d bc eb 84 e0 3f
       0.50894356 1.0901444 -0.012555012 1.7540563
0000f0 40 53 1c bf 4a 8e 75 3f a4 02 53 3f 2a 40 07 be
       -0.6106453 0.9592024 0.82425904 -0.1320807
000100 88 cf 2e 3f 42 aa 35 3f 87 a4 6f bf 7e cd 02 bf
       0.6828542 0.7096292 -0.93610424 -0.51094806
000110 7b 6f 0c 3f 5e d6 28 3e e7 72 09 bf 9d 40 65 bf
       0.54857606 0.16488025 -0.5369095 -0.8955172
000120 a2 37 48 3f 7d 83 13 3d a4 cd c2 bf be 8f 99 bf
       0.7820989 0.03601407 -1.5219007 -1.1996992
000130 c8 58 58 3f fe af c5 be 92 b6 81 3e 09 4c 6d be
       0.8451047 -0.38610834 0.25334603 -0.23173536
000140 16 90 0f be 12 fb 07 bf 67 d8 69 3f 27 4b c4 bd
       -0.14019808 -0.5311748 0.9134583 -0.09584647
000150 63 c6 19 3f a1 75 9e bf 1e b7 8f 3e 27 3a 10 bf
       0.6006834 -1.2379647 0.28069395 -0.56338733
000160 b5 94 f0 3e ef db bd be b6 94 d2 be ad bf a5 be
       0.46988454 -0.3708186 -0.41129082 -0.323728
000170 04 d0 3c 3f 71 a5 36 3f 5e fa ea 3e 68 44 15 3e
       0.73754907 0.71346194 0.4589414 0.14576876
000180 72 ad c9 bf ed 86 28 3f bf 6f d1 bd ec 70 c6 3e
       -1.5756056 0.6583088 -0.10226392 0.38758028
000190 b2 de 8d be e2 db 51 be 9e 76 64 bf 68 3e 53 3f
       -0.27708966 -0.20494035 -0.89243495 0.825171
0001a0 fb fd a0 be 4f 55 d5 bf 91 bf 1b 3f 8d 37 ae bf
       -0.31443772 -1.6666659 0.6083918 -1.3610703
0001b0 62 07 4b bf 72 c6 03 3f 6c 27 9f 3f df c1 f8 be
       -0.7930814 0.5147468 1.2433906 -0.48585412
0001c0 14 9a a4 bf 3e 90 46 be 8f e3 25 3f b1 4f 05 c0
       -1.2859521 -0.19390962 0.6480035 -2.082989
0001d0 ea f1 fd bd 54 c6 a2 3e 9e 6c c2 3d 2a 70 b1 bf
       -0.12399657 0.31791937 0.09493373 -1.3862355
0001e0 be 82 55 bf 8f 37 87 bf 5d f0 53 3f c8 47 51 3f
       -0.8340262 -1.056383 0.8278864 0.81750154
0001f0 fb 66 fb be 84 12 1d be 25 6a 85 be 61 b4 57 3e
       -0.49102005 -0.15339094 -0.26057544 0.21064903
000200 50 6e dd 3e e7 7a cb bf 11 bb c2 bf 05 fd fa 3e
       0.43248224 -1.5896882 -1.5213338 0.49021164
000210 a2 6d 05 bf 4c cf 12 3f 8e cf ec be 2d 32 b5 bf
       -0.5212041 0.5734756 -0.46252102 -1.4155937
000220 4c 43 7a 3d 6a 6a c4 bf 1e c8 02 40 2b ed f0 bf
       0.061099336 -1.5344975 2.0434642 -1.8822378
000230 59 38 ef 3d d4 14 d5 3d d5 97 a3 bf aa 14 e6 3e
       0.11680669 0.10404363 -1.278071 0.4493764
000240 6a 16 b8 bf 7b 47 da bc fa c0 bb be 29 38 97 be
       -1.438184 -0.026645413 -0.36670667 -0.29535034
000250 8b d0 f2 3e e4 da da be 4b 1d 97 bf c5 21 c9 3e
       0.4742473 -0.42745125 -1.1805815 0.39283577
000260 48 57 d0 3e 2b c0 86 3f 08 9d df bf 25 12 aa be
       0.4069159 1.0527395 -1.7469797 -0.33216968
000270 5c 21 84 bf 99 1b d0 be 2c d9 ca bf ff 39 b4 bf
       -1.032268 -0.40646055 -1.5847526 -1.4080199
000280 be 68 8e bf 2b 48 d9 3e c1 48 72 3f 49 2d 01 3e
       -1.1125715 0.42437872 0.94642264 0.12614931
000290 55 f9 54 3e 5e 04 7c 3e 00 44 fd be 6f 95 75 bf
       0.20798238 0.24611041 -0.49465942 -0.9593114
0002a0 88 af 06 3f 12 b4 d2 bf 88 fb be 3f f5 9e 35 be
       0.5261159 -1.6461203 1.4920511 -0.17736419
0002b0 a5 90 f7 bf 26 c5 53 3f f1 d9 21 bf 8a 95 b1 be
       -1.9341017 0.827227 -0.6322318 -0.34684402
0002c0 3d f5 81 3e c1 d2 c3 bf 43 e9 30 bf 98 ca 66 bf
       0.25382414 -1.5298692 -0.6910593 -0.90152884
0002d0 27 fe d2 bf 98 27 00 be c7 70 8f bd b2 5f 08 c0
       -1.6483811 -0.12515104 -0.070039324 -2.1308408
0002e0 c5 04 4c bf a9 2e f4 3e 0f dd dd 3e 16 fe a0 3e
       -0.7969478 0.4769185 0.43332717 0.31443852
0002f0 b1 8c 1a 3d d7 9b 45 3e 0f 74 cf 3e 69 bf d5 be
       0.03773183 0.1929773 0.40518233 -0.41747597
000300 44 11 1c 3f 3a 9f 8c bf 4a cd 2f 3f 71 a3 a8 3e
       0.60963845 -1.0986092 0.6867262 0.32937196
000310 ce 4e 24 3f ca f6 33 3f 81 41 70 3d 3a 85 1e bf
       0.64182746 0.70298445 0.05865622 -0.6192204
000320 f6 de d2 3e 25 8e 25 3e 0b d6 78 be 95 0a f7 bf
       0.4118573 0.16167505 -0.24300401 -1.9300104
000330 98 19 7d bf 77 c4 fe 3c bd c3 eb bf 66 b9 30 3e
       -0.9886718 0.031099541 -1.841911 0.17258224
000340 3a 0a 90 3d 6e 97 af 3b ca ac c7 bf ae d6 8a bf
       0.070332006 0.005358628 -1.5599606 -1.0846765
000350 dc 05 76 3e 43 0b 37 3f f2 00 46 3f b6 d9 b6 be
       0.24025673 0.7150156 0.7734519 -0.35712975
000360 e0 74 56 3f 97 48 1e 3f 6a 78 ea bd e4 95 0b 3f
       0.8377209 0.61829513 -0.114487484 0.5452559
000370 e1 a6 48 bf bd 38 ab bf 1d b5 4f bf d5 26 9b 3f
       -0.78379637 -1.337669 -0.8113573 1.2121226
000380 28 de 1e bf 4b 65 8e be d6 20 23 3f e6 00 48 3e
       -0.62057734 -0.27811655 0.6372198 0.19531593
000390 48 90 ab 3e d7 73 c6 3d 99 46 e4 3e b7 87 eb bf
       0.33508515 0.096900634 0.44585112 -1.8400792
0003a0 86 e0 a5 3c 97 d0 58 bd 42 90 b3 3f 40 d4 1f 40
       0.020248663 -0.0529333 1.4028399 2.4973297
0003b0 df c3 00 bf 3e fb 76 bf 21 dc 44 bf 3b ff 63 bf
       -0.50298876 -0.96477115 -0.7689839 -0.89061326
0003c0 3d 61 56 3f 91 1c 1e be b5 96 d7 3f 69 db 89 be
       0.83742124 -0.15440585 1.6842867 -0.2692521
0003d0 09 af 73 bf 7b c8 63 bf c8 fe a7 bf 93 8b 25 3f
       -0.9518896 -0.88977784 -1.3124628 0.646661
0003e0 c9 3c 0c bf 77 02 1f bf dc fb 18 40 88 e0 d4 bf
       -0.5478025 -0.62113136 2.3903723 -1.6631021
0003f0 37 cb 97 bf 35 c9 ca be 79 d3 25 3e 56 5a 06 3d
       -1.1858891 -0.39606634 0.16193952 0.032800995

fc3.weight f4 [128, 256]
000000 ce ca 9f bd fb e7 a4 be 50 21 96 be 3b 02 6f c0
       -0.07802354 -0.32208237 -0.2932229 -3.7345111
000010 cd 93 d1 3c 9d 52 da bd f0 1d e7 3f 93 83 cc 3f
       0.025583172 -0.106602885 1.8056011 1.5977653
000020 26 ac d9 3e 78 59 78 3f 31 ad f7 be 20 9d 99 bf
       0.4251415 0.9701152 -0.48374322 -1.2001076
000030 cb d8 b7 bd 11 20 bf bd 71 fe 0a bf b3 4b ae 3f
       -0.08976897 -0.09332288 -0.54294497 1.3616852
000040 ea 3a 80 3d f3 7e 7b be 21 d8 8c c0 58 a4 d1 3e
       0.06261237 -0.24560146 -4.401383 0.40945697
000050 72 8a 33 bf 03 27 85 3f 64 f5 a2 3f 95 a5 96 3f
       -0.70133126 1.040253 1.2731137 1.1769282
000060 db 78 fa bc 3f ba 20 be 5f 04 94 bd ff df 73 bf
       -0.030575207 -0.15696047 -0.07227396 -0.95263666
000070 05 34 b5 3d 2a 3d 17 c0 cf 3e 26 3f 87 79 bc be
       0.088478126 -2.3631082 0.6493959 -0.36811468
000080 ac 87 07 bf 7d 39 28 bf 26 dc 31 c0 06 41 09 c0
       -0.52941394 -0.6571272 -2.7790618 -2.1445937
000090 0b e0 f3 bf b5 cf 58 3f 14 01 04 bf 8f 71 d5 3d
       -1.9052747 0.84691936 -0.51564145 0.1042205
0000a0 50 1a 99 3e dc 02 10 be 78 39 e9 3e e0 43 dc be
       0.29902887 -0.14063591 0.45551658 -0.43020535
0000b0 30 ab 8f bd 25 52 ae 3f f4 2e e5 bf f1 34 f5 be
       -0.07015073 1.3618819 -1.7904954 -0.47891954
0000c0 27 0e 61 bf bb 06 a5 bf 78 bf 74 3f 58 35 9f bf
       -0.8791222 -1.2892679 0.9560466 -1.2438154
0000d0 c4 32 0a 3f 6d 37 21 bf 50 b5 0f 3f a3 4b d9 bf
       0.5398371 -0.629752 0.56136036 -1.6976207
0000e0 61 1f fe bf 8c 21 8e bf b7 44 33 be c9 a6 60 3e
       -1.9853326 -1.1103988 -0.17506681 0.21938623
0000f0 0e 2a 86 bf e9 b1 00 c0 6b 8b 1d c0 35 64 47 3f
       -1.0481584 -2.0108588 -2.4616344 0.7788728
000100 dc b5 52 3f 9d c3 3a c0 4d 84 f6 bf 82 8c 7c 3f
       0.82308745 -2.9181893 -1.9259125 0.986519
000110 a2 e3 56 bf 64 75 e3 be 03 dc 01 bd be d3 b3 3f
       -0.8394109 -0.444255 -0.03170396 1.4048994
000120 8b fc 3c 3e 2e f3 64 3f cf 6f a2 3e 45 40 85 be
       0.18455712 0.8943356 0.31725928 -0.26025596
000130 4d 4b f5 3d b8 99 e5 3e f1 c4 84 bf b7 3f 29 bf
       0.11977253 0.4484384 -1.0372602 -0.66112846
000140 83 72 56 c0 bf 1b 44 3f 63 a0 c7 3e ba 4c 09 c0
       -3.3507392 0.7660484 0.38989553 -2.145308
000150 1f 91 d6 be cf 2f 1a 3f 83 60 c0 be 51 78 da bf
       -0.41907594 0.602292 -0.37573633 -1.7067968
000160 e0 e8 78 be f8 02 1e 3f 2c 4b 93 3c 25 36 df 3e
       -0.24307585 0.6172328 0.01798018 0.43595996
000170 61 d3 c2 3e 76 a0 a6 bc 32 c5 47 3f 46 67 fa bf
       0.38051894 -0.020340186 0.7803527 -1.9562767
000180 f5 7f b3 3f 6f d3 be bf 19 74 ce 3e 07 13 ec bf
       1.4023424 -1.4908274 0.4032295 -1.8443307
000190 00 8a a5 3f 5d b2 29 3e ab 1c e6 3e bd 87 c7 bf
       1.2932739 0.16571946 0.44943747 -1.5588299
0001a0 e3 97 64 bf 08 8e 74 3f af 43 1f c0 c1 4e 5d 3f
       -0.8929426 0.9552922 -2.488506 0.86448294
0001b0 22 93 bc bd 8b 10 85 be c6 13 de 3e 50 03 bf bf
       -0.09207751 -0.25989184 0.4337446 -1.4922886
0001c0 6a 51 5b be 8b 47 56 c0 bd eb 86 3e 35 9e 18 3f
       -0.21417776 -3.3481166 0.2635173 0.59616405
0001d0 98 e2 19 40 26 dd e9 3e b8 4f a5 be 41 5d 8d 3f
       2.4044552 0.45676535 -0.32287383 1.1044084
0001e0 8e 22 81 3f 8a 4b 3c 3f db b0 8f be 18 a3 58 3f
       1.008867 0.73552763 -0.28064618 0.8462386
0001f0 a2 f4 0a bd 26 2c 91 3e d8 7d 8a 3f 79 97 41 c0
       -0.033924706 0.28353995 1.0819654 -3.0248702
000200 0f b6 9d 3e 3b e2 18 3f e7 f5 aa 3f 43 4c f8 be
       0.30802962 0.597202 1.3356293 -0.48495683
000210 dd e1 02 3e 0c 1f a6 bf ee d0 55 c0 48 13 13 be
       0.12781473 -1.2978225 -3.340877 -0.14362824
000220 41 1b 13 bd 54 ed 29 3f b4 87 c1 bf 54 ab 66 be
       -0.035914663 0.6637776 -1.5119538 -0.22526294
000230 5f 3d 81 be b4 02 6f c0 b0 10 f3 3c ea 7d 51 bf
       -0.25242135 -3.73454 0.029671043 -0.81832755
000240 e9 40 32 bd 0a 93 a7 bf 2e 47 0c c0 2c 4a d2 bf
       -0.043518934 -1.3091748 -2.1918445 -1.6428885
000250 43 be 39 c0 99 da 01 3e 05 a2 92 3e 7d 42 68 3d
       -2.9022377 0.12681045 0.28639236 0.056704033
000260 aa ff 02 c0 40 98 77 bf 9b 4d 25 3f f3 da 0d 3e
       -2.0468545 -0.9671669 0.6457154 0.13853054
000270 a3 d3 ad 3f be 07 bd be ac bd dd bb 48 e1 7f bc
       1.3580211 -0.3691997 -0.0067669954 -0.015617676
000280 a9 79 9d 3f 2a f1 05 c0 0b 20 3f c0 52 c5 92 bd
       1.2302753 -2.0928445 -2.9863307 -0.07166542
000290 ae af 9c be 13 dc 1e 3e 93 c2 96 bf 64 e5 49 3f
       -0.30602783 0.15513639 -1.1778129 0.7886565
0002a0 67 1c 08 c0 6f 54 13 be e1 89 8d bd 54 31 05 3f
       -2.1267335 -0.14387678 -0.06911064 0.52028394
0002b0 6e 44 90 bf bc 84 55 bf dc c8 2f be d1 8f ca 3e
       -1.1270883 -0.8340566 -0.17166466 0.39562848
0002c0 ae de ec bf 8a 9e 46 3e ab 41 12 3e d5 fd 98 3d
       -1.8505456 0.19396415 0.14282863 0.074702896
0002d0 80 19 13 3f 16 99 20 c0 b6 7e 21 3f 7f e6 17 3f
       0.57460785 -2.5093436 0.6308397 0.59336084
0002e0 a8 8b ff bf 76 1e 08 bf d8 36 da bd 74 3a 64 bf
       -1.9964495 -0.5317148 -0.10654992 -0.8915169
0002f0 f3 54 41 bf fb b3 0f 3f 04 38 d8 be 2d 58 8b bf
       -0.7552025 0.56134003 -0.42230237 -1.0886284
000300 44 69 49 3e 8c da d6 3f d1 ac 23 3d b6 74 8c 3f
       0.19669062 1.6785445 0.039959732 1.0973117
000310 da fb 71 bf d5 fa 18 bf a1 ef 21 bf f0 4d b7 3d
       -0.9452492 -0.5975774 -0.6325627 0.08950412
000320 1f 24 1a c0 42 a2 7f bf fc 67 7f 3f fc 05 2f 3f
       -2.4084547 -0.9985696 0.9976804 0.68368506
000330 25 01 bb bf 6a a8 01 3d 8a 7b 93 be 72 4e 20 c0
       -1.4609724 0.031654753 -0.2880519 -2.504788
000340 f4 47 90 3d f6 83 15 bf 67 61 9f 3e 7d 03 bb 3e
       0.07044974 -0.5840448 0.31129 0.365261
000350 7c ad 97 3f 52 02 c6 3e 02 d3 4a bf e9 dd 37 bf
       1.1849818 0.38673645 -0.7922822 -0.71822983
000360 3e ea 30 3f 6d 32 2e c0 ca 3f 20 3f 8d dd 3b 3f
       0.69107425 -2.7218277 0.62597334 0.73384935
000370 5e 66 e1 3e 15 4b 8c 3f c7 86 f6 bf 24 40 32 be
       0.44023412 1.0960413 -1.9259881 -0.1740728
000380 aa 90 24 3f 55 60 1d c0 5a 96 09 c0 d2 e1 2b c0
       0.6428324 -2.4590046 -2.1498017 -2.685658
000390 02 5a 1b c0 dc 4c 10 c0 1b 41 3a 3f 91 b2 11 3f
       -2.4273686 -2.2546911 0.72755593 0.56913096
0003a0 41 a3 8d bf 31 b8 58 3c d5 37 c9 bf b0 d7 f0 be
       -1.1065446 0.013227508 -1.5720164 -0.47039557
0003b0 c8 50 83 be 4e 13 10 3f 0c 3f 09 3f b3 c0 0e 3d
       -0.2564757 0.56279457 0.53611827 0.03485174
0003c0 4a d9 e8 bf e1 7e 5d bf c8 1a 25 3f 3a 4a bc bf
       -1.8191311 -0.86521727 0.6449399 -1.4710152
0003d0 0c b9 c9 3e 7f 41 88 3d e5 28 48 3f 28 fe bd bf
       0.39398992 0.066531174 0.781874 -1.4843187
0003e0 44 96 9f 3d 8b 85 5a bf 4a 5b 50 bf 1a 2b 9f bc
       0.07792333 -0.8536002 -0.81389296 -0.019429732
0003f0 0a cf a1 be 9e 6a 47 3e 2a 96 5e bf cc 9c 55 bf
       -0.3160327 0.19474265 -0.8694788 -0.8344238

fc3.bias f4 [128]
000000 d3 2e 32 be 88 af 0d bf 64 91 f9 bf 61 46 56 3e
       -0.17400675 -0.55345964 -1.9497495 0.20925285
000010 ad ca d5 3d 91 f3 41 40 16 63 e0 bf f6 09 0b bf
       0.10439048 3.030491 -1.7530239 -0.54312074
000020 5e d3 df bd b1 02 04 bf bf bb 1e 3f 3f 43 46 3e
       -0.10928987 -0.51566607 0.6200523 0.1936159
000030 8f af 47 3f 18 52 3a be 5c 78 5d 40 24 d9 12 bf
       0.78002256 -0.18195379 3.4604712 -0.5736258
000040 a3 e0 3d 3f 6a 4d 46 bd fe 2b 53 3f 58 99 a0 be
       0.74170893 -0.04841367 0.82489 -0.31366992
000050 9c cd 60 bf f3 8e b1 bf a5 0b fa 3e 63 73 da 3e
       -0.87813735 -1.387175 0.4883701 0.42666158
000060 38 03 96 3e bd 1f 97 3c a3 e0 16 bf b6 f6 87 3f
       0.2929933 0.018447751 -0.5893652 1.0622165
000070 3c 92 79 3f 70 44 10 40 a6 98 63 3f 7a 9c 42 3e
       0.9748876 2.254177 0.889048 0.19005004
000080 7c 74 b2 3e fa 39 69 be e2 9e 53 bf 24 2d 39 3e
       0.34854496 -0.22776023 -0.8266431 0.18083626
000090 8a aa 26 bd e4 43 37 3c 3d c0 61 bf 05 95 b7 3e
       -0.040689982 0.01118562 -0.8818396 0.3585588
0000a0 a6 2f 03 c0 66 53 e6 3b e5 46 9a 3f 2d 88 10 bf
       -2.0497832 0.007028985 1.2052885 -0.5645779
0000b0 9c a9 6c bf 5f ae c6 3f 42 27 10 3f bd 56 29 3f
       -0.92446303 1.5521964 0.563099 0.6614798
0000c0 ba 3e 94 be 1a 00 29 3f e5 09 a9 3e 8a 7d d5 be
       -0.28954107 0.6601578 0.3301536 -0.4169734
0000d0 f4 f8 87 3e 5e b7 08 3f 64 f8 81 3e 31 6e 3c 3d
       0.26557124 0.53404796 0.2538482 0.046003524
0000e0 13 00 90 be 55 04 0c 3f 14 28 b6 be 98 2c 93 3f
       -0.28125057 0.5469411 -0.35577452 1.1497984
0000f0 71 01 80 bf f8 9b bb be 8f 18 f2 bf 5d f7 42 be
       -1.000044 -0.36642432 -1.8913745 -0.19039674
000100 7d 51 16 bf db b7 ec bf 37 c8 b3 be e2 bb 30 3f
       -0.5871809 -1.8493608 -0.3511369 0.69036686
000110 c8 14 f5 be e9 72 b4 bf ae f6 1a c0 06 c3 2a bf
       -0.47867417 -1.4097568 -2.4213061 -0.6670383
000120 98 12 d4 be 0a 10 de be 0a 0f 1a bd cb 68 5a 3e
       -0.41420436 -0.43371612 -0.037612 0.21329038
000130 eb 2b 65 40 5b 21 e2 3f 12 1a 1c 3f 42 2f 8d bf
       3.5808055 1.7666429 0.6097728 -1.1030047
000140 6e bc 75 bf 77 4f 2e bf be 6d c9 be fc 95 3f bf
       -0.95990646 -0.68090004 -0.3934154 -0.74838233
000150 70 ec 8e bf c8 b1 80 3e 10 21 04 c0 9c a3 c0 bf
       -1.1165905 0.25135636 -2.064518 -1.504993
000160 7b 7f 1b c0 aa 75 53 3f a4 d7 dc 3e b6 d7 c4 be
       -2.4296558 0.82601416 0.4313327 -0.38445824
000170 5d e9 52 bf c0 96 41 3f d8 ed 12 3f 64 87 f3 3f
       -0.82387334 0.7562065 0.5739417 1.9025693
000180 0f d2 88 3e 37 e3 8b 3e 59 2c 01 3f 79 59 e7 3f
       0.26722762 0.2732179 0.50458294 1.807418
000190 bd d6 a1 be ff c7 14 c0 cd ac ce be bc 50 ec bd
       -0.31609145 -2.3247068 -0.40366212 -0.11538836
0001a0 bd 03 9e be b2 76 ce 3e d8 13 1a 3d 53 d6 49 3e
       -0.30862227 0.40324932 0.03761658 0.19710664
0001b0 3f 08 bd be 18 64 7e 3e 6c eb 2b bf 15 42 2c be
       -0.36920354 0.2484287 -0.671561 -0.16822083
0001c0 f9 b9 c2 3d c5 22 b6 3e 3f 38 b2 bf a0 17 a5 be
       0.09508128 0.35573402 -1.3923415 -0.32244587
0001d0 60 93 d5 be fd a9 e4 3e 3e 95 2d 3e 2f 67 78 bf
       -0.41714 0.4466094 0.16951463 -0.97032446
0001e0 57 e6 5a 3f 91 44 17 c0 cb d1 d5 3e bc e8 5a bf
       0.8550772 -2.36356 0.41761622 -0.85511374
0001f0 8a b4 6c 40 80 07 50 bf a9 0c 43 bf cd a7 a7 bf
       3.6985192 -0.81261444 -0.7619119 -1.3098084

fc4.weight f4 [5, 128]
000000 32 30 0b 3f 2a 61 e9 be 1d f7 97 3e 0a c9 29 bf
       0.54370415 -0.45581943 0.2968072 -0.66322386
000010 87 ad 0b c0 27 f9 c1 3e 46 d9 30 bf 83 f1 87 bc
       -2.1824663 0.378854 -0.6908153 -0.016594654
000020 06 bf 5d bf 07 a4 85 bf 93 4b f8 be 7c fd f8 3e
       -0.86619604 -1.0440682 -0.4849516 0.48630893
000030 66 fd 4c bf 6a 43 a2 bf 22 61 b2 3e 43 7e 44 bf
       -0.80074155 -1.2676823 0.3483973 -0.7675516
000040 6f 32 0c 3f 62 b8 91 bd 99 05 58 bf e7 e9 90 be
       0.54764456 -0.07115246 -0.8438354 -0.28303453
000050 ec 94 b3 3d fd 5a a4 bf ba 0e 44 3e a0 90 83 bf
       0.08768639 -1.2840267 0.19146243 -1.0278511
000060 93 53 c5 3d 4e 52 aa 3d 7f 9a d1 be d9 96 b5 3e
       0.09635081 0.083164796 -0.40938184 0.3546665
000070 0e 64 58 bf 0d 67 74 3e 93 74 65 bf a9 28 70 be
       -0.8452767 0.23867436 -0.89631003 -0.2345301
000080 46 1b 53 3e 5e 26 91 bf 1a bc ed be 2e 43 89 be
       0.20615873 -1.1339834 -0.46432573 -0.26809067
000090 ff 76 ab be 71 7a e1 bc 56 0f ac bd 30 bb c6 be
       -0.33489224 -0.027524205 -0.084013626 -0.38814688
0000a0 2e 19 cf bf 62 5b 69 3e 40 da 0a 3f 90 02 b2 3e
       -1.6179559 0.22788766 0.54239273 0.3476758
0000b0 32 69 6d 3e f3 65 c1 3e a7 cc 1a 3d 4f cb c8 be
       0.2318466 0.37773094 0.037792828 -0.39217612
0000c0 ca 79 f3 3d f6 6c 8e be e7 db 2e 3e 91 4a cf bd
       0.11888464 -0.27817506 0.17076074 -0.10121644
0000d0 f7 a2 c0 be 3c f4 e8 be b0 f3 96 be 36 1e 85 bf
       -0.37624332 -0.45498836 -0.29482794 -1.0399845
0000e0 ca 03 aa be 80 90 9a be fb cb ae be aa a1 9f 3e
       -0.33206016 -0.3018837 -0.3414 0.31178027
0000f0 21 ee fe be 89 c3 70 3e b9 b0 f9 be a2 2f 69 3e
       -0.49791053 0.2351209 -0.4876764 0.22772077
000100 b6 4a ac bc 98 f9 6d bf d7 7a 20 3f 12 e7 64 3d
       -0.021031719 -0.92958975 0.6268744 0.05588443
000110 bd 5e b5 3d 66 3f 40 bf b9 a1 22 be b2 e8 12 be
       0.088559605 -0.7509674 -0.15882005 -0.14346579
000120 0d 0d ac 3f 32 ac f9 be 75 ef 91 bd 67 56 97 bf
       1.3441483 -0.48764187 -0.07125751 -1.1823243
000130 7e d7 c2 3e 72 2c 52 3e 53 7d 09 3f 90 72 bb bf
       0.38055032 0.20524767 0.53706855 -1.4644337
000140 14 d8 25 be 7b 10 ea be 57 2e e9 bf a4 e9 6a bf
       -0.16195709 -0.457157 -1.8217267 -0.9176276
000150 bf f1 9a 3f e5 e9 a0 3e b1 f7 07 bf 88 86 9f bf
       1.2105025 0.31428447 -0.5311232 -1.2462931
000160 a4 1f 3f bd fa 9e ec 3e 5e bd 1c bf 5b 99 54 bd
       -0.046661034 0.4621504 -0.6122645 -0.051904064
000170 29 a3 65 3c 3b 5f b5 3f 46 6d 98 bf 13 6f be 3d
       0.014015951 1.4169687 -1.1908348 0.092985295
000180 6e 42 9e be 87 d2 d0 be 1d ae 5f bf 9c a8 63 3e
       -0.30910057 -0.4078562 -0.8737505 0.22232288
000190 f4 82 a4 bf f1 73 90 be 5d 81 c3 bf a5 06 43 bf
       -1.2852464 -0.28213456 -1.5273854 -0.76182014
0001a0 33 b0 cc be d6 88 d9 3e 4f 9b 77 bf 88 ee 53 3e
       -0.3997818 0.4248721 -0.9672136 0.20696461
0001b0 be d1 d8 be 9f 5f 34 3f 78 4d 8d 3f 4d fd 6a bf
       -0.4234752 0.70458406 1.1039267 -0.91792756
0001c0 6e 77 83 bf 31 20 7c bf db d9 6a be 1e 93 48 bf
       -1.0270822 -0.9848662 -0.22934668 -0.78349483
0001d0 de dd 96 3e e8 61 cb 3e c8 bd be bd fc ed f5 be
       0.29466146 0.39723134 -0.09313542 -0.4803313
0001e0 17 e3 f0 be d9 45 2f be a8 7b f2 3d 5c cb 78 3f
       -0.47048256 -0.17116489 0.11839992 0.971853
0001f0 f6 98 08 3f e9 6e 55 bf 79 b5 00 3e 3f 80 b3 bb
       0.533584 -0.8337236 0.12569226 -0.0054779346
000200 74 c2 b4 3d 05 e4 91 3d d9 9b 30 3d 31 0e 91 be
       0.088261515 0.071235694 0.043117378 -0.2833114
000210 71 72 ff bf 74 5e c4 3e 34 45 ba bf 39 8b 3e 3c
       -1.99568 0.38353312 -1.4552369 0.011629873
000220 4b dc a9 bf f4 32 4f bf 84 67 06 bf 27 42 00 3f
       -1.3270353 -0.80937123 -0.525017 0.5010094
000230 b2 fc c8 bd a1 3e e8 be a4 d5 b0 3e be df 1c 3c
       -0.09813823 -0.45360282 0.34537995 0.009574829
000240 fe ac ec 3e 2f 62 14 3f d9 4a 98 bf f1 07 7c be
       0.46225733 0.57962316 -1.1897842 -0.24612404
000250 40 03 16 be c4 ad 46 be 4b 67 67 3e 3b 7c e2 bf
       -0.14649677 -0.19402224 0.22597997 -1.7694162
000260 b7 a0 91 3d 32 90 78 3f 11 c5 82 be a9 c5 c8 3e
       0.07110732 0.97095025 -0.25540975 0.39213303
000270 fa 17 34 bf 96 6d 5e 3e 49 87 cd bf 3d 71 96 be
       -0.70349085 0.21721491 -1.6056911 -0.2938327
000280 05 c2 e3 3d 98 f0 5f be 52 4a 16 be e0 25 d0 be
       0.11120991 -0.21869123 -0.14676788 -0.40653896
000290 3e 8a fd be 40 c3 03 3f 08 a9 1b 3f 4c 2a 94 be
       -0.49519533 0.514698 0.60804796 -0.2893852
0002a0 8c 4e 94 bf c5 3a 50 3f d7 90 20 3f 11 8e 35 be
       -1.1586471 0.81339675 0.6272101 -0.17729975
0002b0 fb 07 0e bf c7 a6 fd 3e 25 31 10 bf 8a 94 b4 be
       -0.5548093 0.49541304 -0.5632499 -0.35269576
0002c0 98 65 2a 3c a2 e4 74 3e 50 01 88 3f d4 2b 6a bd
       0.010400198 0.23915341 1.06254 -0.057170704
0002d0 3b b4 b5 be 3f 52 1b bd 7c ee 8c bf a9 06 04 c0
       -0.35489067 -0.037920233 -1.101028 -2.0629065
0002e0 fa c4 69 bf 77 e6 88 be 57 06 3e bd 81 fc a1 3e
       -0.9131619 -0.2673833 -0.046392765 0.31637958
0002f0 b2 a6 2a c0 6b 28 2c bd 46 b0 65 be e8 7d 0e 3d
       -2.6664243 -0.042030733 -0.22430524 0.034788042
000300 16 f2 d9 3e 88 d2 36 bf 42 d2 18 bf 9e de f5 3e
       0.4256751 -0.71414995 -0.5969583 0.48021406
000310 a8 75 03 3b 53 c5 f7 3d 74 4a 2b bf 1a 94 fb be
       0.0020059142 0.120981835 -0.6691048 -0.4913643
000320 42 28 b3 3f 70 73 10 bf ef 1b 80 be 8a 6e 87 bf
       1.3996661 -0.56426144 -0.25021312 -1.0580609
000330 de e0 ce 3e d1 c8 59 3e 0d 25 19 3f c8 c5 8c bf
       0.40405935 0.21268012 0.5982216 -1.0997858
000340 a3 ac cf be 48 42 a3 bc ca 17 1d c0 fb d0 16 c0
       -0.405614 -0.019929066 -2.454577 -2.3565052
000350 dc 1f f8 3e ce 0d 34 3f 90 36 04 bf 2f 58 9b 3d
       0.48461807 0.70333564 -0.51645756 0.07585179
000360 fd c1 57 bd b1 09 df 3e 5b 4f 6c be 28 82 3d be
       -0.052675236 0.4356208 -0.23077147 -0.18506682
000370 fd ed 50 be 08 32 63 3f ea 9b 37 bf dc c8 f9 3d
       -0.20403285 0.88748217 -0.7172228 0.12196514
000380 92 8b 09 bf 76 8a 18 3f fa 7d 1a bf a8 da 43 3e
       -0.5372859 0.59586275 -0.60348475 0.1912638
000390 98 2e 0d 3e 0b db b9 bd c1 ce ef 3d 21 c0 df bf
       0.13787305 -0.09074982 0.11709357 -1.7480508
0003a0 4f 25 38 bf 4e a6 23 3d 23 24 a6 bf 79 bc 18 bf
       -0.7193193 0.039953522 -1.2979778 -0.59662586
0003b0 86 cd 10 bf b5 7a da 3e 26 eb 27 3f 66 ab 0d c0
       -0.56563604 0.42671743 0.65593183 -2.2135863
0003c0 2e 6a ce 3d 40 a8 06 bf e2 05 e6 be ef bd 1a bf
       0.10078846 -0.5260048 -0.44926363 -0.60446066
0003d0 ac 97 1b 3f fe 1d b1 3e 86 3c 9f be f8 e2 96 bd
       0.6077831 0.34593195 -0.31100863 -0.073675096
0003e0 e7 bf 64 bf ab 7c 88 be 51 16 68 be ce b1 4d 3f
       -0.8935532 -0.26657614 -0.22664763 0.80349433
0003f0 70 cc f6 3e 6f 14 d6 bf 7d 64 b4 3d d8 45 84 bc
       0.48202848 -1.6724986 0.08808229 -0.016146585

fc4.bias f4 [5]
000000 89 ea f5 3f 51 19 3e 40 65 ce 16 40 bd a7 28 40
       1.92122 2.9702952 2.3563473 2.635238
000010 b7 df 3d 40
       2.9667795
