car_model_best.pth (torch, 274580 bytes, 8 tensors)

fc1.weight f4 [128, 9]
00000000: 5d06 50bf bd4d 90bf 2d55 babe 559f 1f3f
00000010: 3198 e0be a149 713f cce6 acbe 6870 9dbd
00000020: 320c 11bf 2416 5ebf eeef 003f 5612 e1be
00000030: 82cc d13d bf32 c2bd b28b 0e3f 4578 dc3d
00000040: 4c59 e83f 513c 5f3f d62c b9bf e90b 99be
00000050: 0c7a 813e 764e fabe a7a3 3abe e09d 5abe
00000060: 3389 d1be 3357 40be c1da 933f 3793 6a3f
00000070: cb47 50bf 8fed 6a3e 5d0d bcbe dd86 383e
00000080: 8f1b 20c0 899b c53f a068 5d3e 84c3 ddbe
00000090: ad59 643e ad34 9fbf 7275 89bf b86b 8d3f
000000a0: fb7c ad3e a8da 713f e874 05bf fa55 893e
000000b0: e90c 423f cf7d 09c0 1e56 45bf a3cb d9be
000000c0: ab7d d0bf cd9b 2d3e 56b6 b13e ad63 93bd
000000d0: adf4 59be a700 94bf 4033 9abf 982b 51bc
000000e0: f04a a53f a25b 123f 0079 5d3f a3de 63be
000000f0: c95e 25bf 8659 49bf 9cee 85bf 14e3 e23f
00000100: 97ed 15c0 8a6b b73f 696c 98be 624f c2bd
00000110: 9dec ee3e 6fbe d8bf 8450 40bf 65d9 2c3e
00000120: 012c 4dc0 3fcc 043f d03e 683f f2d9 d3be
00000130: 7e8f 5ac0 9812 08c0 32f7 6d3f 01ee 0e3f
00000140: 9d27 5c3f a455 6b3e 11e8 60c0 1b1a 9bbc
00000150: c8dc 17bf 43e6 3a3f 7416 f93e 596e 0040
00000160: f4cc 77bf 5577 9c3e 087a febf d9af 1c3d
00000170: f1e5 aabe 3b95 4f3f bbcf 59bf c9d5 a4be
00000180: 0557 293e 1402 513f 56c8 99bf cd3a 0fbf
00000190: 7eb3 f4be e7a0 173f 41b2 d3be 104d b63e
000001a0: 7b27 43bf 9c56 20be b785 fb3c aad6 293f
000001b0: 8c79 1ebf ad31 09bf 6d36 42bf 3565 d0be
000001c0: b543 92be e6d6 f63e ea6e 6bbf 526e e9be
000001d0: cda8 eabd 96f7 bd3e c12e e0bd d973 4e3f
000001e0: 7b29 05c0 f6de 0bbc c036 353f 6b3c cabf
000001f0: 2b4e 64bf 1a46 f03b 5b7f adbf b2c5 abbf
00000200: 21dc 043f d7d1 a83e 168a 5b3e 3268 8a3f
00000210: 34ba 233f 0214 7abf 1223 c73f 273b 82bf
00000220: ceda d7be 01aa 62bf dbeb ef3e 2636 5b3f
00000230: a125 d73e c98b a0be 6f9c acbf 4b9c e1be
00000240: c178 eabc 8362 ba3e 9436 0b3f 4cc9 c13d
00000250: a763 023f 256b d7be fbe4 6f3e b280 3cc0
00000260: 19ae 64bf 4082 d7bf fee8 1a3e 54a5 40be
00000270: 0113 bebf 667b 9f3f 602c ccbe 94de 783e
00000280: 2746 c3be 79d1 7e3f 345a 11be 34e8 8abd
00000290: 8d0c 10c0 5999 edbf b399 033f 9aca 933f
000002a0: 4ce5 95bf ea48 2a3f 2c14 4abe b33c f7bf
000002b0: 5d52 d53c 7976 de3e e0bf ba3d 45cf 5cc0
000002c0: 3c31 f0be e95d 7ebf 1c97 1b3e 0e44 363e
000002d0: 772d 453e cd8c efbd 8a8c 02bf 6027 013f
000002e0: 108e 013d 9968 ed3e 9af7 263f 5d90 eb3e
000002f0: 9222 60c0 efa3 43be 6f76 803f 89db 583f
00000300: 54a3 b9be 3844 80bd 1aa1 e43d fe35 f43e
00000310: 5ddf 733f 5ca0 f2be e850 523d da47 db3e
00000320: ad89 4bbe 5488 d4be 0ece 2f3f ba96 06bf
00000330: dd28 8dbf 2a52 bfc0 d6bf 2b3f a926 b6bf
00000340: d44f 2a3f 7d16 753f 8e5c e83d af16 61bd
00000350: 3e8b 3f3f 6d46 123f 6b88 823f 5bb1 ebbe
00000360: 6c99 8b3f ccbc 723f ef00 10c0 907d 30bf
00000370: b86e 3f3e 98e1 27bf c169 e33f fbb9 30c0
00000380: 7380 83be 72fc e6c0 ea8c 30c0 70e0 dbbe
00000390: 3ed3 1d3f 0ece 2a3f 3528 86bf 3b7b 3dc1
000003a0: d5f8 1cc1 4a72 1e3c 8d0f 973f e26a 83bf
000003b0: acd0 abbf 3f24 5b3f 8e08 3cbf 2fdd 9bbe
000003c0: 1216 2e3e 0797 b7be 0642 28bf f34e 2abf
000003d0: 7d0f 983f 0440 bb3d 40e9 c9bf b965 f23c
000003e0: 5df6 afbf c8ab 2c3f 9ead c33f 2f7b 873f
000003f0: d97d f7bd 9c24 41bd 42b1 dd3e 9a24 fb3e
-0.8125971 -1.1273724 -0.3639311 0.62352496 -0.43866113 0.94252974 -0.33769834 -0.076874554
-0.56659234 -0.86752534 0.50366104 -0.43959302 0.10244085 -0.09482335 0.5568191 0.10765127
1.8152251 0.8720141 -1.4466808 -0.298919 0.25288427 -0.48887986 -0.18226491 -0.21349287
-0.40924987 -0.18783264 1.1551133 0.9163088 -0.8135955 0.22942184 -0.36728945 0.18020196
-2.501682 1.543809 0.21621943 -0.4331323 0.22299834 -1.243795 -1.0738966 1.1048498
0.33884415 0.9447427 -0.5213151 0.26823407 0.7580095 -2.1483037 -0.7708453 -0.42538175
-1.6288351 0.16953965 0.34709424 -0.07196746 -0.21284743 -1.1562699 -1.204689 -0.012766741
1.2913494 0.5717107 0.86512756 -0.22252898 -0.64597756 -0.78652227 -1.0463443 1.7725549
-2.3426263 1.4329693 -0.2977021 -0.09487797 0.46664897 -1.6933116 -0.7512286 0.16879804
-3.2058108 0.51874155 0.90720844 -0.41377217 -3.415008 -2.1261349 0.92955315 0.55831915
0.85997945 0.22981888 -3.5141642 -0.018933346 -0.5932126 0.730076 0.48649943 2.006735
-0.9679711 0.30559793 -1.9880991 0.03825364 -0.33378556 0.8108708 -0.85082597 -0.32194355
0.16537102 0.81643796 -1.2014263 -0.559491 -0.47793192 0.5922989 -0.41346934 0.3560567
-0.7623212 -0.15658039 0.030703409 0.66343176 -0.61904216 -0.53591424 -0.758643 -0.40702215
-0.2856728 0.4821083 -0.91966116 -0.4559198 -0.114579774 0.37102956 -0.109464176 0.8064552
-2.0806568 -0.008537045 0.70786667 -1.5799688 -0.89181775 0.0073325755 -1.3554491 -1.3419707
0.5189839 0.32972595 0.21439394 1.0813048 0.63956 -0.9768678 1.5557578 -1.0174302
-0.42159122 -0.88540655 0.4685963 0.856295 0.42020896 -0.31356648 -1.348524 -0.44064555
-0.028622033 0.36403283 0.54380155 0.094622225 0.5093331 -0.42073932 0.23427193 -2.945355
-0.8932815 -1.6836624 0.15127942 -0.18813068 -1.484955 1.2459533 -0.39877605 0.24303657
-0.3813946 0.9953838 -0.14194566 -0.067825705 -2.250766 -1.8562423 0.514064 1.1546204
-1.1710601 0.6651751 -0.19734257 -1.9315399 0.02604025 0.43449762 0.091186285 -3.4501507
-0.46912563 -0.99362046 0.15194362 0.17799398 0.19255625 -0.116967775 -0.50995696 0.50450706
0.031629622 0.46368864 0.6522156 0.46008578 -3.50211 -0.19105504 1.0036143 0.84709984
-0.36257422 -0.06263012 0.1116354 0.47697443 0.952627 -0.4738797 0.05134669 0.42828256
-0.19876738 -0.4151026 0.6867379 -0.5257374 -1.1028095 -5.97878 0.67089593 -1.4230548
0.6652806 0.9573744 0.113457784 -0.054953273 0.7482184 0.5713871 1.0197881 -0.4603375
1.0906196 0.9481933 -2.250057 -0.68941593 0.1869458 -0.65578604 1.7766649 -2.7613513
-0.25683936 -7.218316 -2.7586007 -0.4294467 0.61650455 0.66720665 -1.048102 -11.842586
-9.81075 0.009670803 1.1801621 -1.0266993 -1.3423057 0.8560218 -0.73450553 -0.30442187
0.17000607 -0.35857412 -0.65725744 -0.66526717 1.1879727 0.091430694 -1.5774307 0.02958952
-1.3747059 0.6744962 1.5287359 1.0584468 -0.120845504 -0.047154054 0.432993 0.49051362

fc1.bias f4 [128]
00000000: 1391 343d 5a5b e9be e4d2 3abf c70d d1bd
00000010: 79ac 34bf 14f5 093f 69d7 c6be fc2f 43bf
00000020: 9ff2 383f a571 a8bb d998 e73e 437f 363f
00000030: 86fc 69be 348a 183f ee8f 393e 0568 693e
00000040: d0e3 e73e 592b 623d 8d41 ce3e c9bd 0abf
00000050: 3347 f6be b168 24bf 8238 bb3e 00af 61bf
00000060: 9d96 b83d 4fac 0b3f e26e 28be d2e5 05bf
00000070: f09e 0cbe 1b55 673f 99a4 533f 88e7 b53d
00000080: a314 bdbd 3d89 82bf fd47 70be ed8d 56be
00000090: 1ad7 9ebf f2ec 253e 03ab e4be 1b88 3ebe
000000a0: 0155 1b3e e136 9f3e ca0d 52bf 6109 563f
000000b0: 71a4 c33c 3444 0bbf dba4 84bf 4934 a4bf
000000c0: e10e d93d efe5 af3f 0920 393f cf9f 55bc
000000d0: e6da edbe 055f c3bd cb67 48bf 6a5a 36bf
000000e0: fe9e 68bf 4f7c 60bf 50fe 4d3f 0322 8ebf
000000f0: c003 333d 5dbe c43e 91ff 21bf ea5e 24bf
00000100: 5534 6d3f fd37 f5be 32fd e13e d79a 92bf
00000110: 4018 d2be ca33 62bf 2e6e e2be 2a7e 11bf
00000120: 7a74 36bf 5abb 153f 52aa ac3e 48f4 24bf
00000130: 4fcd a73e 5090 f93e 4b41 82bf 308b 01bf
00000140: 18e9 243e 2fc5 6ebf 50b7 843f c4b6 f6be
00000150: c88a fe3e 4b3e bb3e 48c2 2cbf cf89 70be
00000160: f0d3 92bf f549 b8be a060 21bc e65d a53f
00000170: 26b6 b03e 6799 17be 171a 3c3f ad1f 323f
00000180: de8a 6fbe 9e25 e9be 76c1 953d 3e74 0d3f
00000190: 1c9e a53e 5c00 a53e 9ae8 38bf f6db 4b3f
000001a0: cd7b 3e3f ed8c e2bc 615f 093e 9bb8 60bf
000001b0: 71bf 6e3e ce8d 86bd b6fb fbbe f817 b8bd
000001c0: 0c8f 063f eed2 a73f 381c 503f 5cd8 ca3e
000001d0: 86ab 5ebf 48df 35bf d41d 95be bc0b be3e
000001e0: 43ce 3bbf 7a06 013f 1fe2 7b3e 9c1d 793e
000001f0: 236b c73d cb4f d93d 3b8c 67be 4b68 4fbe
0.044083666 -0.45577508 -0.72978044 -0.10207706 -0.7057567 0.53889585 -0.3883622 -0.76245093
0.7224521 -0.0051405006 0.452338 0.71287936 -0.22850236 0.5958588 0.18121311 0.22793587
0.45290995 0.05521712 0.40284386 -0.5419584 -0.48101196 -0.64222246 0.3656655 -0.88157654
0.09013102 0.545598 -0.16448548 -0.523038 -0.13732505 0.90364236 0.8267303 0.08882052
-0.09232452 -1.0198132 -0.23464961 -0.20952578 -1.2409394 0.16203669 -0.44661722 -0.18606608
0.15169145 0.31096557 -0.8205229 0.8360806 0.023882123 -0.54400945 -1.036281 -1.2828456
0.10598541 1.3742045 0.72314507 -0.01303859 -0.4645607 -0.09539608 -0.78283376 -0.7123171
-0.908676 -0.8768968 0.80466175 -1.110413 0.04370475 0.38426486 -0.6328059 -0.6420733
0.9265798 -0.47894278 0.44138485 -1.1453503 -0.41034126 -0.88360274 -0.44224685 -0.56833136
-0.7127148 0.58489 0.33723694 -0.64435244 0.32773826 0.48742914 -1.0176176 -0.5060301
0.16104543 -0.9326963 1.0368443 -0.48186314 0.49715257 0.36570963 -0.6748395 -0.2349007
-1.1470928 -0.35993925 -0.009849697 1.291928 0.34513968 -0.14804612 0.7347731 0.69579583
-0.23392817 -0.45536512 0.0731229 0.55255497 0.3234719 0.32226837 -0.7222992 0.7963251
0.74407655 -0.02765509 0.1341529 -0.87781686 0.23315217 -0.06570016 -0.49215478 -0.08988947
0.5256202 1.3111246 0.8129306 0.39618194 -0.86980474 -0.71043825 -0.2912432 0.37118328
-0.73361605 0.5040051 0.24597977 0.24327701 0.097372316 0.106109224 -0.22612087 -0.20254628

fc2.weight f4 [256, 128]
00000000: 199a cfbf 1eeb 873d baba fb3e 6226 ad3f
00000010: 817b 64bf 438b cb3f 314b a139 3527 303f
00000020: 71d2 993f e9fa c93e 6b16 8bbe 027e 733f
00000030: 4e4b c3bd 8e02 1dbf 768d 953e c470 743f
00000040: 3374 af3d 3e4a ad3f 7f2e 22be efb7 c33d
00000050: f084 33bf 2a04 583d 0cfa fb3e 5609 bdbe
00000060: 3037 16bf 9801 9cbd c152 3b3f c63a 273e
00000070: 26ec 963f 8ebc f33e 50a1 bbbf 8953 7c3e
00000080: dafe b7bf f501 a5be 6d80 183e 18da 89bf
00000090: 9ad8 c03f 510f 613f 2de2 793f 34a6 d53e
000000a0: 3dd4 d53e 3741 9abe 816f 213e 4409 793e
000000b0: 35c8 033f 2366 42be c6f1 3bbf 843b 29bf
000000c0: 1050 c1be 5cf7 96bf 4159 3a3e bcef 87bf
000000d0: 86ec e23f 171e 34bc d703 393f 601f dabf
000000e0: 23c0 e4be f647 52be 5303 373f db2c d0bc
000000f0: 4011 b33e a4f7 db3f dccf c23f 04a6 ac3d
00000100: 39cf 72bf e41d 74bf 91e3 d43e 7b2b cfbe
00000110: 3f54 fbbc 3830 803d 1aa7 023c b02c 47bf
00000120: 3f01 2e3f 0979 48bf e272 953f 3be6 19be
00000130: b6d5 dcbe 6fae e73e 598d 883f 358d 91be
00000140: a0bf 783f 15f4 84bf 5a08 dabe 701b d9bf
00000150: 9a01 a93d ca4f 56bf 17fc 8fbf 79d2 0d3f
00000160: b67a f9bf fd32 4abf 3537 41bf 7d91 13bf
00000170: 493f 8ebe dc04 37be a009 cdbe 0065 bfbe
00000180: f046 0dbf c7c8 0d3d 1cc1 553f 46b0 2f3f
00000190: 2141 a13e cac4 5d3f b051 8cbf 746a 033f
000001a0: 18dc afbe 2ae3 fbbf a0f3 b2bf 66f0 293f
000001b0: d900 f9bd e51a 1dbf 1dbb cd3e c6c4 36bf
000001c0: 55e9 7c3e 3b53 8abe 216d d83e f86a 9cbf
000001d0: ba59 3a3f 123e a0be e476 eebd 0411 063f
000001e0: ef3a 99be 545f ed3e 770a 49bf 8955 b3bd
000001f0: 3fb6 f2bc b69e 01bf e0d8 a63e dd76 02bd
00000200: 900b b13e d8f8 52be a8cf 5abf a273 933d
00000210: f51c 6a3f 73bd 9b3e 8176 87bf d59a 3540
00000220: af1c e9bf ecf8 b4bf fa90 d4bf e1a2 bb3e
00000230: c73e 203f 5899 603f c428 7ebe 21ea 05bf
00000240: cf35 abbe e7bb 63bf 0925 ca3f 192a 003e
00000250: 9199 fc3e 6906 8ebf 71dc 563f 804f 3cbf
00000260: 2071 f03f dbbd 18be 6e0d 733e 8ee2 66bf
00000270: e4f1 2dbe ae24 443f 8dc1 f1bf b40d 213f
00000280: da33 c93f f66b 07c0 918a a8bf bf26 bb3f
00000290: 1b7b f0bd f462 b43f baba a0be bbdb b43e
000002a0: 9133 20bf e6b4 acbf 3148 94bf 37b8 683f
000002b0: b066 0b40 54ba 2dbd 7d6e 433f 1904 7bbf
000002c0: 4f04 e1bf 9aa1 f03f b02b 343f 804c 3dbe
000002d0: 5bb8 203e e9dd d5be 7b80 e23e 13ff dabf
000002e0: de7e 91be e90f c2bd d4ff fe3e 9a6e dfbf
000002f0: 4875 e13f 2fd1 f0be b15e a03f e543 98bf
00000300: 7a77 5b3f d5a1 c7be 956e ebbd efd1 dfbd
00000310: 4915 a9be 20b7 edbf 5222 b7be 5f39 be3f
00000320: 6c29 bfbd b7ee 15bf 4d66 e43e 4c44 b43f
00000330: 276c 493f 5697 4bbf d6be 92be 82b1 083f
00000340: 25bf 08c0 0a7f 65bf f834 8d3f 4e3e 4ebf
00000350: 3c05 4b3f 75ab a23f 989a 5abf 1554 9b3f
00000360: 672e 38bf ad7a ef3f 7ce9 a63e 114f 823d
00000370: b343 7f3f 40d6 46c0 c240 ab3e 5504 b33f
00000380: 48ff b13f cb64 5fbf 33e3 db3f 6ce2 18bf
00000390: e78f 263f c088 f0bf e5bf a6bf dc9d f13d
000003a0: 728c c2bf 8061 ef3e 00b9 113f 1fd1 d2bd
000003b0: 0475 cbbe 7515 fcbf 3d2d 813f 113b 483f
000003c0: 5fa2 8cbe 1c94 073d c0e2 ddbd 922a 5c3f
000003d0: ab77 aabf f62b ec3f 205d 2f3f 54a6 1f3f
000003e0: 72d1 a03f 60c3 c8be d22b 35bd 0b76 55bf
000003f0: 32c0 853f 3078 563f 2074 ccbe d67b 373f
-1.6218902 0.06636642 0.491659 1.3527339 -0.8925095 1.5901874 0.00030764335 0.68809825
1.2017347 0.39449242 -0.2716554 0.9511415 -0.095358476 -0.61332023 0.2920949 0.95484567
0.08567085 1.3538282 -0.1583805 0.09556567 -0.7012472 0.052738346 0.49214208 -0.36921185
-0.5867796 -0.076174915 0.7317315 0.16331014 1.1790817 0.47604793 -1.4658604 0.24641241
-1.437465 -0.32228056 0.1489274 -1.0769682 1.5066102 0.87913996 0.9761074 0.41728365
0.41763487 -0.3012788 0.15765192 0.24319941 0.51477367 -0.18984275 -0.7341579 -0.6610644
-0.37756395 -1.1794238 0.1819811 -1.0620036 1.7728431 -0.010993502 0.72271484 -1.7040825
-0.4467784 -0.20535263 0.7148945 -0.025412014 0.34974098 1.7184949 1.5219684 0.084301025
-0.94847447 -0.9535811 0.4157987 -0.4046286 -0.03067982 0.06259197 0.00797441 -0.7780256
0.6797065 -0.78309685 1.1675684 -0.15029232 -0.43131799 0.4525027 1.0668136 -0.28428045
0.97167397 -1.0386988 -0.42584497 -1.6961498 0.082522586 -0.837155 -1.1248807 0.5539928
-1.9490573 -0.7898405 -0.75474864 -0.5764387 -0.27782658 -0.17872947 -0.40046406 -0.37381744
-0.5518637 0.034615304 0.83497787 0.68628347 0.31495002 0.866284 -1.0962429 0.5133431
-0.34347606 -1.96787 -1.3980598 0.66382444 -0.12158365 -0.6136916 0.4018182 -0.71394
0.24698384 -0.27016625 0.4227076 -1.2220144 0.7279316 -0.31297356 -0.1164377 0.52369714
-0.29927775 0.46361792 -0.78531593 -0.08756549 -0.029627917 -0.506328 0.32587337 -0.031851638
0.34579134 -0.20602739 -0.8547311 0.071997896 0.91450435 0.30417976 -1.058304 2.8375752
-1.8211879 -1.4138465 -1.6606743 0.36647704 0.6259579 0.87733984 -0.24820238 -0.5231038
-0.3343949 -0.8895859 1.5792552 0.12516059 0.49335912 -1.1095706 0.83930117 -0.7355881
1.8784523 -0.14916174 0.23735592 -0.90189445 -0.16986805 0.7661847 -1.8887192 0.62911534
1.5718949 -2.1159644 -1.3167287 1.4621199 -0.117422305 1.4092698 -0.3139246 0.3532389
-0.62578684 -1.3492706 -1.1584531 0.9090609 2.1781425 -0.042414024 0.76340467 -0.9805313
-1.757944 1.8799317 0.7037916 -0.18486214 0.15695326 -0.41770867 0.44238648 -1.7109092
-0.28417104 -0.09475691 0.49804556 -1.7455628 1.7613916 -0.47034594 1.2528898 -1.189572
0.8572918 -0.38990656 -0.11495701 -0.109287135 -0.33024052 -1.857151 -0.35768372 1.4861258
-0.093340725 -0.58567375 0.446093 1.4083343 0.7868065 -0.79527795 -0.2866122 0.53395855
-2.1366665 -0.8964697 1.103179 -0.8056382 0.7930486 1.2708575 -0.8539214 1.2135035
-0.71945804 1.8709313 0.3260001 0.06362737 0.99712676 -3.1068268 0.33447844 1.3985697
1.3906031 -0.8726317 1.7178711 -0.5972049 0.6506333 -1.8791733 -1.3027312 0.117976874
-1.519911 0.46754074 0.5692291 -0.10293793 -0.39737713 -1.9694048 1.0091931 0.7821513
-0.2746763 0.033100232 -0.10834265 0.8600246 -1.331777 1.8450916 0.6850147 0.6236317
1.2563918 -0.3921156 -0.044231243 -0.83383244 1.0449278 0.8377714 -0.39932346 0.71673334

fc2.bias f4 [256]
00000000: 477a a7bf bd09 03bf ec32 313e 3d75 0d3f
00000010: 48b3 07bf 93b8 ec3f dbf8 c2bf f505 07c0
00000020: e9a2 de3d 623c a43e 4f9a afbf a7ee 333f
00000030: 4e89 e83f 3e80 54be f728 0f3e 0218 7dbf
00000040: a20d 4cbf e988 7bbf 3417 dcbe 153a 81bf
00000050: 7e26 e1bd c6fa b2bc 7067 d33d 5b67 5d3f
00000060: 0e0d 0dc0 f9b0 083e aac4 30be 8938 f9be
00000070: 9b1a 78bc 6519 8dbf b45a 4abe aa3e 4e3f
00000080: 0381 fdbe 7c63 3b3f 2141 99bf 8cfb 043f
00000090: 9062 243f eafc 83bf 5410 df3d 724a a1bf
000000a0: cfa7 ffbf b52d c8be 404e d5bf 8b2c 20bf
000000b0: c9b6 23bf aca6 473c 4e62 093e 703c 11be
000000c0: 0356 2cbf ce31 91bf fa94 93bf dfc7 e73e
000000d0: f507 8dbe 8ea9 91bf 240a 303e ad7f 97bd
000000e0: 89ce 043f 08b8 883f 3570 96bc a384 e03f
000000f0: 5d67 1bbf a4b2 7f3f 6bc0 533f 7256 f6bd
00000100: ffec 313f 89bf 3a3f 5b25 6dbf e616 f6be
00000110: d9fb 0a3f f476 273e ab95 0bbf 6442 67bf
00000120: 724f 4d3f 2a01 3d3d 764f c3bf ac62 9bbf
00000130: edaf 5b3f f186 d3be 86fd 823e f302 60be
00000140: b1c2 2bbe 1fcd 0ebf befe 6d3f 15ed 9bbd
00000150: d750 0e3f aaa4 9fbf e854 8f3e 9259 0fbf
00000160: 9f0a ee3e 63c0 b9be ac4a d4be f2bc a7be
00000170: 5be5 403f 478e 443f 968d d83e fc82 ff3d
00000180: 3753 cbbf 7aa3 293f 2241 c3bd 221e d53e
00000190: 4e22 95be afa7 48be 9810 5ebf c604 543f
000001a0: 564b 8fbe ac8a d5bf 88f3 1d3f 2df5 aebf
000001b0: 9fc7 4fbf b457 f93e b7ed 9f3f 5cb4 03bf
000001c0: 4538 a5bf 671d 3bbe 7454 233f f115 06c0
000001d0: 04d8 01be cc9f 9d3e 1302 b53d fff6 b1bf
000001e0: 3f79 57bf dd50 8cbf 7e49 593f 51ce 4c3f
000001f0: de61 fdbe 607e 1dbe 7791 8cbe 61b5 423e
00000200: b26c ea3e dba2 ccbf 7f87 c4bf c023 013f
00000210: e629 fdbe d629 113f 649b f4be 2718 b3bf
00000220: a835 133d 3d03 c7bf 8087 0340 f554 f1bf
00000230: cfed ce3d 541f cc3d 0142 a4bf dd60 ea3e
00000240: bb52 b9bf fe2a b7bc 5d2f d1be c5bc 8abe
00000250: 1af3 f63e eb37 dabe b0e9 96bf 821e c03e
00000260: 23a4 bf3e 7117 853f 0d98 e0bf 5d7f afbe
00000270: aabe 83bf b219 debe 4d09 c9bf ae86 b5bf
00000280: a900 8ebf 0b38 d13e cfd3 713f 7d80 fd3d
00000290: 6bb7 5e3e 74fd 823e 784f f0be cd8f 7abf
000002a0: e6ec 073f 7097 d0bf 73b1 bf3f 3ee9 24be
000002b0: f2fe f6bf 53f2 523f a5ca 20bf 0414 b5be
000002c0: 5efe 7d3e d239 c5bf 7b40 30bf 9c52 68bf
000002d0: 7b0e d4bf 62ff 0ebe f1ee 98bd 6106 09c0
000002e0: ea89 4abf 4f65 f73e 0773 e43e d850 913e
000002f0: 6d67 953d 16c9 333e 0a65 bd3e 7ef5 d2be
00000300: 94b8 1c3f 6fd9 90bf 66c2 363f f013 af3e
00000310: 93a5 253f 479a 323f f791 6b3d 0c80 1abf
00000320: 0d4b cc3e 3ea3 1a3e 5193 7dbe ff16 fbbf
00000330: 1302 7abf dcb7 3a3c 8329 edbf 7948 233e
00000340: fff3 d93d a69d 7e3c e6b7 c8bf 0238 8bbf
00000350: 010b 873e 8a4c 373f 3698 463f 08d3 b1be
00000360: ea05 573f a471 1c3f 3420 f9bd 3280 0b3f
00000370: 26b9 46bf 4d0a aabf 302e 51bf b550 9d3f
00000380: 82c7 20bf 6ef0 9abe 0721 243f 999e 453e
00000390: 240a a63e 1d93 a03d 007f e03e ccc2 ecbf
000003a0: 8154 4e3c 8287 90bd 6502 b43f 6282 2040
000003b0: 8018 02bf 3921 79bf e5c4 44bf b6e0 62bf
000003c0: 25eb 573f 0e94 47be 658d d83f 380f 93be
000003d0: bb57 76bf f419 62bf 3f7e a4bf ab2f 2a3f
000003e0: 9f43 12bf fb48 1abf 7ca6 1940 5d15 d6bf
000003f0: f2b4 99bf 2a13 c3be 56f6 253e 12b0 903c
-1.3084191 -0.51186734 0.17304581 0.55257016 -0.53007936 1.8493828 -1.5232195 -2.1097386
0.108709164 0.32077318 -1.3718966 0.7028603 1.8166902 -0.20752046 0.1398047 -0.9886476
-0.797083 -0.98255783 -0.42986453 -1.009585 -0.1099367 -0.021848094 0.103224635 0.8648583
-2.2039218 0.1334876 -0.17262521 -0.48675945 -0.015143062 -1.1023375 -0.19761163 0.8056437
-0.4951249 0.73198676 -1.1973001 0.5194633 0.64212894 -1.0311558 0.10891786 -1.2600844
-1.9973086 -0.39097372 -1.6664505 -0.6256797 -0.63950783 0.012185734 0.13416407 -0.14183211
-0.67318743 -1.1343324 -1.1529839 0.45269677 -0.27545133 -1.1379869 0.17191368 -0.07397399
0.5187765 1.0681162 -0.018364051 1.7540478 -0.60704595 0.9988196 0.8271548 -0.12028207
0.6950225 0.7294851 -0.92635125 -0.48064345 0.5429054 0.16353971 -0.5452525 -0.9033568
0.8019935 0.04614369 -1.5258625 -1.2139487 0.85815316 -0.4131389 0.25584048 -0.21876125
-0.16773488 -0.5578174 0.9296683 -0.07613579 0.555921 -1.2472126 0.27994466 -0.5599605
0.46492478 -0.36279592 -0.4146322 -0.3276134 0.7534997 0.767796 0.42295521 0.12476155
-1.588477 0.6626507 -0.095339075 0.41624552 -0.29127735 -0.19595216 -0.8674407 0.82819784
-0.27987164 -1.6682944 0.61699724 -1.3668572 -0.8116397 0.48699725 1.249442 -0.5144708
-1.2907797 -0.18272935 0.6380074 -2.0950892 -0.1268006 0.30785978 0.08838286 -1.3903502
-0.8416938 -1.0962178 0.84877765 0.80002314 -0.4948873 -0.1538024 -0.2745473 0.19014503
0.45786053 -1.59872 -1.535385 0.50445175 -0.49446028 0.5670446 -0.47774804 -1.3991746
0.035939842 -1.5547863 2.0551453 -1.8854052 0.10103952 0.09966913 -1.2832643 0.45777026
-1.4478372 -0.022359367 -0.40856448 -0.27097145 0.48232347 -0.42620787 -1.1790066 0.37523276
0.37429914 1.0397779 -1.7546402 -0.34276858 -1.0292561 -0.4337898 -1.5705963 -1.4181726
-1.1093951 0.4086307 0.9446382 0.12378023 0.21749656 0.25583994 -0.4693563 -0.9787567
0.53095853 -1.6296215 1.4976028 -0.161046 -1.9296553 0.8240101 -0.6280921 -0.35366833
0.24804065 -1.540827 -0.6884839 -0.9075105 -1.6566919 -0.13964608 -0.074674495 -2.1410143
-0.7911669 0.4831948 0.4461901 0.2838199 0.072951175 0.17557177 0.3699115 -0.4120292
0.61219144 -1.1316355 0.7139038 0.341949 0.6470577 0.6976666 0.05751225 -0.60351634
0.3990101 0.15101334 -0.24763228 -1.9616393 -0.97659415 0.011396375 -1.8528293 0.15945615
0.10642242 0.015540516 -1.5681121 -1.0876467 0.26375583 0.71601164 0.77576005 -0.34731317
0.839934 0.611109 -0.121643454 0.54492486 -0.77626264 -1.3284394 -0.817111 1.2290255
-0.62804425 -0.30261558 0.64112896 0.19298781 0.32429612 0.0784056 0.43846893 -1.8496947
0.0125933895 -0.07057096 1.4063231 2.507958 -0.50818634 -0.9731632 -0.7686294 -0.8862413
0.8434318 -0.19490072 1.691815 -0.28722548 -0.96227616 -0.8832085 -1.2851027 0.66478986
-0.5713443 -0.6026761 2.4007864 -1.672527 -1.2008345 -0.3810056 0.16207251 0.017662082

fc3.weight f4 [128, 256]
00000000: 2002 16bd edac febe f7fc 6abe 9341 70c0
00000010: 6d19 be3c 52ba 3abe b0af ec3f a6ff cf3f
00000020: 30a4 da3e 4342 783f d5ea dabe 71d6 93bf
00000030: bc1a 23be ae87 afbc dc1a 0bbf c40f aa3f
00000040: f7d6 743d fb23 49be cdd4 8cc0 e78c e43e
00000050: e33f 1abf 9e1d 7b3f 9913 a93f 3327 8e3f
00000060: 2bf8 b53b 0b38 41be 54a1 43bd 6b51 68bf
00000070: d803 8b3d 834e 1ac0 3597 293f 7c89 dabe
00000080: 15d2 f3be 8679 10bf 8baf 2fc0 945d 08c0
00000090: f59a f0bf fd8d 573f e673 f1be 0888 033e
000000a0: 695b ac3e 324f 24be 5484 fe3e 3960 cbbe
000000b0: 5e67 9ebd 7640 ad3f 4fc9 e8bf 32f1 e1be
000000c0: 7003 52bf 446c a2bf 0e4b 6a3f 39b2 abbf
000000d0: f2bd 313f 917c 17bf ce76 193f 05a6 d3bf
000000e0: 0ed2 fabf 6045 8cbf 40b6 49be 0498 593e
000000f0: 2266 83bf 3183 febf e5a0 1dc0 9ac0 533f
00000100: 14cc 643f 6cee 39c0 ba17 f4bf 8ebc 843f
00000110: c7dd 67bf 55e2 c5be 09ec fcbc 1020 a73f
00000120: 0066 1c3e 8601 843f 7bc7 983e 68d2 55be
00000130: 33f3 363e 898a 013f 9628 78bf dd57 28bf
00000140: 2545 57c0 603c 363f bcc2 ae3e 6096 06c0
00000150: 42b1 cdbe 1c2f 263f 921f b6be a0a8 d3bf
00000160: 5dc3 51be c05b 053f 08de 453d 48fd ed3e
00000170: d105 d73e fe7e 5bbd e1b1 393f 5768 f7bf
00000180: 9078 b63f af57 b7bf 49e4 d83e 8caa e3bf
00000190: 82cc a93f eadf 493e 48a1 0b3f 4add c0bf
000001a0: a3a4 59bf 43d5 793f 253a 23c0 cbe7 683f
000001b0: 4836 12be b1eb 59be 4130 f73e 9ee7 c1bf
000001c0: cf80 2fbe 9696 55c0 f61b 8c3e 982e 213f
000001d0: cb8e 1b40 5410 0e3f 56ab babe 211a 933f
000001e0: 2b22 833f 1908 4c3f 751c 6cbe 82f6 6c3f
000001f0: f336 a13c 37eb ad3e 4a3a 873f 33de 41c0
00000200: ec4e c43e 49cb 223f 44e4 af3f a438 d3be
00000210: b7a4 d03d 566f acbf 10a1 5cc0 3dcf 3cbe
00000220: e1c6 133c e492 223f e980 c1bf 07b5 84be
00000230: d25b 79be 1a9e 6bc0 2ff9 073d 1e3e 53bf
00000240: 0768 eabc 2e7d adbf 14e4 09c0 6a65 d8bf
00000250: db10 38c0 2c72 313e 1ddf 8f3e e6e5 353e
00000260: 3bcf 02c0 2148 56bf efb7 293f 6223 1f3e
00000270: 9f27 a83f 29d2 a5be 4930 3abd 73ac 863c
00000280: 0d6a a23f a380 09c0 5600 3fc0 a50c e7bd
00000290: 3819 88be 755e 353e 6ae4 98bf 391a 403f
000002a0: 5efe 00c0 06b4 0fbe 7c33 3cbd 3d20 fc3e
000002b0: fbd6 8abf ddcb 3fbf 4b08 16be 2666 ad3e
000002c0: a92d edbf d6cb 813e 569d 7e3e 2ebc cb3d
000002d0: 6abd 1b3f 8466 1dc0 2849 173f 2e37 213f
000002e0: 73bd fabf 39af ffbe 4051 0fbe 3115 57bf
000002f0: cdd8 2fbf faad 1e3f a4c6 c9be 18ca 8abf
00000300: ba18 1e3e 2c17 cf3f 0cda c73d 7e23 953f
00000310: ba9a 6bbf 29f6 1bbf 67e0 36bf 5e44 4a3d
00000320: d703 18c0 50fd 6bbf 7951 873f 00be 353f
00000330: dd8e bcbf 9de2 ac3b 9e62 69be 1196 1cc0
00000340: 92d9 6a3d 8f99 1cbf 92aa b83e 782d d53e
00000350: 88c9 993f 6cfa da3e 1970 4ebf dae1 33bf
00000360: 0df3 403f 7e4c 2ec0 5596 2c3f 53f8 393f
00000370: 030a eb3e 791d 893f 0c8a 01c0 3b00 843d
00000380: e551 113f 0160 19c0 5243 08c0 0526 2ac0
00000390: 98bf 19c0 d67e 0cc0 7d2b 293f 1a9a 1b3f
000003a0: bcd3 8cbf ed23 4dbd ed8d cabf 0a07 01bf
000003b0: 1f81 72be 2469 1e3f 8e7b f33e 794e 9dbc
000003c0: 744d e9bf 55f3 52bf faf4 2e3f a52a c5bf
000003d0: 2806 cb3e b137 c23d effb 473f c357 b8bf
000003e0: c65d fb3d b9f2 5ebf b62b 57bf af8f a1bb
000003f0: 49c7 b8be 012c fb3d 39cb 44bf bf91 5bbf
-0.03662312 -0.49741307 -0.22948061 -3.7540023 0.023205483 -0.18235138 1.8491116 1.6249893
0.4270339 0.9697611 -0.42757288 -1.1549817 -0.15928167 -0.021427002 -0.5433786 1.3286061
0.05977532 -0.19642632 -4.4009767 0.4463875 -0.60253733 0.9809207 1.3209106 1.1105713
0.0055532656 -0.18869035 -0.047761276 -0.90749234 0.067878425 -2.411042 0.6624635 -0.42683017
-0.47621217 -0.5643543 -2.7450893 -2.1307116 -1.8797289 0.8420103 -0.47158736 0.1284486
0.3366349 -0.16045836 0.49710333 -0.3972185 -0.077345595 1.3535297 -1.8186435 -0.4412933
-0.82036495 -1.268929 0.91520774 -1.3413764 0.6943046 -0.5917445 0.59946907 -1.653504
-1.9595354 -1.0958672 -0.19698429 0.21249396 -1.0265543 -1.9883786 -2.4629452 0.8271576
0.893739 -2.905177 -1.9069741 1.0370042 -0.9057278 -0.3864924 -0.03087427 1.305666
0.15273285 1.0312965 0.29839692 -0.20881045 0.1786621 0.5060201 -0.9693693 -0.6575907
-3.3635952 0.71185875 0.34132946 -2.1029282 -0.401743 0.64915633 -0.3557096 -1.6535835
-0.20484681 0.52093124 0.04830745 0.464823 0.41996625 -0.053587906 0.72537047 -1.9328717
1.4255543 -1.4323634 0.42361668 -1.7786422 1.3265536 0.19714323 0.5454297 -1.5067532
-0.8501684 0.97591037 -2.5504239 0.9097869 -0.14278519 -0.21281315 0.48279002 -1.5148809
-0.1713898 -3.337316 0.27365083 0.6296172 2.4305904 0.55493665 -0.36458844 1.1492349
1.0244802 0.79699856 -0.2305773 0.9256364 0.019679522 0.33968517 1.0564663 -3.029187
0.38341463 0.6359144 1.3741536 -0.4125415 0.10187667 -1.3471477 -3.4473305 -0.1843843
0.009019584 0.6350539 -1.5117465 -0.25919363 -0.24351433 -3.6815248 0.033196624 -0.8251666
-0.028614057 -1.3553827 -2.1545458 -1.6905949 -2.8760288 0.1732871 0.2809991 0.1776348
-2.0438983 -0.8370381 0.66296285 0.15540841 1.3137091 -0.32386902 -0.045456205 0.016439652
1.2688614 -2.1484764 -2.9843955 -0.11281709 -0.2658174 0.17711814 -1.1944706 0.7504001
-2.0155253 -0.14033517 -0.045947537 0.49243346 -1.0846857 -0.74920446 -0.14651601 0.33866996
-1.8529559 0.25350827 0.24864706 0.09948002 0.608359 -2.459382 0.59096 0.6297482
-1.9589065 -0.49938372 -0.13995838 -0.8401671 -0.68690187 0.6198422 -0.39409363 -1.0842924
0.1543912 1.6178946 0.09758386 1.1651456 -0.9203297 -0.60922486 -0.7143616 0.049381606
-2.3752344 -0.921834 1.0571738 0.7099304 -1.4731098 0.005276038 -0.22791526 -2.4466593
0.057336397 -0.6117181 0.36067635 0.41636252 1.2014627 0.42769182 -0.806398 -0.702665
0.75370866 -2.7234187 0.6741689 0.7264454 0.45906076 1.0712119 -2.0240507 0.064453565
0.56765586 -2.3964846 -2.129109 -2.6585705 -2.402319 -2.1952415 0.6608198 0.60782015
-1.1002116 -0.05008309 -1.5824562 -0.50401366 -0.23682068 0.6187918 0.47555202 -0.019202458
-1.8226762 -0.82402545 0.68342555 -1.5403639 0.39653134 0.094832785 0.78118795 -1.4401783
0.12273745 -0.87089115 -0.8405107 -0.0049304585 -0.36089543 0.122642525 -0.76872593 -0.85769266

fc3.bias f4 [128]
00000000: ff6b 54be 3ebd 11bf 5ded fbbf a725 7a3e
00000010: 3b7a 023e 025e 4240 a38b ddbf 9341 0fbf
00000020: 71e8 00be 7a78 09bf 126f 1e3f 7e98 463e
00000030: 5344 403f 9abb c8bd 34f5 5d40 0a72 1bbf
00000040: 3397 333f 641d 47bd 0543 503f 550d a0be
00000050: fa97 5cbf 3c8e b3bf 2e2b fe3e ad3d d73e
00000060: ec13 943e 5b78 403d 42ee 11bf becb 873f
00000070: 9da5 783f 5c35 1040 87f0 5c3f bec0 323e
00000080: 949b ae3e e61e 72be 0488 54bf 1d34 4a3e
00000090: 5887 3cbd 1b5e 2fbc 37f2 60bf b402 b33e
000000a0: 3dab 04c0 99e0 99bb 49e4 993f 0c0d 0fbf
000000b0: a976 73bf 48e7 c93f 02ce 0a3f 68a1 303f
000000c0: 081c acbe 38d9 253f d46d 9f3e 29ad e2be
000000d0: 9721 853e dda6 053f 9b85 753e 93ba 9b3d
000000e0: 5fcc 95be 04b5 0a3f c19e bbbe ad9d 923f
000000f0: ffee 82bf c9a1 c9be 610c f4bf 2335 25be
00000100: f977 1dbf 049b eebf 642e c8be a25c 373f
00000110: 991e fcbe 1a26 b7bf 16d3 1bc0 37ef 2dbf
00000120: bd3e cdbe 84b9 debe 49f3 05bd 6146 353e
00000130: 1ee8 6540 0ede e33f b760 1d3f 2b0b 8ebf
00000140: c85a 79bf ec7e 30bf 5abb d5be 6c0b 49bf
00000150: 896d 8fbf b614 733e 48ea 03c0 10d9 c4bf
00000160: 89bd 18c0 6633 553f c5dc de3e 01f0 bfbe
00000170: b5eb 54bf c483 393f 4f64 0c3f b128 f23f
00000180: a5a1 893e 8a36 823e 87b6 eb3e 44c0 e73f
00000190: 3252 a7be d5b7 17c0 0169 d4be c8b7 c1bd
000001a0: bd88 babe 0372 dc3e 0be3 e43c 0bb1 413e
000001b0: 9113 cabe 1c2f 883e ec5f 2cbf 5af0 43be
000001c0: d4c1 ac3d f21b b63e ff4e b4bf 13ee abbe
000001d0: 926d debe 5730 eb3e 399a 203e ad48 7ebf
000001e0: 3838 633f 366d 17c0 37b5 c73e af86 5ebf
000001f0: 67a2 6d40 6b34 5cbf 7976 41bf 869c a8bf
-0.20744322 -0.56929386 -1.9681813 0.24428426 0.1274194 3.0369878 -1.7308239 -0.55959433
-0.1258867 -0.5369946 0.6188823 0.19394109 0.75104254 -0.09801407 3.468091 -0.60720885
0.70152587 -0.048612013 0.81352264 -0.31260172 -0.861694 -1.4027781 0.49642318 0.42039242
0.2892145 0.04698978 -0.5700418 1.0609052 0.97127706 2.2532568 0.86304516 0.17456338
0.34103072 -0.236446 -0.83020043 0.19746442 -0.04602751 -0.010703589 -0.8786959 0.34963
-2.0729516 -0.0046959636 1.2022792 -0.5587928 -0.95102936 1.5773706 0.5422059 0.68996286
-0.33615136 0.64784575 0.3113848 -0.44272736 0.2600219 0.5220774 0.23976748 0.076039456
-0.29257485 0.5418246 -0.36644557 1.1454369 -1.0229186 -0.39381245 -1.9066278 -0.16133551
-0.6151119 -1.8641057 -0.39097893 0.7162572 -0.49242094 -1.4308503 -2.4347587 -0.6794314
-0.40086928 -0.43500912 -0.032702718 0.17702629 3.5922923 1.7802141 0.614757 -1.1097158
-0.97404146 -0.6894367 -0.417445 -0.78533053 -1.1205302 0.2373837 -2.0611744 -1.5378742
-2.3865683 0.8328155 0.4352781 -0.37487796 -0.8317216 0.72466683 0.5484056 1.8918668
0.26881137 0.25432235 0.46037695 1.810555 -0.32679898 -2.3705952 -0.41486362 -0.094588816
-0.36432448 0.43055734 0.027940294 0.18915193 -0.39468053 0.26598442 -0.67333865 -0.19134656
0.08435407 0.35568196 -1.4086608 -0.33580074 -0.4344297 0.45935318 0.15683831 -0.99329644
0.8875766 -2.3660407 0.39005443 -0.8692426 3.7130373 -0.86017483 -0.755714 -1.3172767

fc4.weight f4 [5, 128]
00000000: c2e6 113f 8082 ecbe 4919 933e 3ad4 29bf
00000010: ebf3 0ac0 17cc c23e 82ed 30bf 8b00 f6bb
00000020: c684 5cbf d06b 8fbf 8063 00bf 1f91 f83e
00000030: d83b 49bf f30a a3bf 10b7 b13e 02d5 45bf
00000040: ed93 143f 2c3f 25bd 4f48 51bf ce03 99be
00000050: bf9b a73d 922c a4bf 2eb5 253e 7b69 95bf
00000060: e6fd 763d 6ec9 8e3d 71ec dcbe 3dd6 b33e
00000070: 0320 58bf c2a0 6a3e 1347 66bf 4370 2cbe
00000080: ac04 313e de68 91bf 2fe7 f1be 3da4 8ebe
00000090: f241 a4be 8db2 963d e3df ccbd b215 cabe
000000a0: bae7 cfbf c8b7 7b3e df3b 073f ba30 d03e
000000b0: 52ab 883e 0af9 ee3e c4ff 7a3b f2b5 cabe
000000c0: edb8 e13d ba8f 89be 3ef1 2f3e c11f c4bd
000000d0: a3e5 bcbe 1a6a e1be e9e5 9abe c9c5 89bf
000000e0: f5dd a3be 74e5 9cbe f517 9bbe fc0b 9f3e
000000f0: 6e47 07bf 0a6c 5c3e 9de9 fdbe 49e3 7e3e
00000100: f196 aabc 98e9 73bf 3a62 1b3f 6edb 213d
00000110: c702 bb3d 3eb0 42bf fa1a 34be 2327 19be
00000120: fe87 b23f 3074 05bf 5f0f 1bbd 761c 96bf
00000130: 29de c23e f2b8 5b3e 8326 fb3e a4e1 bbbf
00000140: 4a5d 29be cf8d eebe 4ea4 e9bf 5a46 6ebf
00000150: 1a79 993f 836e a73e 2a39 09bf 2807 a2bf
00000160: 82f2 84bd 702b ff3e 5bd3 1ebf 0f94 85bd
00000170: f5f0 813c 04a3 b53f 0bf0 98bf e746 e83d
00000180: 73bb a4be 6029 d9be ea40 47bf 7230 5b3e
00000190: 004b a5bf 2643 98be d647 c3bf 96e0 44bf
000001a0: be23 c9be fdc2 db3e b8c0 79bf 7d2d 593e
000001b0: f151 ddbe dcca 363f 63a4 8c3f e31a 5bbf
000001c0: 75a8 83bf b408 71bf 583d 6abe 82c4 44bf
000001d0: b347 963e 4f19 b63e c09d aabd 1aae f5be
000001e0: d53d f0be da31 51be 0483 253e 22c5 753f
000001f0: da74 083f 234f 56bf a204 e23d 87a4 85bc
00000200: 62c1 e43d 0220 893d 8ac4 303d 6777 8ebe
00000210: 999e 01c0 42fa c33e 9705 babf 83c8 153c
00000220: 893f a7bf 5146 51bf 1b93 03bf 37f0 063f
00000230: 2dc7 fcbd 48c7 e3be ef53 b13e 3564 583c
00000240: f1aa 083f 0f26 123f f3f3 96bf 3400 80be
00000250: d33f 19be 9b05 45be a66f 783e 9ef9 e3bf
00000260: ec18 893d c487 773f 5b50 aabe 39fe d23e
00000270: 9fae 31bf 9995 5e3e 4c74 cabf c384 92be
00000280: d22a ad3d 787b 59be dd07 09be 6bcf d0be
00000290: 1c19 01bf 9fe7 0a3f effa 1b3f 9ad2 a2be
000002a0: 34a8 93bf 4b00 4d3f 4d7b 163f d874 3cbe
000002b0: 7a92 0cbf ddb0 fc3e 1925 18bf 118c aebe
000002c0: 3ae9 483c c38c 693e 0c8a 893f f249 80bd
000002d0: a705 c2be cebf e2bc 70d5 8cbf a500 06c0
000002e0: 3f70 6bbf 7983 85be 5b18 3ebd eac3 a23e
000002f0: d9a8 2ac0 b1b8 20bd 1cde 62be d177 773d
00000300: 5ef8 d83e a1ad 35bf 01b5 17bf b5be f33e
00000310: b9c3 963b 498a fe3d 70a5 2abf 0ecb fbbe
00000320: a9a1 b33f a274 12bf 7fba 82be 052b 83bf
00000330: da53 ce3e 06fe 5f3e 260a 103f 9925 8cbf
00000340: dca5 d2be 1a8c 30bc f626 1dc0 e3cc 15c0
00000350: 277b fd3e 447c 333f 4120 04bf f60d 973d
00000360: edd3 21bd 9d09 fd3e 9bc9 5fbe 8485 54be
00000370: e579 57be b9e4 643f 0b4c 35bf 03ba 033e
00000380: 3c53 06bf 0729 183f fb07 1dbf 3348 413e
00000390: 7516 113e aa15 b8bd a9bb e43d 247e e8bf
000003a0: 96e1 36bf 1176 273d b07c a5bf f606 19bf
000003b0: 0c8f 10bf e93c dd3e 511c 283f 9939 0dc0
000003c0: ba14 d93d dd1f 0abf 5130 e4be 8137 1bbf
000003d0: acb1 1a3f afd8 a63e f101 a1be 9cfc aebd
000003e0: 2a28 61bf 4caa 89be 096d 5cbe 784d 4d3f
000003f0: 533b f73e eed2 d4bf aad9 d13d 79b4 abbc
0.56992733 -0.46193314 0.2873023 -0.6633946 -2.1711376 0.38046333 -0.6911241 -0.007507389
-0.86140096 -1.1204777 -0.50151825 0.4854822 -0.7860694 -1.2737716 0.34709978 -0.7727815
0.58038217 -0.04034345 -0.8175096 -0.29885715 0.08184003 -1.2826102 0.16182396 -1.1672815
0.06030073 0.069720134 -0.4314914 0.35124388 -0.84423846 0.22912887 -0.899522 -0.168397
0.17286938 -1.1360128 -0.47246692 -0.2785968 -0.32081562 0.073582746 -0.100036405 -0.39469677
-1.6242592 0.24581826 0.5282573 0.40662175 0.26693207 0.46674377 0.003829942 -0.39591938
0.110216 -0.26867467 0.1718187 -0.09576369 -0.3689395 -0.44026262 -0.30253533 -1.0763484
-0.32005277 -0.3064381 -0.30291715 0.3106383 -0.5284337 0.21525589 -0.49592295 0.2489139
-0.020823928 -0.9527831 0.60696757 0.039515905 0.09131389 -0.76050174 -0.17588416 -0.14956336
1.3947752 -0.52130413 -0.037856456 -1.1727436 0.3806012 0.2145727 0.4905282 -1.4678235
-0.16539493 -0.46592566 -1.8253267 -0.930761 1.1990082 0.327015 -0.5360285 -1.2658434
-0.06491567 0.49837828 -0.6204125 -0.065223806 0.015861968 1.4190373 -1.1948255 0.113416485
-0.32174262 -0.4241438 -0.77833426 0.21405199 -1.2913513 -0.2973873 -1.5256298 -0.7690519
-0.39285082 0.42922202 -0.9755969 0.21208759 -0.4322658 0.7140329 1.0987667 -0.855879
-1.0285784 -0.94153905 -0.22874963 -0.7686235 0.29351577 0.35566184 -0.0833087 -0.4798439
-0.46922174 -0.20429173 0.1616326 0.96003926 0.533033 -0.83714503 0.1103604 -0.016313804
0.11169697 0.06695558 0.043156184 -0.27825472 -2.025305 0.3827687 -1.4532956 0.009142044
-1.3066264 -0.8174792 -0.5139634 0.5271029 -0.12342677 -0.44487977 0.3463435 0.013207485
0.53385836 0.5708932 -1.1793197 -0.25000155 -0.14965753 -0.1924042 0.2426134 -1.7810552
0.066942066 0.96691537 -0.3326443 0.41209581 -0.69407076 0.21736754 -1.5816741 -0.28616914
0.08455433 -0.21238506 -0.13381906 -0.40783247 -0.5042894 0.54259676 0.6092977 -0.318013
-1.1535707 0.8007857 0.5878189 -0.18403947 -0.54911005 0.49353686 -0.59431607 -0.34091237
0.012262637 0.22807603 1.0745254 -0.06264104 -0.37894937 -0.02767935 -1.1002636 -2.0937893
-0.9196815 -0.26076868 -0.046409946 0.31790096 -2.6665556 -0.039238635 -0.2215504 0.060417
0.4237699 -0.7096806 -0.59260565 0.47606435 0.0046009687 0.124287196 -0.6665869 -0.49178356
1.403371 -0.5720922 -0.2553291 -1.0247504 0.4029835 0.21874246 0.56265485 -1.0948974
-0.41142166 -0.01077559 -2.455503 -2.3406303 0.4950802 0.7011149 -0.51611716 0.0737571
-0.03950875 0.49421397 -0.2185425 -0.20754057 -0.21042593 0.89411503 -0.7081916 0.12863927
-0.52470756 0.594376 -0.613403 0.18875198 0.14168723 -0.08988507 0.11168606 -1.8163495
-0.71437967 0.04088408 -1.2928677 -0.59776247 -0.5646827 0.43210533 0.6566821 -2.2066405
0.105996564 -0.5395487 -0.44568112 -0.6063157 0.60427356 0.3258719 -0.31446794 -0.08544275
-0.8795191 -0.2688774 -0.21525969 0.8019633 0.48287448 -1.6626871 0.10246594 -0.02096008

fc4.bias f4 [5]
00000000: 8795 f73f 6741 3e40 c8a2 1740 3d63 2940
00000010: 0e40 3f40
1.9342507 2.9727418 2.3693104 2.646682 2.9882846
