car_model_best.pth (torch, 274580 bytes, 8 tensors)

fc1.weight f4 [128, 9]
000000 ac 71 c9 3d a1 1b 83 3e b0 68 e0 bc 9b d5 45 be
       0.09836134 0.25607017 -0.027393669 -0.19319765
000010 72 d1 95 be 37 90 90 be 48 9a 59 bd b8 53 7a be
       -0.29261357 -0.28235027 -0.05312565 -0.24445999
000020 50 0b da bc 10 c9 b8 3e 3e 5f 76 be 72 20 74 be
       -0.026616722 0.360909 -0.2405977 -0.23840502
000030 4d f8 8b bd d0 3a a5 bd bc 1a 36 be d5 f5 45 3f
       -0.06834469 -0.08067858 -0.17783636 0.77328235
000040 98 50 5d bd 59 97 09 3f 56 af 17 c0 d4 e2 04 c0
       -0.05403194 0.53746563 -2.3700767 -2.0763445
000050 ec 55 39 c0 95 65 ba be 6f 05 63 be f5 1d 3d 3f
       -2.8958693 -0.36405626 -0.22170042 0.73873836
000060 61 b3 07 3f 08 69 6a 3e 1d 82 fb 3e bd 92 86 c0
       0.53008085 0.22891629 0.49122706 -4.2054124
000070 2c c5 25 be 62 21 32 3f b6 ff e2 bb a5 4d dd 3e
       -0.16188496 0.6958219 -0.006927456 0.432233
000080 94 08 e9 3b 6f 6f 34 be 1b ee 4d 3e b3 8c 33 3f
       0.0071116183 -0.17620634 0.20110361 0.70136565
000090 11 95 72 3f 42 9d 45 3e b8 28 1d 3e ac 74 91 be
       0.9475871 0.1929827 0.15347564 -0.28409326
0000a0 29 99 cc 3e 4b 79 55 bf 17 2e 2a c0 6c 7d 6a c0
       0.39960602 -0.83388203 -2.659063 -3.6639051
0000b0 24 0a a8 be 11 b6 55 3f 48 78 40 bf 99 94 a0 be
       -0.32820237 0.83480936 -0.75183535 -0.3136337
0000c0 f3 c7 24 be a5 5b 3d 3f b5 07 40 3e 0a 84 aa be
       -0.160919 0.73967963 0.1875294 -0.33303863
0000d0 0b 91 80 be 83 a5 94 3e 38 56 0e be 04 fe 6e 3d
       -0.2511066 0.29032525 -0.13900077 0.058347717
0000e0 87 f9 54 be 8f b8 d1 bd ba 31 a2 bd de 6d 81 3e
       -0.20798312 -0.1024028 -0.07919641 0.25279135
0000f0 12 1c b5 be d3 70 ae be 2e 50 2b be 3c af a1 3e
       -0.35372978 -0.34070453 -0.16729805 0.31579006
000100 4f 5e d9 3e 97 d0 91 be 7c 67 0d bf 7a 96 74 3e
       0.42454764 -0.28479454 -0.5523603 0.23885527
000110 49 18 a1 be 14 54 2c be 17 eb e0 be a1 13 ac be
       -0.3146384 -0.16828948 -0.4392936 -0.33608726
000120 d5 a5 68 be b6 84 a2 be 1d 3f 02 bf e0 73 04 bf
       -0.2271951 -0.31741875 -0.50877553 -0.5173931
000130 0f 65 96 be af e1 de 3e d5 2f 64 3f fb fc 97 3f
       -0.29373977 0.43531558 0.89135486 1.1874079
000140 f9 fe 17 be 23 21 1a 3f 0e 32 e6 be b4 42 38 bf
       -0.14843358 0.6020681 -0.44960064 -0.7197678
000150 fb 11 e2 bd 10 a6 7b bd d3 ea 26 be 73 a1 0a 3d
       -0.11038586 -0.061437666 -0.16300516 0.033845376
000160 7c db d1 be 4f 6c 1e 3e 4e e9 00 3e c0 ea ec bc
       -0.40987766 0.15471004 0.12588999 -0.028920531
000170 a7 17 85 be ec 9b d8 bd a0 af 56 bc fa 58 a3 be
       -0.25994608 -0.10576615 -0.013103396 -0.3190382
000180 e4 53 a2 bd 66 49 1a be 89 64 9d 3e 8b 48 fd bf
       -0.07926157 -0.15067062 0.30740765 -1.9787763
000190 73 05 b6 3e 56 60 28 3f c2 2e 71 3e 8f 8b a2 bd
       0.35551032 0.65771997 0.23552993 -0.07936775
0001a0 b8 d7 59 bf e0 e8 1f 3e 67 08 7b 3f 7c 50 b3 bd
       -0.85094786 0.15616179 0.98059696 -0.087555856
0001b0 7d 10 9a 3f 42 39 73 3d d5 c1 ef 3c 4c db fa 3b
       1.2036282 0.059380777 0.029267231 0.0076555368
0001c0 cc 46 db bd fd d9 b0 3e 22 0e cf 3e 09 09 f5 bf
       -0.10706863 0.34541312 0.4044047 -1.9143382
0001d0 4c 35 9b bd 90 59 6d bb f7 c8 65 3d ee 7f 1b 3f
       -0.07578525 -0.0036216713 0.056099858 0.6074208
0001e0 0c 73 20 bf a7 3c dc 3d a4 5d d4 be c7 64 01 bd
       -0.6267555 0.10753756 -0.41477692 -0.03159025
0001f0 92 eb 38 3f 31 34 23 bf 80 a0 12 40 0b 61 34 bd
       0.7223445 -0.6375151 2.2910461 -0.04403786
000200 c9 42 83 be f4 82 46 bd 04 8c ee 3c 17 0d 17 3f
       -0.2563689 -0.04846473 0.029119499 0.5900435
000210 e6 d5 5e bf 0b e4 67 c0 3b 81 dc 3d 2a 8d eb 3e
       -0.87045133 -3.6232936 0.10766836 0.46006137
000220 c9 94 2f be 4d 1d 74 bd 88 4c 27 be 39 47 bf bd
       -0.17146601 -0.059598256 -0.16337788 -0.093397565
000230 20 3d 17 bf 5d df 27 bd 71 fc b6 3e 0b 24 b3 3c
       -0.59077644 -0.0409845 0.35739473 0.021867773
000240 fe fa 47 3e 7f c9 56 3d 44 c6 2d bf 19 f7 3c 3f
       0.1952934 0.052438255 -0.67880654 0.7381454
000250 0c 5f c5 bc b8 10 60 bf 0e e7 3f 3e b9 f3 06 3f
       -0.024093173 -0.8752551 0.18740484 0.5271564
000260 15 c3 b4 bf cf 50 01 40 84 e3 91 bd ce 68 d4 be
       -1.4122034 2.0205572 -0.07123473 -0.4148621
000270 6d ff 15 3e eb 7b c1 3d e0 8e 99 bd ed 33 14 c0
       0.14648218 0.094474636 -0.07497954 -2.3156693
000280 4a 6f 83 c0 fd 1a de 3e 9a 3e 99 bf 1c da 35 3f
       -4.107335 0.43379965 -1.197223 0.71035933
000290 66 da 31 be aa ee 0f bf 01 c8 39 bf b9 9c 90 bd
       -0.17368469 -0.5622355 -0.72570807 -0.070611425
0002a0 69 b7 bb 3c 48 a0 96 3f 34 76 c2 bd 70 66 1f 3f
       0.022914605 1.1767664 -0.09495202 0.6226568
0002b0 9a 1f ba 3e 44 9b 74 3f 38 4a a8 3d f6 5e c7 bd
       0.36352235 0.95549417 0.08217281 -0.09734909
0002c0 0f fb 22 3e 9f 07 36 3f 4b ab 21 3f 70 3b fe bf
       0.15916084 0.7110538 0.63152 -1.9861889
0002d0 37 f2 6f 3f 76 40 9b 3e 8e 2e 2f 3f e3 f1 d2 3e
       0.93728966 0.30322617 0.6843041 0.4120017
0002e0 04 6c 2b 3d e7 12 12 3f a9 39 3e 3f ee ac 26 3c
       0.04185106 0.5706009 0.7430673 0.010173066
0002f0 ce f8 64 bf 88 b0 97 bc 4c a8 68 be e1 98 e9 bc
       -0.89442146 -0.018516794 -0.2272045 -0.028515281
000300 ed 7d 89 be 48 80 9b 3d 9f 10 7b bd ae 16 6a be
       -0.26853886 0.07592827 -0.061295148 -0.22860214
000310 bb 50 8e 3e ca 2b 74 be ed 80 c8 bf b5 c0 09 3f
       0.27795967 -0.23844829 -1.5664345 0.5380967
000320 06 db 07 3d 53 95 49 bf 1a 9c 8b 3e 72 2b 05 3f
       0.03316786 -0.78743476 0.27267534 0.5201942
000330 9d 9e 2b bf 56 0f a8 be 14 21 34 bf 32 05 00 bf
       -0.670389 -0.328242 -0.70362973 -0.5000793
000340 0f c6 72 3f ee d9 b9 3e 57 b8 20 be fa 76 52 bd
       0.94833463 0.3629908 -0.1569532 -0.051382996
000350 4c 8f c7 3c 88 6b d5 be 50 1d 6f 3f 47 30 96 be
       0.024360321 -0.41683602 0.934041 -0.29333708
000360 e1 75 21 c0 2f 0f ac bd 9d 31 2e bd 4a f9 25 3d
       -2.5228198 -0.084013335 -0.042527784 0.040520944
000370 64 73 11 bd ad 89 ee 3e fd 8c 17 3f 7d 5b d0 3f
       -0.035510436 0.46589413 0.59199506 1.627792
000380 3c f6 21 3f da 67 07 3f e1 b3 92 be 03 b7 09 bf
       0.6326635 0.5289284 -0.28652862 -0.5379488
000390 64 44 ed be 66 08 89 3e ab c4 79 be 7d f2 39 3f
       -0.4634124 0.2676422 -0.24391429 0.7263563
0003a0 95 e3 50 bf 1c 94 6d 3e 58 aa 2e 3f 2d fc 7b bf
       -0.8159726 0.2320103 0.68228674 -0.98431665
0003b0 98 d7 69 3f be 05 ff be 47 ff d9 3e 62 e9 9c be
       0.91344595 -0.49809068 0.42577574 -0.30646807
0003c0 81 0a f8 3d fa 9f d5 3e ff 07 5b bd 8a 4d 7b bd
       0.121113785 0.41723615 -0.053474423 -0.061353244
0003d0 19 4d 13 bd d3 78 ca be 3c fd b4 bd 42 a5 52 bd
       -0.035962198 -0.39545307 -0.08837363 -0.051427133
0003e0 64 eb 85 be 94 32 9f bc 4c 82 49 3e 15 19 7a bd
       -0.2615615 -0.019433297 0.1967861 -0.061059076
0003f0 15 40 b8 bf 73 1f 91 bf df 83 9f bf 3a dd c6 bf
       -1.4394556 -1.1337723 -1.2462119 -1.5536263

fc1.bias f4 [128]
000000 5b 7b 67 be 39 49 78 be d4 02 46 be 34 e5 ac bd
       -0.2260565 -0.24246682 -0.19337016 -0.084421545
000010 6e d2 85 3c c1 32 e2 bd fd 27 00 be e7 26 97 3e
       0.016335692 -0.11044837 -0.12515254 0.29521868
000020 2c bc 46 bf 67 93 34 3f e4 52 8e be e2 d5 03 3e
       -0.7763088 0.7053742 -0.27797616 0.12874559
000030 c0 86 85 3d d3 5e db 3e db 11 d9 3d e4 8c a1 3e
       0.06519842 0.42845783 0.10599109 0.31552804
000040 12 5e 57 be 01 06 ae 3b d0 11 19 3e 65 f6 65 bf
       -0.21031979 0.0053107743 0.14948201 -0.89829093
000050 12 58 56 bf 0e df a3 be 70 5b aa 3e 77 5a 90 be
       -0.83728135 -0.32006115 0.33272886 -0.2819402
000060 29 57 55 be 3b 0c c8 3c ba b9 b9 be 2f ac cb b9
       -0.2083403 0.024419894 -0.3627451 -0.00038847464
000070 70 d8 9c 3c 09 06 cc 3e ca 35 8c bb 61 72 f2 be
       0.019146174 0.39848354 -0.004278873 -0.4735289
000080 34 03 6e bc ee b2 71 3e 2e be a9 3d b6 9b db be
       -0.014527131 0.23603413 0.08288227 -0.42892236
000090 14 f3 bb 3e 24 fb c9 3d 84 01 a5 bd d4 f1 4c 3d
       0.3670889 0.098623544 -0.0805693 0.050035313
0000a0 b1 c1 8b 3e 46 8f a6 be c0 57 de 3e 9e c8 08 3f
       0.27296212 -0.32531184 0.43426323 0.5343112
0000b0 c5 74 65 bc cf ad dc 3d 20 61 3f bf 08 23 aa be
       -0.014004891 0.10775339 -0.74757576 -0.33229852
0000c0 c8 61 fd be 4a ea 52 3d 61 f3 96 be d0 e3 24 3e
       -0.49488664 0.051492967 -0.29482558 0.16102529
0000d0 ac cb 44 bf 62 42 d1 3e cf 87 e8 be c6 47 1d 3e
       -0.7687328 0.4087096 -0.45416114 0.1535941
0000e0 30 9b c1 bc fd d5 0f be 9e 60 94 3c 1d 33 3f 3d
       -0.02363357 -0.14046474 0.018112477 0.046679605
0000f0 52 e5 2e bd 4c f8 54 3c 1d 2f dc 3e c3 d8 68 3e
       -0.042699166 0.012998652 0.43004695 0.22738938
000100 48 f0 5e be 54 3f 28 3e 70 64 db 3e 1c 42 62 3e
       -0.21771348 0.16430408 0.42850065 0.22095531
000110 f8 5e e9 be 8b b4 b3 3d e6 0e a7 bd ad b7 53 3e
       -0.45580268 0.0877467 -0.081571385 0.20675536
000120 ee 04 67 be 98 3b 2b 3e b6 08 38 3f a1 0f 11 bd
       -0.22560474 0.16721952 0.7188829 -0.035415296
000130 87 95 19 3f 03 08 3b 3e 16 ed 48 be 13 e7 1a bf
       0.59993786 0.18264775 -0.19621691 -0.6050884
000140 fd fb b7 bd ca a0 05 3f 7e 3b 0b 3f 42 cc f7 3e
       -0.0898361 0.5219847 0.5438765 0.48398024
000150 6d a9 52 bf 49 34 99 3e fb 5e bb be 15 6f 07 3e
       -0.82289773 0.29922703 -0.36595902 0.13225968
000160 27 48 ba 3e f7 94 7a bf ef 92 87 3d a3 ae 98 be
       0.36383173 -0.9788355 0.06619822 -0.29820737
000170 ac 8c 10 3f 73 39 62 be dc 2b 9a 3e b2 54 e4 be
       0.5646465 -0.22092228 0.30111587 -0.44595867
000180 6c c8 7c 3d 40 33 a5 3e be 5f 41 3e 7e 9f 55 be
       0.061714575 0.32265663 0.18884179 -0.20861623
000190 18 ce 95 3e 20 2a 27 bf 08 3d 71 3e c6 ca ad 3d
       0.292588 -0.6529865 0.23558438 0.084859416
0001a0 db a2 d1 3e ba 58 4b 3e 11 be 06 3f 7a bf 7f 3e
       0.4094456 0.19858065 0.5263377 0.24975386
0001b0 f5 d4 9c bd d3 f2 41 be 2e 6e d3 3d 30 39 db 3e
       -0.07657806 -0.18940286 0.103237495 0.42817068
0001c0 3c 54 c5 3e ac 71 ab 3e 93 1b 0f bf a1 55 b6 3e
       0.38540828 0.33485162 -0.5590145 0.35612205
0001d0 69 c8 a1 be 40 f0 ae 3c b3 13 ad 3e 62 35 89 be
       -0.31598213 0.021354795 0.33804092 -0.2679854
0001e0 02 65 a1 3e 3c a5 69 be 2c f4 7a 3d cc 33 a3 3c
       0.31522375 -0.22816938 0.061268017 0.01992216
0001f0 09 49 9d be 24 9a 95 be 3b aa 33 bf 3c 5e c2 be
       -0.30719784 -0.29219162 -0.70181626 -0.3796252

fc2.weight f4 [256, 128]
000000 30 9f 43 bc 72 39 08 bd 1f af 5d bd 32 1c 1c bd
       -0.011939809 -0.03325791 -0.054122087 -0.038112827
000010 e1 15 1f bd 2b 43 b6 bc c0 fe 90 bc 4d 4c f3 bd
       -0.038839225 -0.022248825 -0.0176996 -0.118797876
000020 6d b1 24 3d 5e 1b 57 3c 3b e7 9f 3d 68 c2 7f 3b
       0.04020827 0.013129083 0.078077756 0.0039025787
000030 10 70 04 bb fc e9 8e bd f6 ba 64 bd f6 84 c7 bc
       -0.0020208396 -0.06978223 -0.055842362 -0.024355393
000040 8a 57 40 3d 8b 3c d1 bd 74 35 48 bd ef f6 18 3d
       0.046958484 -0.10216626 -0.048879102 0.03734487
000050 76 49 a8 bd 12 6b 04 3d 1d 55 ab 3d 4b 34 b9 bd
       -0.082171366 0.032328673 0.083658434 -0.09043177
000060 1a 51 76 bd f6 76 f3 bd a2 ea f1 39 6a 33 73 bd
       -0.06013594 -0.118879244 0.00046141917 -0.059375204
000070 d9 d9 70 3d 62 b1 8a bd 55 b3 19 bd 36 84 97 3c
       0.058801506 -0.06772114 -0.03752454 0.01849566
000080 c7 4e cb 3c 49 c8 23 bd f0 7d a2 3b ec 96 e3 bc
       0.024817837 -0.03998593 0.0049588606 -0.027781926
000090 bf 51 98 bd aa 8c 31 bd e0 1b fc bb 06 28 4e bd
       -0.07437467 -0.04334704 -0.0076937526 -0.050331138
0000a0 d5 e9 ca bc f0 a0 82 bd 3d 97 e2 bd c7 ee 80 3d
       -0.024769703 -0.06378353 -0.11064003 0.06295543
0000b0 d0 d1 19 bd 11 8e 75 bc f7 23 11 bd 00 96 9c bc
       -0.03755361 -0.014987485 -0.03543469 -0.019114494
0000c0 2b 59 da bd 04 16 be bd e8 e4 4f 3c 94 73 6b 3c
       -0.10661539 -0.09281543 0.012688853 0.014370818
0000d0 74 09 58 bd 6f 39 f5 bd 50 34 cc bb 21 9e 9d 3b
       -0.05274339 -0.11973845 -0.006231822 0.00481011
0000e0 3f ea b2 3d 70 73 27 3c cb 15 bc bd 02 af 56 bd
       0.08736085 0.010220394 -0.09183844 -0.052412994
0000f0 c7 de c0 3c da 9f ab bc 39 87 f8 bd 9f d8 c0 bb
       0.023543729 -0.020950247 -0.12135167 -0.0058851982
000100 00 04 8b bd ee 61 a4 bd 07 8c 9b bc 00 81 82 bb
       -0.06787872 -0.08026491 -0.018987669 -0.003982663
000110 78 c6 3a 3d 5b b1 03 be df cf c4 bd 61 9d 01 3d
       0.04559943 -0.12860624 -0.09609961 0.03164423
000120 57 53 b3 bd 3c a5 25 3a 7d 75 ad bd 54 95 23 3d
       -0.0875613 0.00063188723 -0.08469675 0.039937332
000130 1f b8 8a bc 87 50 ff bd 4b 70 9a 3d 65 6c 74 3d
       -0.016933499 -0.12466531 0.075409494 0.059673686
000140 5d a9 9c 3c 9e 74 3e bd e3 a3 5f bc bf db 6d 3d
       0.019123727 -0.046497934 -0.0136499135 0.058070894
000150 67 93 61 3d 3e 44 49 bd b5 cd 82 3d 48 4c 7e bd
       0.055072214 -0.049137346 0.06386892 -0.062084466
000160 b5 70 b9 bd 8b 9d ca bb 51 82 9d bc ba f4 71 3d
       -0.090547 -0.0061833314 -0.019227179 0.05907128
000170 3f 9d 27 bd b6 05 2d 3d 66 35 02 be 09 fb c5 bc
       -0.040921446 0.042241774 -0.12715682 -0.024167554
000180 ec 08 53 3d b0 84 71 bd 7e 2f c4 3b 7b 45 60 bd
       0.05152218 -0.05896443 0.005987107 -0.05475376
000190 54 a5 00 bb 38 1f 88 3d 24 32 02 bd 58 c3 95 ba
       -0.0019629793 0.066465795 -0.0317861 -0.0011426015
0001a0 bf d1 16 be 1a d0 3a 3c 65 3b a6 3c f6 42 ef 3c
       -0.1472845 0.011402154 0.020291993 0.029206734
0001b0 0c 45 57 bd af b8 04 be 93 d6 2d bd a2 cc 58 bd
       -0.052556083 -0.12961076 -0.042440962 -0.052929528
0001c0 db da a7 bd 5c 88 d4 bd 21 20 a0 bc 9d d6 23 bd
       -0.0819604 -0.10377571 -0.01954657 -0.039999593
0001d0 09 ec 95 3d 37 8c 05 bd 17 fd d4 bd b1 9a 22 bd
       0.07320411 -0.032604422 -0.103998356 -0.039698306
0001e0 50 8c 1c bd 3f 3d cd 3c f6 1b 32 bd c9 6e 78 bd
       -0.03821975 0.025053618 -0.043483697 -0.060652528
0001f0 bd f3 7b bd ee 09 d2 bb 1c 53 19 bc 09 e7 e5 bc
       -0.061511744 -0.006409875 -0.009358194 -0.028064268
000200 a5 7c 93 3d f0 c2 ae be ef 12 f5 bf ae a6 42 bf
       0.072015084 -0.341331 -1.9146403 -0.76035583
000210 5f 8e 84 3e b6 f3 54 3f 23 26 0d 3d 62 ae 94 bf
       0.2588987 0.83184373 0.034460198 -1.1615717
000220 49 18 94 bf f9 f5 09 3f ca 61 35 bd 88 03 cc bd
       -1.1569911 0.5389095 -0.044282712 -0.09961611
000230 89 37 d0 3e 1b e5 56 bf a0 78 cd 3f 9f 64 4d 3d
       0.4066737 -0.8394334 1.6052437 0.050144788
000240 77 39 31 40 54 ec af 3f 53 34 6f bf 2e 3e 81 bf
       2.7691324 1.3743997 -0.93439215 -1.0097101
000250 32 7e 74 bf c3 d3 a5 3d bb 54 85 bf 11 f1 0d bf
       -0.9550506 0.08097031 -1.0416483 -0.55445963
000260 5e 18 0e bf 29 4d 02 bf 29 1a d1 bf 85 d2 1e 3d
       -0.5550593 -0.5089899 -1.6336108 0.038774986
000270 08 fc c9 3d 68 c6 92 3f 8f 26 5b 3f 23 e8 31 c0
       0.09862524 1.1466799 0.8560571 -2.7797935
000280 22 2d d4 be d7 bc f4 3d 16 d9 18 c0 d5 54 03 3f
       -0.41440684 0.11950081 -2.3882499 0.5130132
000290 3c ae 76 bf 38 ef 68 bf 9a 25 18 3d 4c 88 49 3f
       -0.9635961 -0.9099002 0.037145235 0.787236
0002a0 85 5e e7 be d6 2c 3d bd 22 3e 5a 3e 35 c9 0f c0
       -0.451893 -0.046185337 0.21312764 -2.2466557
0002b0 25 7f d4 3e 34 25 35 bf 39 8b 85 bf 46 69 91 bd
       0.41503254 -0.7075989 -1.0433112 -0.071001574
0002c0 79 85 33 bd 33 9a 2e 3f dd 96 b0 3d 78 41 44 be
       -0.04382846 0.6820404 0.08622525 -0.191656
0002d0 bb 35 d0 bd c2 a0 2c 3e 74 ee a4 bf 53 e0 1f 3f
       -0.10166498 0.16858199 -1.288527 0.62451667
0002e0 46 e2 2f bd 8e eb f2 bd 76 94 0d bf 7e 3b 2e be
       -0.0429404 -0.11861335 -0.5530466 -0.17014882
0002f0 4d 98 01 be c3 a6 49 3c 12 ed 2b 3f 41 6c d5 bd
       -0.12655754 0.0123078255 0.67158616 -0.104210384
000300 5c e8 e6 bc 16 54 18 bf 5d 15 bc 3f f6 c0 f9 bf
       -0.02818697 -0.59503305 1.469402 -1.9512012
000310 81 80 08 3e d8 6f ab 3f 20 4c 85 bf 9e 41 8c be
       0.1333027 1.3393507 -1.0413857 -0.27393812
000320 25 d1 7e be d9 60 f5 3e 40 6a 2d 3f bf 1d 17 3f
       -0.2488447 0.4792545 0.6774025 0.59029764
000330 38 08 67 3f 93 8b d0 3e 43 e6 94 3d bd 9e 5e c0
       0.90246916 0.40731487 0.072704814 -3.4784386
000340 78 db a9 bf 14 22 14 3f 3e 40 06 3f e6 0a d0 bf
       -1.3270102 0.578645 0.52441776 -1.6253326
000350 e1 66 c5 3e cf 61 6b 3f 45 1c 02 3f c1 51 d2 be
       0.38555053 0.9194612 0.50824386 -0.41077998
000360 19 8d 55 be ed bc 44 3e 8e 16 c0 bf bb d9 ed 3c
       -0.20854606 0.19212694 -1.5006883 0.029034486
000370 26 4d 0c 3e 0f 91 49 bc 0a 8a 1b bf 08 5f db bb
       0.13701305 -0.012302651 -0.60757506 -0.006694678
000380 1d f8 cc bf 8f 67 cc 3f 34 91 c8 3e d8 cb e3 3c
       -1.6013218 1.5969104 0.3917328 0.027807161
000390 31 bb a7 be 49 3b 7b bf e9 39 62 3e 38 a6 87 bf
       -0.32760003 -0.98137337 0.22092403 -1.0597601
0003a0 ac 2f 55 3f 5e 07 ab 3e 7c 82 d5 3e 2c b9 43 3f
       0.83275867 0.33404058 0.41701114 0.76454425
0003b0 33 8a cb bd 1a 66 a0 be 15 c5 72 bf dc cb 5c 3f
       -0.09938469 -0.31327897 -0.94831973 0.86248565
0003c0 ad 45 bf 3d 9b 01 dd 3e ec 8b 0d bf af 81 3f 3f
       0.093394615 0.43165287 -0.5529163 0.74807256
0003d0 d6 ee 85 3d 2a e8 5a 3d 7a 4d 2b be c2 d8 9f 3d
       0.06539695 0.053444065 -0.16728774 0.07805015
0003e0 15 f7 bb 3e d4 12 17 bf 99 3a d8 bd 16 e2 60 3f
       0.36711946 -0.59013104 -0.105580516 0.8784498
0003f0 85 5f 85 be 82 b5 e9 bf 8a 45 35 be 11 df cd be
       -0.26049438 -1.8258517 -0.17702308 -0.4020925

fc2.bias f4 [256]
000000 44 63 b8 bd c6 21 9f 3e 58 84 3e 3e 70 f5 40 3f
       -0.090033084 0.31080455 0.18605173 0.7537451
000010 16 58 47 bd dc 05 4e bd 6b 0e 38 3e ae 4d ae be
       -0.04866799 -0.050298557 0.1797425 -0.3404364
000020 49 25 92 be 2c 71 02 3f e6 64 6d 3c d9 89 b5 3e
       -0.2854407 0.50953937 0.014489388 0.35456732
000030 c1 98 1c bd 01 f1 18 3e 02 a1 0a 3f 00 04 ba bd
       -0.038231615 0.14935686 0.5415193 -0.09082794
000040 c3 d2 cc bd a3 80 68 3f d6 0a dc 3b 2c a2 b8 3e
       -0.10001137 0.90821284 0.006715159 0.36061227
000050 8f e5 99 3e 80 1c 85 bc d2 f1 be bd 94 a9 91 3e
       0.30057952 -0.016248941 -0.09323467 0.2844969
000060 c1 b2 86 be c2 3a d5 bd 64 1a 72 3e 55 3c c1 3d
       -0.26308253 -0.10411598 0.2364288 0.094353355
000070 c2 e1 00 be b3 7d da 3e 7e f0 7f 3e b9 80 a6 bd
       -0.1258612 0.42674026 0.24994084 -0.08130021
000080 b5 cb 57 3e 22 de 2f bd c5 95 2d 3e 13 41 65 bc
       0.21073802 -0.04293645 0.16951664 -0.013992566
000090 07 4b 0c 3f 11 34 ab 3e e4 2f ac bc fb 07 15 bd
       0.5480198 0.3343816 -0.02101893 -0.036384564
0000a0 e3 4f 27 3c ae af f8 bd dc cd f6 be 86 0e bc 3e
       0.010211918 -0.12142883 -0.48203933 0.3672983
0000b0 d9 68 31 bd 91 d3 bb bc b4 b8 41 be 38 84 97 bd
       -0.04331288 -0.022928031 -0.18918115 -0.073982656
0000c0 f8 33 1e 3f f1 0a 00 be d8 7d 73 3c 11 ce 12 3d
       0.6179805 -0.12504174 0.014861546 0.03584105
0000d0 33 ce f3 bc 11 34 8b 3e 01 23 f9 3e e9 50 02 bf
       -0.02976141 0.2718816 0.48659518 -0.5090471
0000e0 45 ea 48 bd f7 22 ef bd da 82 f2 bd c2 42 bd 3e
       -0.04905154 -0.11676591 -0.11841364 0.36964995
0000f0 f2 bc 07 3d 1e 43 ae bc e3 ea 12 3f 5a 44 e6 be
       0.033139177 -0.021272238 0.5738966 -0.44974023
000100 59 b8 20 3e bb 02 d0 be ea 95 76 be 7a c0 0b bd
       0.15695323 -0.40627083 -0.24080625 -0.034119107
000110 0e 52 9a bd c9 37 c9 be ad 2e 38 3e ab 5b b4 3d
       -0.07535182 -0.39300373 0.17986555 0.08806547
000120 3e 51 3d 3f 7b b5 0d bc 09 9b 4e bd 91 15 77 bf
       0.7395209 -0.008649225 -0.05044082 -0.9651728
000130 99 a3 ae bd f9 5f 6e bd 6e fe df 3d 2a 8d eb be
       -0.085272975 -0.058196995 0.109372005 -0.46006137
000140 21 d4 06 3f 55 9d 77 3e 07 f3 53 bd b6 9a a4 bd
       0.52667433 0.24181111 -0.05174544 -0.08037321
000150 b4 a2 57 3e e0 4b 10 3d e5 17 28 3e 9d a8 b7 bd
       0.2105816 0.03522861 0.16415365 -0.08967707
000160 46 31 74 bd 2e b2 f3 bd c6 fd 49 bd 7b 88 70 bd
       -0.059617303 -0.118992195 -0.049314283 -0.058723908
000170 10 58 11 3f 4b 27 8b 3a c6 0c 45 3f bd 81 ba bb
       0.56775 0.0010616569 0.76972616 -0.0056917355
000180 be c7 87 bc eb ea 6c bd 9f a5 89 be 44 57 87 bd
       -0.016574737 -0.057841223 -0.2688417 -0.066084415
000190 34 1e 30 bd a4 41 e9 39 30 91 7c 3e 06 72 7a 3e
       -0.042997554 0.0004449013 0.2466476 0.24457559
0001a0 66 be bb bd 82 61 0a b9 10 28 a3 bc 30 09 a5 bd
       -0.09167175 -0.0001319703 -0.019916564 -0.08058393
0001b0 da b6 49 3e 29 2f fa 3d e6 68 ce bc 6c 33 7b 3e
       0.19698659 0.12216026 -0.025196504 0.24531335
0001c0 64 b3 25 3f 62 cf b8 bc 55 0f b2 be aa 8e 32 bc
       0.64726853 -0.022559825 -0.34777322 -0.010898272
0001d0 e0 84 df 3e 4e 76 90 bd 81 ed 23 3d e6 f7 17 3f
       0.43656063 -0.07053815 0.040021423 0.5936264
0001e0 0a 7b b0 bd a4 77 6e bd b1 3b 2a 3f ba 0e c3 bc
       -0.08617218 -0.058219567 0.6649733 -0.023810733
0001f0 0f 92 8c be e8 ea 4d 3e 5d 79 27 bd f4 46 a7 be
       -0.27455184 0.20109141 -0.040887225 -0.3267132
000200 d5 9f c9 3e 5f 5e fb 3e e7 90 79 bd 84 cc c2 bd
       0.39379755 0.49095437 -0.060929205 -0.095116645
000210 a9 96 c1 bd 5a 3c 43 bf da c7 50 3e a2 99 2c 3f
       -0.09452564 -0.76263964 0.20388737 0.67421925
000220 4a aa af bd d8 0c db bd 34 ca 9c 3e f5 08 33 3e
       -0.08577402 -0.10695809 0.3062302 0.17483886
000230 d1 e2 8e 3d 1e f4 34 3f 44 56 1a 3e 07 4c bf bd
       0.069768555 0.70684993 0.1507197 -0.09340673
000240 c6 3e dd bd 3e 32 a4 bd bd c5 f3 bd a0 b0 26 3e
       -0.10802989 -0.080173954 -0.1190295 0.16278315
000250 8c c5 fe 3e f3 c6 96 3e b3 54 b9 bd ba 21 bc 3e
       0.4976009 0.2944866 -0.09049358 0.3674448
000260 a4 56 cc bc c4 74 9a 3e 35 9b ad bd bc a7 53 3c
       -0.024943657 0.3016721 -0.08476869 0.012918409
000270 04 4c 7c 3d a2 f5 bb be 77 ca 89 3e a0 0b 49 be
       0.06159593 -0.3671084 0.2691228 -0.19633341
000280 77 04 b5 3e 51 6b 35 be b7 8f 96 be 4a 7b c0 3e
       0.3535497 -0.17716719 -0.2940652 0.37594062
000290 29 78 84 3e 04 2b c0 be 9b 00 e0 3e f4 54 a0 3c
       0.25872925 -0.37532818 0.43750462 0.019571759
0002a0 77 57 82 3f b6 f1 80 bd 81 f0 08 3e 82 c2 63 bd
       1.0182942 -0.06296103 0.13372995 -0.05560542
0002b0 55 4c b0 bd 75 58 0e bf fd ad 6b bd e1 4f ca bd
       -0.08608309 -0.55603725 -0.057538975 -0.09878517
0002c0 29 29 8a 3e a1 70 19 ba f2 b9 c4 bd 78 27 8e 3e
       0.26984528 -0.000585327 -0.09605779 0.27764487
0002d0 29 85 95 bd 56 9e 20 3f 16 c0 97 3e eb 59 88 3e
       -0.07300789 0.627416 0.29638737 0.26631102
0002e0 ab 80 25 bf 73 a7 45 3f 27 1b 17 3f a5 7f 9e bd
       -0.64649457 0.7720863 0.59025806 -0.0773919
0002f0 87 b2 1e bd e9 cf b7 bd 1d de 39 3e ac 54 9d 3e
       -0.038744476 -0.089752026 0.18151136 0.30728662
000300 e3 12 d7 bd 1d 24 98 be f0 53 5a bc f9 2f fe bd
       -0.10501649 -0.29715052 -0.013325676 -0.12411494
000310 4c 77 58 3f 7c 08 89 bd 36 0e ce be fa 39 03 3f
       0.8455703 -0.066910714 -0.40245217 0.5126034
000320 bc 63 93 3d ae 9e 27 bd e4 a9 6e bd ba 65 42 3f
       0.07196757 -0.040922813 -0.05826749 0.7593647
000330 bd 37 ae bd 9e ff 91 bd 23 06 d4 be c5 2f 8b bd
       -0.08506725 -0.07128833 -0.41410932 -0.06796221
000340 da 18 b8 3d 61 9c 24 3e 17 70 b1 bd c5 5a 90 3e
       0.08989115 0.16075279 -0.086639576 0.28194252
000350 5b fa d1 bd 37 85 c1 bd e1 c6 80 bd a5 2b 08 bd
       -0.1025283 -0.09449237 -0.06287933 -0.033244748
000360 e0 e6 0d bd 3b 7a bf bc 77 36 1e 3f c6 fb 9f 3e
       -0.034644008 -0.023373714 0.61801857 0.31246775
000370 19 ab 3f 3e 9e e2 b3 3e 96 f2 7a bd b3 02 ce be
       0.18717612 0.35133833 -0.061266504 -0.40236434
000380 08 f9 fd 3e 5c e5 8d bd 34 67 f4 3d 51 50 e3 3e
       0.49604058 -0.069285125 0.11933747 0.44397214
000390 7e 75 82 bd d4 79 c5 bd 50 da d5 be 2f 4c df 3e
       -0.06370066 -0.096423775 -0.41768122 0.4361281
0003a0 d6 68 93 be d4 f0 15 be 83 e9 9b 3d 7b 54 56 be
       -0.2879092 -0.1464265 0.07612898 -0.20930664
0003b0 e3 a3 76 3f a0 54 24 bf 29 29 1b bf 78 64 01 bc
       0.9634382 -0.6419163 -0.6060968 -0.007897489
0003c0 b6 93 9e be 1b e5 57 be 39 86 e8 bb 4b 6c ca bd
       -0.3097207 -0.2108349 -0.0070960787 -0.098839365
0003d0 31 b0 3b 3f 2d 26 9c bc 97 86 0c 3f 1f 27 46 3f
       0.7331572 -0.019061172 0.5489287 0.77403444
0003e0 a2 c2 5f bc 1f 45 a4 3e 5e 9c 8e 3e 29 25 8c 3b
       -0.013657244 0.32083985 0.27853674 0.004276891
0003f0 84 38 f6 3e 91 e7 58 3f 9c 12 8b 3e a7 75 d8 bd
       0.48089993 0.8472834 0.27162635 -0.105693154

fc3.weight f4 [128, 256]
000000 a2 ef 6e bd 3a d8 4f 3b 5b 78 33 bd fb 0a a1 bd
       -0.058334 0.0031714574 -0.04381595 -0.078634225
000010 6c 4b 81 3c a0 67 00 3c da d1 2f 3c 03 98 d3 bc
       0.015783034 0.007837206 0.010731185 -0.02582932
000020 66 f3 8b bd 6c f5 fb 3c 4e 6c 57 3d 73 35 aa bd
       -0.06833534 0.030756675 0.05259352 -0.08310976
000030 6c a9 0e 3d c2 56 05 3c e1 21 7c bc cc 32 87 bc
       0.034829542 0.00813836 -0.015388937 -0.016503714
000040 14 28 5a 3d b3 58 a2 bd 02 89 15 bd e5 1a 79 bd
       0.053260878 -0.07927074 -0.036507614 -0.060816664
000050 8f 5a ed ba b0 16 f7 3c 78 c6 86 3c 49 e8 a3 bc
       -0.0018108654 0.030162185 0.01645206 -0.020008223
000060 75 fa 81 bc 32 25 45 bd ed 37 d4 3c 51 cf 37 bd
       -0.015866498 -0.048131175 0.025905574 -0.044875447
000070 b8 5d 77 bd 5a 1a b7 bc 55 cd fd bb 58 3a cf bc
       -0.06039211 -0.022351433 -0.0077454248 -0.025296375
000080 d3 77 16 bd 80 6a 53 bd 47 c0 be bd b6 27 51 3d
       -0.036735367 -0.05161524 -0.09314018 0.051063262
000090 24 5e 55 bd 98 ef 53 bd 6c 23 ec bc 78 37 a9 bd
       -0.052091733 -0.051742166 -0.028825484 -0.08262533
0000a0 b8 ab c1 bc 84 53 10 3d 18 82 55 bd 89 62 7e bd
       -0.023641452 0.035235897 -0.05212602 -0.06210569
0000b0 1a fc 72 3d 94 e6 c4 3c 4e db c9 3c 72 f4 1d 3d
       0.059322454 0.02403573 0.024640705 0.0385632
0000c0 9a db 32 bb 90 4f c2 bc 40 0e 5f 3b df bc 81 bd
       -0.0027291537 -0.023719579 0.0034035593 -0.063348524
0000d0 2e e6 5f 3d 84 64 99 bd 87 1a 2e bd a2 c3 00 3d
       0.054662876 -0.07489875 -0.042505767 0.03143657
0000e0 f4 ec f8 bc 66 ba 52 bd e2 74 24 bd f3 e8 d4 bc
       -0.030386426 -0.051447295 -0.04015053 -0.025989985
0000f0 30 7a a3 bb 64 1e ce bc fa b4 1e bd 47 e8 3d bd
       -0.004988931 -0.025160976 -0.03874681 -0.046364095
000100 c2 e3 fd b9 0e da 31 3d 9c 5f be 3b 48 bf 25 bd
       -0.00048425613 0.043420844 0.0058097374 -0.040465623
000110 5c 6b 97 bc 33 fb 23 bd 20 1a a0 bd 77 73 c5 bd
       -0.01848381 -0.040034484 -0.07817483 -0.09641164
000120 ff 2f 86 bd 18 99 a6 bc 34 13 8d bd a6 17 cc bc
       -0.06552123 -0.020336673 -0.06888428 -0.02491362
000130 6e 41 77 bd 24 a2 29 bd 99 ee f1 bc 51 0f 1e 3c
       -0.060365133 -0.041414395 -0.029532718 0.009647206
000140 92 f3 d1 bc f6 65 b5 bc ac 49 f5 3c 58 c8 a6 bc
       -0.025628839 -0.022143345 0.029942356 -0.020359203
000150 b0 d0 7e bd a4 a8 be bd 0a c5 d2 bc 40 df 98 3a
       -0.06221074 -0.093095094 -0.025728721 0.0011663213
000160 cc 27 d9 3c 48 2b 6a bc 18 cc 2c bd 8c 49 a3 3c
       0.026508234 -0.014292546 -0.042186826 0.01993253
000170 6f 24 0d bb ee a6 3e bd 8c 89 31 3c 7f a3 4d bc
       -0.0021536609 -0.046545915 0.010836016 -0.012551188
000180 6c 17 a2 3c 5c 0d 62 bd 15 97 78 bd f0 50 88 3c
       0.019786559 -0.05518852 -0.060690958 0.016640157
000190 40 bb 87 bb 0a 5b 6c 3d 62 79 ad bd 2a 92 05 bd
       -0.004142195 0.05770401 -0.084704176 -0.032610096
0001a0 5c 1b 85 bc 0c 4c 03 3d f4 7f e1 bc 80 9a d0 3c
       -0.016248398 0.032054946 -0.027526833 0.025464296
0001b0 c3 b1 92 3c a2 39 22 bd c0 2e 36 bc d9 54 b2 bc
       0.017907029 -0.039605744 -0.0111195445 -0.021768974
0001c0 96 ff c6 bd 5e e4 73 bd c5 f0 7e bd 8c 0d 9d bc
       -0.09716718 -0.05954396 -0.062241334 -0.019171499
0001d0 b4 74 2b bb 1a dc 4b bd 73 d7 3b bb f7 40 34 bd
       -0.002616209 -0.049770452 -0.0028662353 -0.044007268
0001e0 77 d7 11 3d 1e 94 12 bd 3e 81 c3 bd 10 16 8e bc
       0.035605874 -0.035785787 -0.09546135 -0.017344505
0001f0 0a 1e 72 bd d1 72 95 bc f2 93 4a bd 1d 38 86 bd
       -0.05911068 -0.018243225 -0.049457498 -0.065536715
000200 46 83 6f bc fd ec 01 bd b8 28 1a 3d 54 7d fd bc
       -0.0146187 -0.03172015 0.03763649 -0.03094355
000210 2b ba e3 bb 02 a2 65 bd b2 18 76 bd 3d 8d 67 bd
       -0.006949683 -0.056062706 -0.060082145 -0.05653118
000220 d0 d8 88 bc 78 1b 63 3d f5 e1 1f 3d cd c1 98 bd
       -0.016704947 0.055446118 0.03903385 -0.074588396
000230 35 d7 c3 bc 41 c8 55 bd 7f 0c be bd 30 75 62 bd
       -0.02390633 -0.05219293 -0.09279727 -0.05528754
000240 30 0a ea bc 20 d6 d3 3b 84 5e 6c 3d 08 3f 2b 3d
       -0.02856931 0.0064647347 0.057707325 0.04180816
000250 06 38 8a bd 6b a0 00 bd e0 b6 36 bd 9b 63 82 bc
       -0.06748967 -0.031402986 -0.044607997 -0.015916636
000260 7a a4 07 bd 8c e6 75 bd b8 65 ff 3c 10 c8 c2 3b
       -0.03311584 -0.06003432 0.031176433 0.0059442595
000270 38 95 63 bc 4c ff 88 bc 3f 88 8d bd 58 7e 37 3a
       -0.013890557 -0.016723298 -0.069107525 0.00069997227
000280 42 d8 ae bd d3 fa 4f 3c 0a 9f 3e bd 9c 06 2f 3d
       -0.08537342 0.0126940785 -0.04653839 0.042730913
000290 b8 e7 ac bc 53 82 a2 bb 1d ad f3 bc 40 40 db bc
       -0.021106586 -0.0049593835 -0.029745633 -0.026764035
0002a0 a9 dc ce bc 0c 82 7f bd 9d 52 2d 3b 9a 09 6b bd
       -0.025251703 -0.06237988 0.0026446946 -0.057382204
0002b0 70 4c c0 bc a3 b8 53 bd 70 76 94 3c 10 39 04 bc
       -0.023473948 -0.051689755 0.018122882 -0.008070245
0002c0 8b e6 73 3d c8 88 b5 bc 04 fd d0 bc fa 6b ba bd
       0.059546035 -0.022159949 -0.025511272 -0.09102626
0002d0 ce 38 25 3d 23 99 a8 bd c7 e2 1d bc d5 5f cf bb
       0.040337376 -0.082323335 -0.009636587 -0.0063285627
0002e0 8e 6b ba b9 87 6d ff bc 09 fb c6 bc 14 79 1d bd
       -0.0003555682 -0.031180156 -0.024289625 -0.038445547
0002f0 00 a8 c4 38 47 3b 6e bd 32 d4 dc bd 53 18 9c bd
       9.377301e-05 -0.058162 -0.107826605 -0.07621827
000300 4c 1f 07 3d 82 76 8e bd 00 c0 4a 3b 7c 98 9b bd
       0.03298883 -0.06956197 0.0030937195 -0.075974435
000310 10 2e a0 3c a8 34 22 bc 4a e0 69 bd 80 68 22 3d
       0.019553214 -0.00990025 -0.057098664 0.03965044
000320 81 0b 9f bd be 8f 36 3d d0 dd 83 3c ff ba bf bc
       -0.07765866 0.044570677 0.01609698 -0.023404596
000330 ba fe 78 bd 1c 1b 16 3d e9 00 18 39 68 58 78 bd
       -0.0607898 0.036646947 0.00014496189 -0.060631186
000340 d4 39 20 3d c2 d4 a7 b9 6c 4c a8 3c 8e 81 b3 bd
       0.03911765 -0.0003201124 0.020544253 -0.08764945
000350 a8 cd e4 3c e0 c3 a8 3c 7a b1 59 3d 80 22 d4 ba
       0.027930096 0.020601213 0.05314777 -0.0016184598
000360 cc 5f 6e 3d 02 57 65 3d c3 1c b2 bd b6 41 90 3b
       0.058196828 0.05599118 -0.08696892 0.0044023646
000370 d5 fa 71 bd bf 22 32 bd 00 56 6e ba 66 f2 a6 3c
       -0.059077103 -0.043490168 -0.00090917945 0.020379256
000380 31 4d c8 bd 58 d5 19 3d ed 3c 85 bd e8 1b b7 3c
       -0.09780348 0.037556976 -0.06505761 0.022352174
000390 94 a9 ff bc 8c cf 08 3d 4e a8 c6 3c d2 5c fa 3c
       -0.03120879 0.033401057 0.024250176 0.030561838
0003a0 63 3c 0b 3c 0b 3f 08 bd 33 19 78 bd 67 a4 0e bc
       0.008498284 -0.033263247 -0.060570907 -0.008706189
0003b0 e1 03 ae 3b f4 c0 94 bd c2 b6 2b bd 00 f8 60 3c
       0.005310521 -0.072633654 -0.04192234 0.013731003
0003c0 62 e2 3a 3c 55 d3 69 bd 18 40 63 3d a0 7c 0f 3b
       0.011406513 -0.057086308 0.055481046 0.002189435
0003d0 b9 fa 1a 3c 28 07 7e 3c 5d d0 77 bd ac e5 eb ba
       0.009459191 0.015504636 -0.060501445 -0.0017997525
0003e0 00 fc 89 3a 9e 8d 04 bd 07 bc 8b bd 06 f1 a6 3b
       0.0010527372 -0.03236162 -0.06822973 0.00509465
0003f0 e0 44 07 bb c9 17 35 bd 33 1d 22 bd 9e 38 5d bd
       -0.0020640418 -0.044212136 -0.039578628 -0.054009072

fc3.bias f4 [128]
000000 43 0b 5f bd 85 20 19 3f f8 5e 17 3f a1 34 91 bd
       -0.0544541 0.59815246 0.59129286 -0.07090116
000010 5e 2e 75 3f 55 6a 8b bd 32 19 8d bd 3e f7 3a bd
       0.95773876 -0.068073906 -0.06889571 -0.045645945
000020 44 76 c9 3e 68 6f 9e bd 75 2c 21 bd e2 4d 2b be
       0.39348042 -0.07736093 -0.03934904 -0.16728929
000030 1c 1b 29 bd 10 5c aa bd 65 41 ce bd ef 52 6e 3b
       -0.04128562 -0.08318341 -0.10071067 0.003636535
000040 a5 b5 b2 bb 76 2c 2d 3f bb a2 72 3f 12 80 c9 bc
       -0.0054537826 0.67645967 0.94779557 -0.024597201
000050 15 3f dc bc 98 98 87 be e6 a2 82 bd 76 c5 20 3f
       -0.026885549 -0.26483607 -0.06378727 0.628013
000060 77 18 c7 bd 90 b7 7e 3f 43 29 22 3f 82 e6 83 3f
       -0.09721463 0.99498844 0.6334421 1.030472
000070 8b 7e 46 be 2c 8c bb 3e 77 16 2c 3c 5f 57 75 bf
       -0.1938421 0.3663038 0.010503403 -0.9583644
000080 67 44 6a 3f 81 79 23 3f bb 70 56 3f 07 d1 b3 bd
       0.91510624 0.63857275 0.83765763 -0.08780103
000090 09 94 37 3f 1f cb c5 bd 0d 47 bf bd 11 2e 8b bd
       0.7171026 -0.09657883 -0.09339724 -0.06795896
0000a0 54 96 46 bd f6 11 7a bd 70 a4 4d bd f7 bd 71 3e
       -0.048483208 -0.061052285 -0.050205648 0.23607622
0000b0 47 19 69 bd 29 d9 81 bd ac d2 8f bd 0d 9b c1 bb
       -0.056908872 -0.06340248 -0.07022604 -0.005908376
0000c0 59 8d 2a 3f 5e d4 27 3e e4 7b 46 bc 42 15 3a 3e
       0.6662193 0.16389605 -0.012114499 0.18172172
0000d0 a2 07 56 3f db bc 11 bd 44 7e ca bc 92 0c 06 bd
       0.83605397 -0.035580497 -0.024718411 -0.03272683
0000e0 63 91 8e bd af 77 da 3d 79 e6 2d 3f 90 64 34 3f
       -0.06961324 0.10667359 0.679298 0.70465946
0000f0 ba ec 32 be 46 bb c2 bd 95 f6 b7 3a 21 40 8f 3f
       -0.17473117 -0.09508376 0.0014035279 1.1191446
000100 af c2 a2 bd 7e f1 16 3f 24 15 93 3d 30 d6 6d 3f
       -0.07947289 0.5896224 0.07181767 0.9290495
000110 30 98 e5 bd 00 e0 a8 bd 4a 23 87 bc 5a 9f 78 bd
       -0.11210668 -0.082458496 -0.01649632 -0.060698844
000120 cc e3 86 bd e3 99 99 bd 3f 77 79 b9 03 3d 16 bd
       -0.065864176 -0.07500055 -0.00023790913 -0.03667928
000130 b1 45 f7 bc 18 50 06 bd 60 1b 75 3f c3 6f 88 3f
       -0.030184599 -0.032791227 0.95744896 1.0659107
000140 ea c6 00 3e b9 4f 2c bb c6 b1 7f 3f f3 ca ee 3a
       0.1257588 -0.0026292636 0.99880636 0.0018218443
000150 82 ad 11 3f cc ba ac be 81 77 4a bd e1 fc f8 3a
       0.56905377 -0.33736265 -0.049430374 0.0018996262
000160 81 ff 30 3f 0f 10 31 bc ce 06 9f bd 0a a6 f8 bc
       0.6913987 -0.010807051 -0.0776497 -0.030352611
000170 77 50 30 3f 65 0e 45 3e af dc ee bc 88 33 85 3f
       0.6887278 0.19243772 -0.029157965 1.0406351
000180 72 bd 88 bd 2b b0 9f be 5b f6 2e 3f d0 50 6f bc
       -0.06676759 -0.31189093 0.6834466 -0.01460667
000190 76 fc 33 be 19 a6 11 3f 47 73 ab bb 04 59 6c bd
       -0.17576775 0.5689407 -0.005232248 -0.05770208
0001a0 3f a3 61 bd 3e de bd bd ba 11 79 3f ca b2 20 3f
       -0.055087324 -0.09270905 0.97292674 0.6277281
0001b0 3a 24 a8 bd 41 57 77 bd dc 70 8b 3f 05 2d b4 bd
       -0.08210035 -0.060385946 1.0893817 -0.08797649
0001c0 98 a7 30 3e 3b 49 a1 bd b1 8a 1c 3e fc 08 95 bd
       0.17251432 -0.07875296 0.15287282 -0.07277104
0001d0 75 30 05 be 4d de bf be 7d 89 f6 bb e8 9e 37 3e
       -0.13006766 -0.3747429 -0.007523714 0.17931712
0001e0 b4 eb 81 bd 53 e3 82 bd 4e 54 29 3f e6 7a 9e bd
       -0.06343785 -0.06391015 0.66144264 -0.07738285
0001f0 ab 88 8c 3f 59 3c 3d bd ca 33 7e 3f 30 95 b0 be
       1.0979208 -0.04620013 0.99297774 -0.3448882

fc4.weight f4 [5, 128]
000000 bc 2c 93 3d 5e 4f 1b 3e 41 5c 70 3e de 1f 1b bd
       0.07186267 0.15166995 0.23472692 -0.037872188
000010 25 d3 60 3e f6 7f 2a 3d dd 52 b4 3c fd 40 ca bc
       0.21955545 0.04162594 0.022012169 -0.024689192
000020 55 91 5a bf 88 c8 1c 3c 07 02 ef 3b 36 00 11 3e
       -0.8537801 0.009569295 0.007293943 0.14160237
000030 0c d8 cb bc 39 d2 19 3d d9 29 94 3b 52 77 3b bc
       -0.024883293 0.037554 0.00452159 -0.011442022
000040 33 35 34 bc ea e4 27 3e 13 3b 43 be 90 ec 6c bd
       -0.010999012 0.16395918 -0.19065504 -0.05784279
000050 67 bd 24 bd 11 25 79 3f 14 9f 5f 3c 8a cc 15 3f
       -0.04021969 0.97322184 0.013648767 0.58515227
000060 e5 40 21 bd 5b 91 03 3e 29 6d f3 bb 81 3f 1b 3e
       -0.03936853 0.12848417 -0.0074287844 0.15160944
000070 7f 0a 01 40 d6 37 bb be 40 57 47 3d b4 bd 08 bf
       2.0162656 -0.36566037 0.048667192 -0.53414464
000080 80 23 a6 bf c0 6e 9a be 2a 4e 8b be ee 55 33 3c
       -1.2979584 -0.3016262 -0.27208072 0.01094578
000090 95 d8 a1 3e 36 79 ae 3d c4 32 af 3c 44 5d 0f 3d
       0.3161055 0.08519213 0.021386512 0.035001054
0000a0 37 76 4a bd 7b 83 a5 3d 9f 12 c0 3d 75 7f b0 3e
       -0.049429145 0.080817185 0.09378552 0.34472242
0000b0 3a 98 12 3d 82 e3 89 bd 77 c8 4c 3d 72 be 02 3e
       0.035789706 -0.06732847 0.049995866 0.12767962
0000c0 aa 3c 2f 3b 24 36 1c 3e f7 35 4d bd c7 2b 18 3e
       0.002673904 0.15255028 -0.050100293 0.1486045
0000d0 2b 7b d6 bf b8 a9 b2 3c a0 f1 bd bc 7c b8 30 3d
       -1.6756338 0.021809444 -0.023186505 0.043144688
0000e0 27 ad bb 3c 4b 09 4d 3e db ee 1d 3e 3c 49 cb bf
       0.022909714 0.20023076 0.15423147 -1.5881724
0000f0 b9 98 96 3e cf 7d 80 3c 32 aa 6e bc c2 e7 c3 3e
       0.29413393 0.01568499 -0.014566945 0.38262755
000100 e9 31 2a bd c7 83 96 3e 10 97 aa 3f cf f1 09 bf
       -0.041551504 0.29397413 1.3327351 -0.53884596
000110 ff 9b 08 3f 55 48 d1 bb 4c d1 83 3c f1 30 a7 bd
       0.5336303 -0.0063867965 0.016091011 -0.08163632
000120 9a b5 cb 3c e6 cc 72 bd 32 07 93 bd 95 07 a2 bd
       0.024866868 -0.059277438 -0.07179107 -0.079116024
000130 64 a0 ab 3e 6a 3b 9f bd b0 28 91 bf a5 95 a1 bf
       0.33520806 -0.07775004 -1.1340542 -1.2623793
000140 61 a5 13 bf 45 97 44 3d ab 87 41 3e 18 2d 53 3c
       -0.57674223 0.047995824 0.1889941 0.012889169
000150 30 53 db 3e ca 95 9f bd df 11 a6 bc ee db 9e bd
       0.42836905 -0.07792242 -0.020272193 -0.07756792
000160 1d 0f 8c bf 18 8d 69 bd 85 a3 7c 3c 13 ff 20 3d
       -1.0942112 -0.057019323 0.0154198455 0.039305758
000170 72 7b af be 70 b8 ae 3e bb 92 4b bb 72 2e fb 3e
       -0.3427387 0.3412509 -0.00310628 0.49058872
000180 c0 b9 e7 ba 02 bb fe bd 45 90 b9 be 2a 7b 33 bd
       -0.0017679259 -0.12438013 -0.3624288 -0.04381863
000190 41 a4 b8 bd 4c d6 ba 3e 53 74 19 3f 58 19 88 ba
       -0.09015704 0.3649162 0.5994312 -0.001038353
0001a0 a2 6f a3 3d 20 55 74 bb 55 34 00 3e f4 9f 9a 3c
       0.07980277 -0.0037282184 0.12519963 0.0188751
0001b0 0b be 89 3d 65 94 50 bd f5 d8 28 3e 44 6c b1 bc
       0.06725701 -0.05092277 0.16489013 -0.02165807
0001c0 5c 66 6b 3e 68 2a 98 bd d7 4c 66 bf da b7 c6 bb
       0.22988266 -0.07429963 -0.89961 -0.0060643973
0001d0 ab 39 f0 bd 4d 5e a9 be 79 ee 54 3d 19 f8 3d 3f
       -0.11729749 -0.33079758 0.051985238 0.7420669
0001e0 05 97 83 bd 07 67 50 bc ea dd c1 bd 98 d4 89 bd
       -0.06425289 -0.012719876 -0.09466155 -0.06730002
0001f0 e0 15 89 3e 8d d4 c8 3c 30 03 79 3e 1b a8 86 3c
       0.26774502 0.024515415 0.24317622 0.01643758
000200 df c3 0d bd ee 2d 58 3e eb 3e 07 3d 94 d8 de 3d
       -0.034610625 0.21111271 0.033018988 0.10881153
000210 c8 4b 12 3e 3a b3 3e bd ec 7a 28 3d 85 6b 92 3c
       0.14286721 -0.046557643 0.041132852 0.017873535
000220 19 5d 8c bf 0b 25 e1 b8 f0 3c 2d 3c 10 20 56 3e
       -1.0965911 -0.00010735736 0.010573611 0.20910668
000230 b4 a0 ee 3b df 10 42 bd fb 40 94 bd 25 f1 d5 3c
       0.007282341 -0.04737937 -0.072389565 0.026115963
000240 51 4d d8 bb bb 1a 29 3d 91 48 82 bf 6b d6 d3 3c
       -0.0066010137 0.041285258 -1.0178396 0.025859078
000250 91 f1 0e 3c b5 5c 8d bf 89 a6 9e 3c 96 29 61 3e
       0.008724586 -1.1043917 0.01936652 0.2198852
000260 b6 ae 72 bb c4 2d 48 3e 60 ca 31 3e 23 34 22 3e
       -0.0037030405 0.19548708 0.17362356 0.15840201
000270 72 a2 48 3e 23 2d 8e bf 38 73 39 bd 44 30 8b 3e
       0.19593218 -1.1107525 -0.045275897 0.2718526
000280 f3 cb 34 bf 79 a6 8e bf de 35 b1 bf da b2 95 bd
       -0.706237 -1.1144553 -1.3844564 -0.07309504
000290 2f f9 99 3e df b7 22 bd 88 c2 8e bd a6 bf b2 3c
       0.30072924 -0.039726134 -0.06970698 0.0218199
0002a0 e9 5f 94 bd 3a d3 b6 3c d9 87 3d 3b 6a 99 80 3f
       -0.07244856 0.022317518 0.0028920083 1.0046818
0002b0 70 12 c7 bc 91 03 e7 bc 85 9f 9a 3c 6f 74 31 3e
       -0.024300784 -0.028199943 0.018874893 0.17329572
0002c0 64 35 a4 3d 9a e7 5d 3e a8 dd 7c bd 56 c3 02 be
       0.08017996 0.2167038 -0.061734825 -0.12769827
0002d0 21 57 64 bf 35 d2 42 3c 88 5b a0 3c 07 a6 ad bc
       -0.8919545 0.011890938 0.019574896 -0.021197332
0002e0 5a b2 87 bd a0 8b 63 bf a1 12 bf 3e 7b f8 5a 3e
       -0.06625815 -0.88884926 0.373189 0.2138385
0002f0 cd f7 b2 3e ac 76 8c bc e0 42 36 bd 46 6d a6 3e
       0.34954682 -0.01714643 -0.04449737 0.32505244
000300 c0 7c ae ba c5 9d 15 3f 40 f6 aa 3d 16 2c a4 bf
       -0.0013312325 0.5844386 0.0834775 -1.2825954
000310 23 9e 80 3d 10 8a 18 bd a8 ae 08 3d bb 3c 13 bd
       0.06280162 -0.03724104 0.03336969 -0.03594659
000320 a4 cc dc 3d 95 67 35 3d b8 5e 2e 3c c3 13 63 3b
       0.107812196 0.044288237 0.0106427 0.003464923
000330 a4 ac 83 bf 8f f4 aa 3d 2e 32 90 bf 53 57 8c bf
       -1.0287061 0.08347427 -1.1265314 -1.0964149
000340 da 28 58 bf f8 3c b3 bc 3e 06 17 3e 98 8b f8 3b
       -0.84437335 -0.021879658 0.14748475 0.0075850002
000350 42 28 87 3c ae 2a 83 bd 4e 37 e8 3c 89 5b 66 3a
       0.016498689 -0.06404625 0.028346684 0.00087874435
000360 55 d9 3f bf f0 1b bc bc 1f 82 48 bd 7d c8 6c bd
       -0.74941 -0.02296254 -0.04895222 -0.057808388
000370 79 32 11 bf f4 ae 7b 3e e9 ad 9c 3d 69 66 00 3f
       -0.5671764 0.24578458 0.07650358 0.50156265
000380 59 ee 8b 3d 0e c0 c3 3d be 3a cd 3c 47 e9 9e bd
       0.068325706 0.09558116 0.025052425 -0.07759338
000390 c5 d1 ab bd 36 49 cb 3d f4 db 2a bf d1 9a 7e 3b
       -0.0838962 0.09926073 -0.6674187 0.0038849602
0003a0 be 73 88 3d e3 c8 9c 3c 80 98 c6 3d 7a 2e 2e 3b
       0.06662701 0.019138759 0.09697056 0.0026577995
0003b0 ee e5 22 3d 78 e1 83 3d 66 d3 6a 3e 05 d4 5c 3d
       0.03977006 0.06439489 0.22932205 0.053913135
0003c0 6c 39 14 3e 09 68 90 bc 8b 3e e9 bd b1 8a 21 3c
       0.1447503 -0.017627733 -0.11388882 0.009859727
0003d0 f7 15 0e be d9 dc 9b be 29 72 ba bd c5 60 71 3f
       -0.13875566 -0.3044193 -0.091038056 0.94288284
0003e0 91 d7 cf 3b 7a ba c4 3c d2 dc 31 3e 10 7b 5e bd
       0.006342836 0.0240147 0.17369393 -0.05431658
0003f0 57 66 74 3e 55 ad 3d bd 38 6d 61 3e f0 9a f0 3c
       0.23867165 -0.04630788 0.2201432 0.029370755

fc4.bias f4 [5]
000000 0f f7 17 be 6b 4d 6b 3f f8 ea b3 be 54 21 ab bb
       -0.14840339 0.91915005 -0.35140204 -0.005222479
000010 97 c2 5f 3f
       0.87406296
