car_model.pth (torch, 274520 bytes, 8 tensors)

fc1.weight f4 [128, 9]
0.11649295 0.32495078 0.013938932 -0.1549521 -0.33484977 -0.33270055 -0.02207938 -0.17360236
-0.053498976 0.9810048 -0.23671861 -0.4574596 -0.013339245 -0.11333057 -0.27925432 1.0508478
0.032055084 0.4304805 -1.0268998 -1.6273813 -2.5185604 -0.19980864 -0.20871446 0.45843405
0.4728305 0.33274505 0.52024645 -4.6292906 -0.11715089 0.822264 -0.1011595 0.34297988
-0.0033000133 -0.11409916 0.42351097 0.75984424 1.2010547 0.31075528 0.16870409 -0.1278088
0.57639056 -0.3194539 -2.5215702 -4.923636 -0.21532425 0.9459738 -0.7475171 -0.47854334
-0.1947806 0.6813794 0.43511143 -0.22680607 -0.24409153 0.37060043 -0.13900077 0.058347717
-0.20798312 -0.1024028 -0.07919641 0.25279135 -0.35372978 -0.34070453 -0.16729805 0.5139961
0.5539658 -0.44308883 -0.4951046 0.2909193 -0.4629818 0.035936713 -0.6519234 -0.46410796
-0.20985743 0.28308886 -0.22082223 -0.10706468 -0.28586414 0.33604157 0.81137127 1.3734905
-0.22794642 0.5186939 -0.563793 -0.96347594 -0.11604009 -0.104015134 -0.1949361 0.15191463
-0.32775047 0.2610991 0.12588999 -0.028920531 -0.25994608 -0.10576615 -0.013103396 -0.3190382
-0.07926157 -0.15067062 0.30740765 -1.8339367 0.5157464 0.8734733 0.12001923 -0.24435876
-1.0982857 -0.091326244 1.139364 -0.21315624 1.1954994 0.041054696 -0.21247305 0.04249215
-0.013594585 0.2163634 0.92573076 -2.7795815 0.025900386 -0.38945913 0.012734439 0.7166359
-1.0665222 0.2585925 -0.39588836 -0.25591734 0.69047666 -0.65651757 2.6334152 -0.053987607
-0.35915583 0.022256626 0.05085295 0.7436234 -0.5825262 -4.8409915 0.12047926 0.50998634
0.008723685 0.04077743 -0.48732376 -0.27749163 -0.9708146 -0.19919252 0.09158927 0.12634252
0.060057126 0.02677159 -0.7787847 0.38981745 -0.29924843 -1.2162436 0.550295 0.8209012
-2.0003207 2.3895867 -0.098581366 -0.46769738 0.12650406 0.16540416 0.19686967 -2.5066638
-5.5123787 0.4311306 -0.84449416 0.936655 -0.11484803 -0.6160251 -0.8738237 -0.47980583
-0.0097578345 1.6488469 -0.105272636 0.59385943 0.42644286 1.1082971 0.33141205 -0.078216925
0.36944312 0.93220454 0.95648724 -2.439512 1.0730559 0.18053219 1.0167449 0.43524098
0.04219463 0.6950314 0.99615663 0.12922554 -1.1867107 -0.018516794 -0.2272045 -0.028515281
-0.26853886 0.07592827 -0.061295148 -0.22860214 0.27795967 -0.23844829 -2.0614195 0.68607414
-0.078233324 -0.67401844 0.1997942 0.38251516 -0.9461586 -0.5719375 -1.5579791 -0.38553885
1.0020845 0.40299556 -0.38483807 0.068576746 0.2063932 -0.48064008 1.3661577 -0.21763515
-2.879618 -0.07142739 0.094262645 0.006806418 -0.107485384 0.2556571 0.34507218 2.085252
0.6360421 1.1374807 -0.97727144 -1.2888749 -0.7612803 0.3616369 -0.31430942 0.95112437
-0.8027215 0.21494587 0.9458211 -1.069763 1.1141987 -0.44642112 0.17904127 -0.6737154
-0.17346363 0.38464442 -0.113125265 -0.08222173 -0.05419167 -0.41624284 -0.120010845 -0.08318828
-0.2933211 -0.051194884 0.16502345 -0.09279502 -1.4394556 -1.1337723 -1.2462119 -1.5536263
00000000: db93 ee3d f35f a63e 1e60 643c c3ab 1ebe
00000010: 6e71 abbe ba57 aabe d1df b4bc d1c4 31be
00000020: be21 5bbd 2123 7b3f 5d66 72be 2538 eabe
00000030: d98c 5abc dc19 e8bd 6cfa 8ebe 2e82 863f
00000040: 314c 033d f167 dc3e 7471 83bf 084e d0bf
00000050: 1830 21c0 a39a 4cbe 3eb9 55be deb7 ea3e
00000060: d716 f23e 8f5d aa3e df2e 053f 2623 94c0
00000070: ceec efbd e57f 523f b62c cfbd 0f9b af3e
00000080: 0945 58bb d2ac e9bd 6ed6 d83e 2785 423f
00000090: 29bc 993f 511b 9f3e c4c0 2c3e 4fe0 02be
000000a0: 558e 133f 768f a3be 6861 21c0 6d8e 9dc0
000000b0: f67d 5cbe 572b 723f 485d 3fbf a203 f5be
000000c0: 9174 47be e16e 2e3f edc6 de3e da3f 68be
000000d0: 21f3 79be 57bf bd3e 3856 0ebe 04fe 6e3d
000000e0: 87f9 54be 8fb8 d1bd ba31 a2bd de6d 813e
000000f0: 121c b5be d370 aebe 2e50 2bbe 4095 033f
00000100: b4d0 0d3f 8adc e2be 5a7e fdbe 60f3 943e
00000110: f30b edbe 6032 133d 74e4 26bf 8f9f edbe
00000120: dee4 56be 06f1 903e 391f 62be ba44 dbbd
00000130: c95c 92be a40d ac3e 07b6 4f3f 89ce af3f
00000140: c96a 69be 20c9 043f bd54 10bf 5ca6 76bf
00000150: 6da6 edbd e305 d5bd 549d 47be 828f 1b3e
00000160: e9ce a7be c8ae 853e 4ee9 003e c0ea ecbc
00000170: a717 85be ec9b d8bd a0af 56bc fa58 a3be
00000180: e453 a2bd 6649 1abe 8964 9d3e 70be eabf
00000190: f507 043f f29b 5f3f a4cc f53d 2f39 7abe
000001a0: a094 8cbf 4109 bbbd aed6 913f a145 5abe
000001b0: 2006 993f f828 283d 8992 59be 400c 2e3d
000001c0: d2bb 5ebc 5e8e 5d3e b1fc 6c3f aae4 31c0
000001d0: 0c2d d43c 3067 c7be 1ca4 503c 7375 373f
000001e0: cd83 88bf 3c66 843e e1b1 cabe 9907 83be
000001f0: 14c3 303f 8911 28bf e089 2840 1c22 5dbd
00000200: 46e3 b7be 8753 b63c 2f4b 503d 1a5e 3e3f
00000210: 7020 15bf 67e9 9ac0 d5bd f63d 778e 023f
00000220: c9ed 0e3c 3c06 273d 8082 f9be 6213 8ebe
00000230: 4e87 78bf 20f9 4bbe 2893 bb3d ef5f 013e
00000240: 76fe 753d 1850 db3c 6f5e 47bf 2796 c73e
00000250: 1737 99be dfad 9bbf 22e0 0c3f 9526 523f
00000260: 4105 00c0 fdee 1840 07e5 c9bd 0876 efbe
00000270: 488a 013e b55f 293e 3498 493e 2e6d 20c0
00000280: 6865 b0c0 26bd dc3e c530 58bf 9fc8 6f3f
00000290: 7235 ebbd d2b3 1dbf e9b2 5fbf 1ca9 f5be
000002a0: 53df 1fbc 6a0d d33f 2e99 d7bd 2c07 183f
000002b0: b856 da3e aedc 8d3f d7ae a93e 3230 a0bd
000002c0: a627 bd3e f5a4 6e3f 59dc 743f f720 1cc0
000002d0: e559 893f 6edd 383e b224 823f e8d7 de3e
000002e0: 47d4 2c3d 94ed 313f 1f04 7f3f b353 043e
000002f0: 23e6 97bf 88b0 97bc 4ca8 68be e198 e9bc
00000300: ed7d 89be 4880 9b3d 9f10 7bbd ae16 6abe
00000310: bb50 8e3e ca2b 74be 4cee 03c0 8ea2 2f3f
00000320: cb38 a0bd 798c 2cbf da96 4c3e 07d9 c33e
00000330: 7337 72bf 7f6a 12bf dc6b c7bf 5965 c5be
00000340: 4e44 803f 6f55 ce3e 7f09 c5be f771 8c3d
00000350: bd58 533e 7516 f6be 41de ae3f c0db 5ebe
00000360: a94b 38c0 8648 92bd c60c c13d 5f08 df3b
00000370: 4c21 dcbd 7de5 823e 4dad b03e c574 0540
00000380: a8d3 223f f898 913f 762e 7abf daf9 a4bf
00000390: 44e3 42bf 7928 b93e 2aed a0be e37c 733f
000003a0: 287f 4dbf c51a 5c3e 5521 723f feed 88bf
000003b0: 109e 8e3f 4f91 e4be 9856 373e 9d78 2cbf
000003c0: 73a0 31be 1df0 c43e 38ae e7bd de63 a8bd
000003d0: 16f8 5dbd c81d d5be 3fc8 f5bd 9e5e aabd
000003e0: 2f2e 96be bab1 51bd e8fb 283e 510b bebd
000003f0: 1540 b8bf 731f 91bf df83 9fbf 3add c6bf

fc1.bias f4 [128]
-0.17366214 -0.27943444 -0.21947971 -0.09478204 0.10102657 -0.13847935 -0.12515254 0.26178247
-0.92921305 0.81043583 -0.27797616 0.07844264 0.015832981 0.5087086 0.05979144 0.40354818
-0.26714516 -0.0999382 -0.042523995 -0.98678035 -0.8231054 -0.32006115 0.41947523 -0.52723074
-0.20029844 0.07860624 -0.46470657 -0.03215201 0.019146174 0.32665148 0.0829775 -0.5841297
0.02149786 0.12115788 0.060494814 -0.55128735 0.35964027 0.108734936 -0.0805693 0.110606745
0.19939406 -0.32531184 0.59856635 0.6667217 0.026635632 0.18891947 -0.83430314 -0.36405033
-0.58126366 0.03005492 -0.31048742 0.1929097 -0.8951273 0.5364568 -0.68190855 0.14683613
-0.02363357 -0.15896069 0.07370682 -0.00953638 -0.016922235 -0.03980432 0.5533594 0.175913
-0.21771348 0.22629842 0.42850065 0.337027 -0.49298206 0.37970096 -0.062132284 0.2307332
-0.26858026 0.15094677 0.7838295 0.12558924 0.5975083 0.22307974 -0.19621691 -0.6505644
0.035923596 0.3742512 0.60862565 0.42255488 -0.9186116 0.24526873 -0.41887957 0.24320155
0.61116916 -1.019808 0.012530624 -0.29820737 0.90569514 -0.22092228 0.19914906 -0.5669243
-0.020672461 0.39852718 0.15002951 -0.20861623 0.24222675 -0.88186353 0.28778955 0.13286786
0.39192757 0.19416331 0.6583309 0.23016287 -0.05918578 -0.30859616 0.15720905 0.47463387
0.33644786 0.334237 -0.6997831 0.34693938 -0.327049 0.021354795 0.35801655 -0.2679854
0.036333073 -0.13783911 0.14786367 -0.12449104 -0.24440841 -0.15148145 -0.8114302 -0.42511228
00000000: 7dd4 31be 0812 8fbe 4abf 60be 161d c2bd
00000010: 05e7 ce3d 88cd 0dbe fd27 00be 5a08 863e
00000020: e8e0 6dbf b978 4f3f e452 8ebe 89a6 a03d
00000030: 2bb4 813c ba3a 023f dee7 743d de9d ce3e
00000040: 40c7 88be 66ac ccbd a42d 2ebd a39d 7cbf
00000050: 09b7 52bf 0edf a3be 75c5 d63e 98f8 06bf
00000060: 091b 4dbe 4ffc a03d 05ee edbe d3b1 03bd
00000070: 70d8 9c3c dd3e a73e 1cf0 a93d 8689 15bf
00000080: 481c b03c 9f21 f83d 69c9 773d 2b21 0dbf
00000090: c522 b83e 6cb0 de3d 8401 a5bd ca85 e23d
000000a0: f52d 4c3e 468f a6be a53b 193f 46ae 2a3f
000000b0: f832 da3c 1b74 413e e494 55bf ce64 babe
000000c0: b2cd 14bf bc35 f63c 35f8 9ebe 1f8a 453e
000000d0: 1027 65bf 3c55 093f 8f91 2ebf 365c 163e
000000e0: 309b c1bc 97c6 22be 9af3 963d 7a3e 1cbc
000000f0: 80a0 8abc db09 23bd f6a8 0d3f 8a22 343e
00000100: 48f0 5ebe c6ba 673e 7064 db3e ce8e ac3e
00000110: 2568 fcbe 2a68 c23e 6c7e 7ebd 5345 6c3e
00000120: 5a83 89be ca91 1a3e 0da9 483f 779a 003e
00000130: 4ef6 183f 046f 643e 16ed 48be 638b 26bf
00000140: 9f24 133d da9d bf3e e4ce 1b3f 1d59 d83e
00000150: 212a 6bbf ba27 7b3e 6277 d6be d409 793e
00000160: 9575 1c3f 1289 82bf 3f4d 4d3c a3ae 98be
00000170: a3db 673f 7339 62be bbed 4b3e f321 11bf
00000180: 4b59 a9bc c10b cc3e 56a1 193e 7e9f 55be
00000190: 4a0a 783e cfc1 61bf 2759 933e 830e 083e
000001a0: bbaa c83e bfd2 463e 6088 283f d1af 6b3e
000001b0: ca6c 72bd 5100 9ebe 69fb 203e 3603 f33e
000001c0: e542 ac3e 1d21 ab3e fc24 33bf 0aa2 b13e
000001d0: f772 a7be 40f0 ae3c f24d b73e 6235 89be
000001e0: fdd1 143d b225 0dbe 9369 173e 29f5 febd
000001f0: 3346 7abe f41d 1bbe e4b9 4fbf 51a8 d9be

fc2.weight f4 [256, 128]
-0.011939809 -0.03325791 -0.054122087 -0.038112827 -0.038839225 -0.022248825 -0.0176996 -0.118797876
0.04020827 0.013129083 0.078077756 0.0039025787 -0.0020208396 -0.06978223 -0.055842362 -0.024355393
0.046958484 -0.10216626 -0.048879102 0.03734487 -0.082171366 0.032328673 0.083658434 -0.09043177
-0.06013594 -0.118879244 0.00046141917 -0.059375204 0.058801506 -0.06772114 -0.03752454 0.01849566
0.024817837 -0.03998593 0.0049588606 -0.027781926 -0.07437467 -0.04334704 -0.0076937526 -0.050331138
-0.024769703 -0.06378353 -0.11064003 0.06295543 -0.03755361 -0.014987485 -0.03543469 -0.019114494
-0.10661539 -0.09281543 0.012688853 0.014370818 -0.05274339 -0.11973845 -0.006231822 0.00481011
0.08736085 0.010220394 -0.09183844 -0.052412994 0.023543729 -0.020950247 -0.12135167 -0.0058851982
-0.06787872 -0.08026491 -0.018987669 -0.003982663 0.04559943 -0.12860624 -0.09609961 0.03164423
-0.0875613 0.00063188723 -0.08469675 0.039937332 -0.016933499 -0.12466531 0.075409494 0.059673686
0.019123727 -0.046497934 -0.0136499135 0.058070894 0.055072214 -0.049137346 0.06386892 -0.062084466
-0.090547 -0.0061833314 -0.019227179 0.05907128 -0.040921446 0.042241774 -0.12715682 -0.024167554
0.05152218 -0.05896443 0.005987107 -0.05475376 -0.0019629793 0.066465795 -0.0317861 -0.0011426015
-0.1472845 0.011402154 0.020291993 0.029206734 -0.052556083 -0.12961076 -0.042440962 -0.052929528
-0.0819604 -0.10377571 -0.01954657 -0.039999593 0.07320411 -0.032604422 -0.103998356 -0.039698306
-0.03821975 0.025053618 -0.043483697 -0.060652528 -0.061511744 -0.006409875 -0.009358194 -0.028064268
-0.05051707 -1.2656333 -2.1482546 -0.46594894 -0.08168411 0.9013689 0.034460198 -1.265656
-0.11781638 1.1674708 -0.044282712 0.081512615 0.2571116 -0.13037291 1.4790283 0.01735097
3.0065756 1.1156485 -1.5146731 -0.16640228 -0.9171376 0.08097031 -1.0550189 -1.1951158
0.0021138384 -1.212699 -2.794873 0.038774986 0.09862524 1.138613 1.1001298 -3.8601613
-1.0639595 0.9729835 -2.8548627 0.43809196 -0.5683997 -2.2616498 0.037145235 0.945027
-1.0056272 -0.046185337 0.28711087 -1.8807572 0.13048004 0.91092515 -0.600775 -0.071001574
0.5478187 0.4806779 0.039605793 -0.43850374 -0.11842658 -0.5652427 0.08488703 0.9527247
-0.0429404 -0.756938 -0.3312187 0.22677018 0.21400109 -0.28005096 0.41604394 -0.104210384
-0.02818697 -0.48332533 1.469402 -2.0569875 0.6100589 0.9383926 -2.026804 -0.5281223
-1.0357542 0.66882515 1.2413336 -0.06229606 0.7693438 0.49918315 0.072704814 -4.1750426
-1.1473786 0.05487604 0.84296316 -2.7443168 1.3037848 0.9262187 -0.2064993 -0.9521835
-0.78667414 -0.61669225 -1.7105833 0.029034486 0.20496102 -0.012302651 -0.07217226 -0.64901346
-1.2059394 1.5969104 0.90721357 0.027807161 -0.32664198 -0.8422344 -0.038870975 -0.91472
0.59068674 0.69317734 0.60998666 0.37905237 -0.057620402 -1.0019349 -0.6154231 0.92423505
0.54198635 0.54956865 -0.32084152 0.74807256 0.06539695 0.053444065 0.057984345 0.07805015
-0.167819 -0.22392298 1.4309785 0.8784498 -0.8729777 -2.061794 -0.1586284 -0.40874034
00000000: 309f 43bc 7239 08bd 1faf 5dbd 321c 1cbd
00000010: e115 1fbd 2b43 b6bc c0fe 90bc 4d4c f3bd
00000020: 6db1 243d 5e1b 573c 3be7 9f3d 68c2 7f3b
00000030: 1070 04bb fce9 8ebd f6ba 64bd f684 c7bc
00000040: 8a57 403d 8b3c d1bd 7435 48bd eff6 183d
00000050: 7649 a8bd 126b 043d 1d55 ab3d 4b34 b9bd
00000060: 1a51 76bd f676 f3bd a2ea f139 6a33 73bd
00000070: d9d9 703d 62b1 8abd 55b3 19bd 3684 973c
00000080: c74e cb3c 49c8 23bd f07d a23b ec96 e3bc
00000090: bf51 98bd aa8c 31bd e01b fcbb 0628 4ebd
000000a0: d5e9 cabc f0a0 82bd 3d97 e2bd c7ee 803d
000000b0: d0d1 19bd 118e 75bc f723 11bd 0096 9cbc
000000c0: 2b59 dabd 0416 bebd e8e4 4f3c 9473 6b3c
000000d0: 7409 58bd 6f39 f5bd 5034 ccbb 219e 9d3b
000000e0: 3fea b23d 7073 273c cb15 bcbd 02af 56bd
000000f0: c7de c03c da9f abbc 3987 f8bd 9fd8 c0bb
00000100: 0004 8bbd ee61 a4bd 078c 9bbc 0081 82bb
00000110: 78c6 3a3d 5bb1 03be dfcf c4bd 619d 013d
00000120: 5753 b3bd 3ca5 253a 7d75 adbd 5495 233d
00000130: 1fb8 8abc 8750 ffbd 4b70 9a3d 656c 743d
00000140: 5da9 9c3c 9e74 3ebd e3a3 5fbc bfdb 6d3d
00000150: 6793 613d 3e44 49bd b5cd 823d 484c 7ebd
00000160: b570 b9bd 8b9d cabb 5182 9dbc baf4 713d
00000170: 3f9d 27bd b605 2d3d 6635 02be 09fb c5bc
00000180: ec08 533d b084 71bd 7e2f c43b 7b45 60bd
00000190: 54a5 00bb 381f 883d 2432 02bd 58c3 95ba
000001a0: bfd1 16be 1ad0 3a3c 653b a63c f642 ef3c
000001b0: 0c45 57bd afb8 04be 93d6 2dbd a2cc 58bd
000001c0: dbda a7bd 5c88 d4bd 2120 a0bc 9dd6 23bd
000001d0: 09ec 953d 378c 05bd 17fd d4bd b19a 22bd
000001e0: 508c 1cbd 3f3d cd3c f61b 32bd c96e 78bd
000001f0: bdf3 7bbd ee09 d2bb 1c53 19bc 09e7 e5bc
00000200: fdea 4ebd 4600 a2bf 017d 09c0 dc90 eebe
00000210: 004a a7bd 1dc0 663f 2326 0d3d 0401 a2bf
00000220: b749 f1bd af6f 953f ca61 35bd 16f0 a63d
00000230: 22a4 833e 7a80 05be cd50 bd3f 9f23 8e3c
00000240: bc6b 4040 92cd 8e3f cfe0 c1bf 5c65 2abe
00000250: 88c9 6abf c3d3 a53d dc0a 87bf 8ef9 98bf
00000260: 5388 0a3b b939 9bbf 33df 32c0 85d2 1e3d
00000270: 08fc c93d 12be 913f 0ed1 8c3f e20c 77c0
00000280: d32f 88bf 7215 793f 12b6 36c0 974d e03e
00000290: a582 11bf dfbe 10c0 9a25 183d 4aed 713f
000002a0: 64b8 80bf d62c 3dbd 3200 933e a7bc f0bf
000002b0: 8f9c 053e 6432 693f 64cc 19bf 4669 91bd
000002c0: d93d 0c3f 6a1b f63e af39 223d 9083 e0be
000002d0: a389 f2bd bfb3 10bf 40d9 ad3d c4e5 733f
000002e0: 46e2 2fbd b0c6 41bf 7f95 a9be 7136 683e
000002f0: 1a23 5b3e d762 8fbe b603 d53e 416c d5bd
00000300: 5ce8 e6bc 6b76 f7be 5d15 bc3f afa5 03c0
00000310: d22c 1c3f 7f3a 703f 28b7 01c0 0633 07bf
00000320: 9893 84bf 2038 2b3f 05e4 9e3f 272a 7fbd
00000330: b7f3 443f ef94 ff3e 43e6 943d f399 85c0
00000340: 4ddd 92bf b3c5 603d 6fcc 573f e3a2 2fc0
00000350: 6ce2 a63f ab1c 6d3f 8d74 53be 4cc2 73bf
00000360: 7a63 49bf 8bdf 1dbf 65f4 dabf bbd9 ed3c
00000370: 4de1 513e 0f91 49bc 0dcf 93bd bf25 26bf
00000380: 395c 9abf 8f67 cc3f 263f 683f d8cb e33c
00000390: 9e3d a7be ac9c 57bf 2c37 1fbd 172b 6abf
000003a0: 3f37 173f 1274 313f 1628 1c3f 2713 c23e
000003b0: 5f03 6cbd 673f 80bf 5e8c 1dbf ab9a 6c3f
000003c0: 9ebf 0a3f 88b0 0c3f 5745 a4be af81 3f3f
000003d0: d6ee 853d 2ae8 5a3d fe80 6d3d c2d8 9f3d
000003e0: bed8 2bbe 114c 65be 4e2a b73f 16e2 603f
000003f0: 777b 5fbf 6ff4 03c0 7c6f 22be 6a46 d1be

fc2.bias f4 [256]
-0.090033084 0.60379195 0.178157 0.89774674 -0.04866799 -0.081380546 0.077685624 -0.3235094
-0.43205574 0.24536845 -0.00062962563 0.24857424 -0.048890512 0.022987746 0.031355284 -0.09082794
-0.10001137 1.1937816 0.006715159 0.3719733 0.3048852 -0.02730495 -0.09323467 0.15125106
-0.45333895 -0.13229921 0.24740723 -0.4757291 -0.1258612 0.6869433 -0.033273097 -0.08130021
0.34295124 -0.04293645 0.071468174 0.023852961 0.7705507 0.13064428 -0.052742712 -0.1187801
0.010211918 -0.12142883 -0.7206921 0.5894927 -0.04331288 -0.022928031 -0.45183352 -0.073982656
0.5737926 -0.12504174 0.014861546 -0.0639359 -0.02976141 0.5239273 0.57520443 -0.5162738
-0.04905154 -0.11676591 -0.1500077 0.20048887 0.028791245 -0.021272238 0.774005 -0.84813577
0.27797994 -0.69483227 -0.32779235 -0.011277062 -0.07535182 -0.50762194 0.31959015 0.45469925
0.97120464 -0.008649225 -0.04276109 -1.1005163 -0.085272975 -0.058196995 0.18395469 -0.68527937
0.7480398 0.2659425 -0.05174544 -0.08037321 0.18411744 0.2669603 0.3916502 -0.08967707
-0.08196221 -0.118992195 -0.049314283 -0.058723908 0.7399388 0.0010616569 0.856419 -0.16977863
-0.016574737 -0.057841223 -0.6152029 -0.066084415 -0.042997554 0.0004449013 0.45664394 0.35893744
-0.09167175 -0.0001319703 -0.04146956 -0.08058393 0.39504835 0.036538336 -0.025196504 0.25976798
0.8848105 0.02378881 -0.45913666 -0.04826534 0.326792 -0.07053815 0.1457367 0.824034
-0.14583372 -0.058219567 0.908896 -0.023810733 -0.18872307 0.2956882 -0.2179669 -0.43561202
0.32738024 0.48366782 -0.060929205 -0.095116645 -0.39299113 -0.94891095 0.26710442 0.6596808
-0.08577402 -0.10695809 0.18715373 0.19312574 0.32849053 0.960913 0.4771542 -0.09340673
-0.10802989 -0.080173954 -0.1190295 0.19688016 0.8714551 0.640151 -0.09049358 0.41258594
-0.024943657 0.20687363 -0.08476869 0.012918409 -0.42715123 -0.65633374 0.48466572 -0.1104756
0.45219877 -0.2391087 -0.5617374 0.171936 0.19045444 -0.5167742 0.35309982 0.019571759
1.3492415 -0.06296103 -0.011534136 -0.05560542 -0.11764031 -0.7573639 -0.057538975 -0.09878517
0.35631394 -0.032317415 -0.11204023 0.23231989 -0.07300789 0.49487367 -0.026219275 0.16812637
-1.0132283 0.9816095 0.79982704 -0.0773919 -0.038744476 -0.09999616 0.13742352 0.24770725
-0.11614447 -0.36832044 -0.013325676 -0.36526418 0.96580327 -0.066910714 -0.46319455 0.4682681
0.022445224 -0.040922813 -0.05826749 1.0904717 -0.08506725 -0.098380476 -0.44328865 -0.06796221
0.19492368 -0.12131092 -0.086639576 0.12510918 -0.13424914 -0.09449237 -0.06287933 -0.033244748
-0.034644008 -0.023373714 0.7307885 0.42704657 0.30521166 0.17364278 -0.061266504 -0.5763861
0.5625813 -0.069285125 0.34168735 0.34144512 -0.06370066 -0.096423775 -0.49539375 0.72235304
-0.4812202 -0.19341607 0.2935344 -0.5587472 1.2772956 -0.4691378 -0.5444226 -0.007897489
-0.3732514 -0.4560764 -0.03886035 -0.098839365 0.92861253 -0.019061172 0.77865976 0.8762078
-0.013657244 0.055320486 0.44013718 0.03512536 0.46995783 0.84736913 0.08247268 -0.105693154
00000000: 4463 b8bd 1c92 1a3f ca6e 363e bbd2 653f
00000010: 1658 47bd d8aa a6bd a419 9f3d 06a3 a5be
00000020: 6936 ddbe de41 7b3e 760d 25ba 3f8a 7e3e
00000030: 6b41 48bd cc50 bc3c 666e 003d 0004 babd
00000040: c3d2 ccbd d6cd 983f d60a dc3b 4973 be3e
00000050: ea19 9c3e a1ae dfbc d2f1 bebd 8fe1 1a3e
00000060: 0b1c e8be 7279 07be 5258 7d3e c492 f3be
00000070: c2e1 00be 84db 2f3f 5f49 08bd b980 a6bd
00000080: 4e97 af3e 22de 2fbd e85d 923d 4967 c33c
00000090: d042 453f 9dc7 053e be08 58bd fb42 f3bd
000000a0: e34f 273c aeaf f8bd 477f 38bf fee8 163f
000000b0: d968 31bd 91d3 bbbc b956 e7be 3884 97bd
000000c0: 12e4 123f f10a 00be d87d 733c d3f0 82bd
000000d0: 33ce f3bc 1920 063f 9940 133f 852a 04bf
000000e0: 45ea 48bd f722 efbd 9e9b 19be f44c 4d3e
000000f0: 9edb eb3c 1e43 aebc 3125 463f 6d1f 59bf
00000100: 6353 8e3e 87e0 31bf 66d4 a7be 6dc3 38bc
00000110: 0e52 9abd 83f3 01bf 52a1 a33e 57ce e83e
00000120: dea0 783f 7bb5 0dbc 4126 2fbd b8dd 8cbf
00000130: 99a3 aebd f95f 6ebd 9e5e 3c3e 786e 2fbf
00000140: 897f 3f3f 9e29 883e 07f3 53bd b69a a4bd
00000150: 4889 3c3e 05af 883e 6086 c83e 9da8 b7bd
00000160: cedb a7bd 2eb2 f3bd c6fd 49bd 7b88 70bd
00000170: a16c 3d3f 4b27 8b3a 473e 5b3f 73da 2dbe
00000180: bec7 87bc ebea 6cbd f07d 1dbf 4457 87bd
00000190: 341e 30bd a441 e939 3ccd e93e a6c6 b73e
000001a0: 66be bbbd 8261 0ab9 fcdb 29bd 3009 a5bd
000001b0: c743 ca3e 39a9 153d e668 cebc 4f00 853e
000001c0: f182 623f c0e0 c23c f613 ebbe e1b1 45bd
000001d0: 4851 a73e 4e76 90bd 003c 153e e4f3 523f
000001e0: 6f55 15be a477 6ebd 69ad 683f ba0e c3bc
000001f0: 9f40 41be 7264 973e b732 5fbe 8a08 dfbe
00000200: 629e a73e 4fa3 f73e e790 79bd 84cc c2bd
00000210: 2236 c9be d4eb 72bf e9c1 883e d7e0 283f
00000220: 4aaa afbd d80c dbbd 3aa5 3f3e c1c2 453e
00000230: e92f a83e 65fe 753f 8e4d f43e 074c bfbd
00000240: c63e ddbd 3e32 a4bd bdc5 f3bd f49a 493e
00000250: ae17 5f3f f0e0 233f b354 b9bd 773e d33e
00000260: a456 ccbc aed6 533e 359b adbd bca7 533c
00000270: 91b3 dabe 7d05 28bf 1b26 f83e 0841 e2bd
00000280: 9986 e73e e9d8 74be 06ce 0fbf fe0f 303e
00000290: 7d06 433e 504b 04bf 80c9 b43e f454 a03c
000002a0: f2b3 ac3f b6f1 80bd acf9 3cbc 82c2 63bd
000002b0: 67ed f0bd 9ae2 41bf fdad 6bbd e14f cabd
000002c0: c86e b63e 445f 04bd 5975 e5bd 44e5 6d3e
000002d0: 2985 95bd 1560 fd3e cec9 d6bc 5229 2c3e
000002e0: 77b1 81bf c34a 7b3f 77c1 4c3f a57f 9ebd
000002f0: 87b2 1ebd c9ca ccbd c0b8 0c3e f8a6 7d3e
00000300: 27dd edbd 7f94 bcbe f053 5abc e803 bbbe
00000310: e23e 773f 7c08 89bd d627 edbe d6c0 ef3e
00000320: 0cdf b73c ae9e 27bd e4a9 6ebd 9494 8b3f
00000330: bd37 aebd b47b c9bd bbf6 e2be c52f 8bbd
00000340: 139a 473e dc71 f8bd 1770 b1bd 9f1c 003e
00000350: 9b78 09be 3785 c1bd e1c6 80bd a52b 08bd
00000360: e0e6 0dbd 3b7a bfbc f514 3b3f d9a5 da3e
00000370: b444 9c3e 6acf 313e 96f2 7abd 0a8e 13bf
00000380: 5405 103f 5ce5 8dbd a5f1 ae3e e5d1 ae3e
00000390: 7e75 82bd d479 c5bd 40a4 fdbe 21ec 383f
000003a0: 7e62 f6be dd0e 46be 244a 963e 0e0a 0fbf
000003b0: 6c7e a33f d432 f0be 485f 0bbf 7864 01bc
000003c0: cf1a bfbe d982 e9be 082c 1fbd 4b6c cabd
000003d0: 8db9 6d3f 2d26 9cbc 3f56 473f 284f 603f
000003e0: a2c2 5fbc bc97 623d a959 e13e 9cdf 0f3d
000003f0: 509e f03e 2fed 583f 70e7 a83d a775 d8bd

fc3.weight f4 [128, 256]
-0.058334 0.0031714574 -0.04381595 -0.078634225 0.015783034 0.007837206 0.010731185 -0.02582932
-0.06833534 0.030756675 0.05259352 -0.08310976 0.034829542 0.00813836 -0.015388937 -0.016503714
0.053260878 -0.07927074 -0.036507614 -0.060816664 -0.0018108654 0.030162185 0.01645206 -0.020008223
-0.015866498 -0.048131175 0.025905574 -0.044875447 -0.06039211 -0.022351433 -0.0077454248 -0.025296375
-0.036735367 -0.05161524 -0.09314018 0.051063262 -0.052091733 -0.051742166 -0.028825484 -0.08262533
-0.023641452 0.035235897 -0.05212602 -0.06210569 0.059322454 0.02403573 0.024640705 0.0385632
-0.0027291537 -0.023719579 0.0034035593 -0.063348524 0.054662876 -0.07489875 -0.042505767 0.03143657
-0.030386426 -0.051447295 -0.04015053 -0.025989985 -0.004988931 -0.025160976 -0.03874681 -0.046364095
-0.00048425613 0.043420844 0.0058097374 -0.040465623 -0.01848381 -0.040034484 -0.07817483 -0.09641164
-0.06552123 -0.020336673 -0.06888428 -0.02491362 -0.060365133 -0.041414395 -0.029532718 0.009647206
-0.025628839 -0.022143345 0.029942356 -0.020359203 -0.06221074 -0.093095094 -0.025728721 0.0011663213
0.026508234 -0.014292546 -0.042186826 0.01993253 -0.0021536609 -0.046545915 0.010836016 -0.012551188
0.019786559 -0.05518852 -0.060690958 0.016640157 -0.004142195 0.05770401 -0.084704176 -0.032610096
-0.016248398 0.032054946 -0.027526833 0.025464296 0.017907029 -0.039605744 -0.0111195445 -0.021768974
-0.09716718 -0.05954396 -0.062241334 -0.019171499 -0.002616209 -0.049770452 -0.0028662353 -0.044007268
0.035605874 -0.035785787 -0.09546135 -0.017344505 -0.05911068 -0.018243225 -0.049457498 -0.065536715
-0.0146187 -0.03172015 0.03763649 -0.03094355 -0.006949683 -0.056062706 -0.060082145 -0.05653118
-0.016704947 0.055446118 0.03903385 -0.074588396 -0.02390633 -0.05219293 -0.09279727 -0.05528754
-0.02856931 0.0064647347 0.057707325 0.04180816 -0.06748967 -0.031402986 -0.044607997 -0.015916636
-0.03311584 -0.06003432 0.031176433 0.0059442595 -0.013890557 -0.016723298 -0.069107525 0.00069997227
-0.08537342 0.0126940785 -0.04653839 0.042730913 -0.021106586 -0.0049593835 -0.029745633 -0.026764035
-0.025251703 -0.06237988 0.0026446946 -0.057382204 -0.023473948 -0.051689755 0.018122882 -0.008070245
0.059546035 -0.022159949 -0.025511272 -0.09102626 0.040337376 -0.082323335 -0.009636587 -0.0063285627
-0.0003555682 -0.031180156 -0.024289625 -0.038445547 9.377301e-05 -0.058162 -0.107826605 -0.07621827
0.03298883 -0.06956197 0.0030937195 -0.075974435 0.019553214 -0.00990025 -0.057098664 0.03965044
-0.07765866 0.044570677 0.01609698 -0.023404596 -0.0607898 0.036646947 0.00014496189 -0.060631186
0.03911765 -0.0003201124 0.020544253 -0.08764945 0.027930096 0.020601213 0.05314777 -0.0016184598
0.058196828 0.05599118 -0.08696892 0.0044023646 -0.059077103 -0.043490168 -0.00090917945 0.020379256
-0.09780348 0.037556976 -0.06505761 0.022352174 -0.03120879 0.033401057 0.024250176 0.030561838
0.008498284 -0.033263247 -0.060570907 -0.008706189 0.005310521 -0.072633654 -0.04192234 0.013731003
0.011406513 -0.057086308 0.055481046 0.002189435 0.009459191 0.015504636 -0.060501445 -0.0017997525
0.0010527372 -0.03236162 -0.06822973 0.00509465 -0.0020640418 -0.044212136 -0.039578628 -0.054009072
00000000: a2ef 6ebd 3ad8 4f3b 5b78 33bd fb0a a1bd
00000010: 6c4b 813c a067 003c dad1 2f3c 0398 d3bc
00000020: 66f3 8bbd 6cf5 fb3c 4e6c 573d 7335 aabd
00000030: 6ca9 0e3d c256 053c e121 7cbc cc32 87bc
00000040: 1428 5a3d b358 a2bd 0289 15bd e51a 79bd
00000050: 8f5a edba b016 f73c 78c6 863c 49e8 a3bc
00000060: 75fa 81bc 3225 45bd ed37 d43c 51cf 37bd
00000070: b85d 77bd 5a1a b7bc 55cd fdbb 583a cfbc
00000080: d377 16bd 806a 53bd 47c0 bebd b627 513d
00000090: 245e 55bd 98ef 53bd 6c23 ecbc 7837 a9bd
000000a0: b8ab c1bc 8453 103d 1882 55bd 8962 7ebd
000000b0: 1afc 723d 94e6 c43c 4edb c93c 72f4 1d3d
000000c0: 9adb 32bb 904f c2bc 400e 5f3b dfbc 81bd
000000d0: 2ee6 5f3d 8464 99bd 871a 2ebd a2c3 003d
000000e0: f4ec f8bc 66ba 52bd e274 24bd f3e8 d4bc
000000f0: 307a a3bb 641e cebc fab4 1ebd 47e8 3dbd
00000100: c2e3 fdb9 0eda 313d 9c5f be3b 48bf 25bd
00000110: 5c6b 97bc 33fb 23bd 201a a0bd 7773 c5bd
00000120: ff2f 86bd 1899 a6bc 3413 8dbd a617 ccbc
00000130: 6e41 77bd 24a2 29bd 99ee f1bc 510f 1e3c
00000140: 92f3 d1bc f665 b5bc ac49 f53c 58c8 a6bc
00000150: b0d0 7ebd a4a8 bebd 0ac5 d2bc 40df 983a
00000160: cc27 d93c 482b 6abc 18cc 2cbd 8c49 a33c
00000170: 6f24 0dbb eea6 3ebd 8c89 313c 7fa3 4dbc
00000180: 6c17 a23c 5c0d 62bd 1597 78bd f050 883c
00000190: 40bb 87bb 0a5b 6c3d 6279 adbd 2a92 05bd
000001a0: 5c1b 85bc 0c4c 033d f47f e1bc 809a d03c
000001b0: c3b1 923c a239 22bd c02e 36bc d954 b2bc
000001c0: 96ff c6bd 5ee4 73bd c5f0 7ebd 8c0d 9dbc
000001d0: b474 2bbb 1adc 4bbd 73d7 3bbb f740 34bd
000001e0: 77d7 113d 1e94 12bd 3e81 c3bd 1016 8ebc
000001f0: 0a1e 72bd d172 95bc f293 4abd 1d38 86bd
00000200: 4683 6fbc fdec 01bd b828 1a3d 547d fdbc
00000210: 2bba e3bb 02a2 65bd b218 76bd 3d8d 67bd
00000220: d0d8 88bc 781b 633d f5e1 1f3d cdc1 98bd
00000230: 35d7 c3bc 41c8 55bd 7f0c bebd 3075 62bd
00000240: 300a eabc 20d6 d33b 845e 6c3d 083f 2b3d
00000250: 0638 8abd 6ba0 00bd e0b6 36bd 9b63 82bc
00000260: 7aa4 07bd 8ce6 75bd b865 ff3c 10c8 c23b
00000270: 3895 63bc 4cff 88bc 3f88 8dbd 587e 373a
00000280: 42d8 aebd d3fa 4f3c 0a9f 3ebd 9c06 2f3d
00000290: b8e7 acbc 5382 a2bb 1dad f3bc 4040 dbbc
000002a0: a9dc cebc 0c82 7fbd 9d52 2d3b 9a09 6bbd
000002b0: 704c c0bc a3b8 53bd 7076 943c 1039 04bc
000002c0: 8be6 733d c888 b5bc 04fd d0bc fa6b babd
000002d0: ce38 253d 2399 a8bd c7e2 1dbc d55f cfbb
000002e0: 8e6b bab9 876d ffbc 09fb c6bc 1479 1dbd
000002f0: 00a8 c438 473b 6ebd 32d4 dcbd 5318 9cbd
00000300: 4c1f 073d 8276 8ebd 00c0 4a3b 7c98 9bbd
00000310: 102e a03c a834 22bc 4ae0 69bd 8068 223d
00000320: 810b 9fbd be8f 363d d0dd 833c ffba bfbc
00000330: bafe 78bd 1c1b 163d e900 1839 6858 78bd
00000340: d439 203d c2d4 a7b9 6c4c a83c 8e81 b3bd
00000350: a8cd e43c e0c3 a83c 7ab1 593d 8022 d4ba
00000360: cc5f 6e3d 0257 653d c31c b2bd b641 903b
00000370: d5fa 71bd bf22 32bd 0056 6eba 66f2 a63c
00000380: 314d c8bd 58d5 193d ed3c 85bd e81b b73c
00000390: 94a9 ffbc 8ccf 083d 4ea8 c63c d25c fa3c
000003a0: 633c 0b3c 0b3f 08bd 3319 78bd 67a4 0ebc
000003b0: e103 ae3b f4c0 94bd c2b6 2bbd 00f8 603c
000003c0: 62e2 3a3c 55d3 69bd 1840 633d a07c 0f3b
000003d0: b9fa 1a3c 2807 7e3c 5dd0 77bd ace5 ebba
000003e0: 00fc 893a 9e8d 04bd 07bc 8bbd 06f1 a63b
000003f0: e044 07bb c917 35bd 331d 22bd 9e38 5dbd

fc3.bias f4 [128]
-0.0544541 0.6889655 0.6820254 -0.09172977 1.4616833 -0.068073906 -0.06889571 -0.045645945
0.5757464 -0.07736093 -0.03934904 -0.40311927 -0.070028275 -0.08318341 -0.10071067 0.003636535
0.5198235 0.655664 1.1299971 -0.045132175 -0.026885549 -0.2966007 -0.06378727 0.76328486
-0.09721463 1.4051327 0.7257077 1.361192 -0.1938421 0.31001306 0.010503403 -1.2272474
1.1561723 0.9175541 0.98886776 -0.08780103 0.75551754 -0.09657883 -0.09339724 -0.06795896
0.40462613 -0.061052285 -0.050205648 0.056098606 -0.056908872 -0.06340248 -0.10856669 -0.005908376
1.0288978 0.472149 -0.012114499 0.004487256 1.0088749 -0.045313127 -0.024718411 -0.03272683
-0.06961324 0.17105559 0.70977867 0.68876463 0.10740327 -0.09508376 0.0014035279 1.5262446
-0.07947289 0.68005913 0.12260463 1.1982101 -0.19989316 -0.082458496 -0.048223484 -0.09242872
-0.065864176 -0.07500055 -0.029718976 -0.03667928 -0.20168553 -0.06452797 1.1955107 1.4445796
0.18579866 -0.0026292636 1.5119723 0.0018218443 0.7209591 -0.18225601 -0.049430374 -0.029756065
0.76570714 -0.010807051 -0.0776497 -0.030352611 0.8780786 0.15101783 -0.029157965 1.4866848
-0.098508134 -0.3532449 0.6816811 -0.01460667 -0.2722112 0.6972361 -0.16188917 -0.05770208
-0.055087324 -0.09270905 1.3091987 0.70625895 -0.1138481 -0.09994571 1.4567734 -0.08797649
0.20584966 -0.07875296 0.22485971 -0.1044841 -0.27672035 -0.2458154 -0.007523714 0.27311197
-0.06343785 -0.06391015 0.7390474 -0.07738285 1.4420363 -0.04620013 1.3676887 -0.3448882
00000000: 430b 5fbd 0b60 303f 3799 2e3f d1dc bbbd
00000010: 7018 bb3f 556a 8bbd 3219 8dbd 3ef7 3abd
00000020: 1e64 133f 686f 9ebd 752c 21bd a665 cebe
00000030: fc6a 8fbd 105c aabd 6541 cebd ef52 6e3b
00000040: 2713 053f 99d9 273f bfa3 903f 84dc 38bd
00000050: 153f dcbc 0cdc 97be e6a2 82bd a366 433f
00000060: 7718 c7bd 63db b33f fbc7 393f 8a3b ae3f
00000070: 8b7e 46be 08ba 9e3e 7716 2c3c 7116 9dbf
00000080: 74fd 933f d3e4 6a3f 7026 7d3f 07d1 b3bd
00000090: 9969 413f 1fcb c5bd 0d47 bfbd 112e 8bbd
000000a0: 282b cf3e f611 7abd 70a4 4dbd a7c7 653d
000000b0: 4719 69bd 29d9 81bd 3658 debd 0d9b c1bb
000000c0: ecb2 833f 84bd f13e e47b 46bc d509 933b
000000d0: d022 813f 429a 39bd 447e cabc 920c 06bd
000000e0: 6391 8ebd 3229 2f3e 0eb4 353f e152 303f
000000f0: 3ff6 db3d 46bb c2bd 95f6 b73a fc5b c33f
00000100: afc2 a2bd 5b18 2e3f 2318 fb3d f35e 993f
00000110: cbb0 4cbe 00e0 a8bd fd85 45bd 454b bdbd
00000120: cce3 86bd e399 99bd 3675 f3bc 033d 16bd
00000130: a786 4ebe 3e27 84bd 7f06 993f fce7 b83f
00000140: 0142 3e3e b94f 2cbb 4f88 c13f f3ca ee3a
00000150: c790 383f 52a1 3abe 8177 4abd fec2 f3bc
00000160: 6205 443f 0f10 31bc ce06 9fbd 0aa6 f8bc
00000170: c2c9 603f 6ba4 1a3e afdc eebc b04b be3f
00000180: a2be c9bd 84dc b4be a782 2e3f d050 6fbc
00000190: 445f 8bbe 117e 323f 46c6 25be 0459 6cbd
000001a0: 3fa3 61bd 3ede bdbd d393 a73f 63cd 343f
000001b0: 3129 e9bd 56b0 ccbd 8d77 ba3f 052d b4bd
000001c0: 41ca 523e 3b49 a1bd a041 663e c3fb d5bd
000001d0: 4aae 8dbe 08b7 7bbe 7d89 f6bb 55d5 8b3e
000001e0: b4eb 81bd 53e3 82bd 3632 3d3f e67a 9ebd
000001f0: a594 b83f 593c 3dbd 6c10 af3f 3095 b0be

fc4.weight f4 [5, 128]
0.07186267 0.12178771 0.25003058 -0.037872188 0.4507413 0.04162594 0.022012169 -0.024689192
-1.0113618 0.009569295 0.007293943 0.8010974 -0.024883293 0.037554 0.00452159 -0.011442022
0.9394112 0.052123696 -0.34097806 -0.012178258 -0.04021969 0.97322184 0.013648767 0.75828874
-0.03936853 0.1492229 -0.13013083 0.3559175 2.0162656 -0.9706677 0.048667192 0.41319957
-1.3223999 -0.51611423 -0.35260928 0.01094578 0.4502572 0.08519213 0.021386512 0.035001054
0.40950987 0.080817185 0.09378552 0.01949893 0.035789706 -0.06732847 -0.0013810304 0.12767962
0.17207856 0.18151493 -0.050100293 -0.035762154 -1.924787 0.017232193 -0.023186505 0.043144688
0.022909714 -0.7819399 0.23499855 -2.8330872 0.21045773 0.01568499 -0.014566945 0.3453583
-0.041551504 0.3102956 1.2334342 -0.7670719 0.5336303 -0.0063867965 0.016091011 -0.08163632
0.024866868 -0.059277438 -0.07179107 -0.079116024 0.23614322 -0.07775004 -1.3819647 -1.5638113
0.3596952 0.047995824 0.3719417 0.012889169 0.008672487 0.31250203 -0.020272193 -0.07756792
-1.1630437 -0.057019323 0.0154198455 0.039305758 -0.33987918 0.25678742 -0.00310628 0.4823678
-0.0017679259 -0.06111836 -0.5571445 -0.04381863 0.18329573 0.47990245 0.5142383 -0.001038353
0.07980277 -0.0037282184 0.17702088 0.23400715 0.06725701 -0.023545444 0.18992703 -0.02165807
0.401935 -0.07429963 -0.8178211 -0.0060643973 -0.4626032 -0.27707022 0.051985238 0.8587427
-0.06425289 -0.012719876 -0.2614381 -0.06730002 0.32075432 0.024515415 0.2983044 0.01643758
-0.034610625 0.6747483 0.097065926 0.07855343 0.3056476 -0.046557643 0.041132852 0.017873535
-1.0556958 -0.00010735736 0.010573611 1.0086864 -0.022494767 -0.04737937 -0.072389565 0.026115963
0.9867719 0.12355551 -0.9784921 0.025859078 0.008724586 -1.0728029 0.01936652 0.5840877
-0.0037030405 0.24802019 0.13960311 0.21548557 0.19593218 -1.7333115 -0.045275897 0.3826556
-0.750696 -1.224136 -1.3031235 -0.07309504 0.46561298 -0.039726134 -0.06970698 0.0218199
-0.56110585 0.022317518 0.0028920083 1.9074394 -0.024300784 -0.028199943 0.0053147576 0.17329572
0.17175654 0.17970368 -0.061734825 -0.0536017 -1.1779616 -0.058411367 0.019574896 -0.021197332
-0.06625815 -1.9380599 0.55499905 -2.182821 0.22962622 -0.01714643 -0.04449737 0.40425012
-0.0013312325 0.33316088 0.35867882 -1.4384904 0.06280162 -0.03724104 0.001715872 -0.00420908
0.107812196 0.044288237 0.0106427 0.003464923 -0.914553 0.08347427 -1.0900867 -1.5895423
-2.471682 -0.021879658 0.3108505 0.0075850002 -0.05298731 0.15022221 0.028346684 0.00087874435
-0.67805207 -0.02296254 -0.04895222 -0.057808388 -0.7807259 0.28391603 0.07650358 0.52921546
0.068325706 0.09558116 -0.15441118 -0.07759338 0.20066571 0.27308244 -0.6361573 0.0038849602
0.06662701 0.019138759 0.12565501 0.2920125 0.03977006 0.063920565 0.26994804 0.053913135
1.0850321 -0.017627733 -0.24352846 0.009859727 -0.3665066 0.14662422 -0.091038056 0.95250016
0.006342836 0.0240147 -0.055611886 -0.05431658 0.2968804 -0.04630788 0.25450367 0.029370755
00000000: bc2c 933d d66b f93d 0204 803e de1f 1bbd
00000010: 90c7 e63e f67f 2a3d dd52 b43c fd40 cabc
00000020: 4e74 81bf 88c8 1c3c 0702 ef3b b814 4d3f
00000030: 0cd8 cbbc 39d2 193d d929 943b 5277 3bbc
00000040: 417d 703f a87f 553d ad94 aebe 5187 47bc
00000050: 67bd 24bd 1125 793f 149f 5f3c 361f 423f
00000060: e540 21bd e3cd 183e 0441 05be d23a b63e
00000070: 7f0a 0140 ae7d 78bf 4057 473d e58e d33e
00000080: 6644 a9bf 1020 04bf 3489 b4be ee55 333c
00000090: 1d88 e63e 3679 ae3d c432 af3c 445d 0f3d
000000a0: 47ab d13e 7b83 a53d 9f12 c03d 38bc 9f3c
000000b0: 3a98 123d 82e3 89bd b103 b5ba 72be 023e
000000c0: 5d35 303e 0ddf 393e f735 4dbd 567b 12bd
000000d0: 6c5f f6bf 872a 8d3c a0f1 bdbc 7cb8 303d
000000e0: 27ad bb3c 372d 48bf 76a3 703e 4d51 35c0
000000f0: 3b82 573e cf7d 803c 32aa 6ebc ced2 b03e
00000100: e931 2abd 11df 9e3e 2ce1 9d3f d35e 44bf
00000110: ff9b 083f 5548 d1bb 4cd1 833c f130 a7bd
00000120: 9ab5 cb3c e6cc 72bd 3207 93bd 9507 a2bd
00000130: 87cf 713e 6a3b 9fbd 38e4 b0bf f82a c8bf
00000140: f829 b83e 4597 443d 246f be3e 182d 533c
00000150: 0c17 0e3c 4400 a03e df11 a6bc eedb 9ebd
00000160: 9ede 94bf 188d 69bd 85a3 7c3c 13ff 203d
00000170: a504 aebe a479 833e bb92 4bbb eaf8 f63e
00000180: c0b9 e7ba 3f57 7abd 06a1 0ebf 2a7b 33bd
00000190: e0b1 3b3e c6b5 f53e 1fa5 033f 5819 88ba
000001a0: a26f a33d 2055 74bb f644 353e 929f 6f3e
000001b0: 0bbe 893d 60e2 c0bc 3b7c 423e 446c b1bc
000001c0: 6dca cd3e 682a 98bd b95c 51bf dab7 c6bb
000001d0: 54da ecbe 26dc 8dbe 79ee 543d 90d6 5b3f
000001e0: 0597 83bd 0767 50bc 37db 85be 98d4 89bd
000001f0: e939 a43e 8dd4 c83c 5bbb 983e 1ba8 863c
00000200: dfc3 0dbd 4ebc 2c3f 80ca c63d 9fe0 a03d
00000210: d87d 9c3e 3ab3 3ebd ec7a 283d 856b 923c
00000220: 0a21 87bf 0b25 e1b8 f03c 2d3c a31c 813f
00000230: f246 b8bc df10 42bd fb40 94bd 25f1 d53c
00000240: 159d 7c3f ac0a fd3d 757e 7abf 6bd6 d33c
00000250: 91f1 0e3c 9b51 89bf 89a6 9e3c c686 153f
00000260: b6ae 72bb 01f9 7d3e 1ef4 0e3e 40a8 5c3e
00000270: 72a2 483e 27dd ddbf 3873 39bd 6feb c33e
00000280: 9d2d 40bf 7db0 9cbf c0cc a6bf dab2 95bd
00000290: d364 ee3e dfb7 22bd 88c2 8ebd a6bf b23c
000002a0: a2a4 0fbf 3ad3 b63c d987 3d3b f926 f43f
000002b0: 7012 c7bc 9103 e7bc 6b27 ae3b 6f74 313e
000002c0: f2e0 2f3e 3e04 383e a8dd 7cbd 758d 5bbd
000002d0: 72c7 96bf c240 6fbd 885b a03c 07a6 adbc
000002e0: 5ab2 87bd 5912 f8bf 6b14 0e3f 57b3 0bc0
000002f0: 2323 6b3e ac76 8cbc e042 36bd dff9 ce3e
00000300: c07c aeba 1094 aa3e c0a4 b73e 7420 b8bf
00000310: 239e 803d 108a 18bd 1ce7 e03a 52ec 89bb
00000320: a4cc dc3d 9567 353d b85e 2e3c c313 633b
00000330: 2520 6abf 8ff4 aa3d f687 8bbf 1f76 cbbf
00000340: 0a30 1ec0 f83c b3bc cc27 9f3e 988b f83b
00000350: 3909 59bd dad3 193e 4e37 e83c 895b 663a
00000360: d294 2dbf f01b bcbc 1f82 48bd 7dc8 6cbd
00000370: a7dd 47bf 715d 913e e9ad 9c3d aa7a 073f
00000380: 59ee 8b3d 0ec0 c33d f71d 1ebe 47e9 9ebd
00000390: 507b 4d3e 76d1 8b3e 34db 22bf d19a 7e3b
000003a0: be73 883d e3c8 9c3c b5ab 003e aa82 953e
000003b0: eee5 223d c9e8 823d a136 8a3e 05d4 5c3d
000003c0: 55e2 8a3f 0968 90bc 865f 79be b18a 213c
000003d0: c1a6 bbbe a924 163e 2972 babd 0dd7 733f
000003e0: 91d7 cf3b 7aba c43c 4ac9 63bd 107b 5ebd
000003f0: b500 983e 55ad 3dbd 4e4e 823e f09a f03c

fc4.bias f4 [5]
0.1591068 1.471166 -0.038589884 0.35248443 1.2989342
00000000: e5ec 223e 2b4f bc3f 6d10 1ebd d778 b43e
00000010: 7a43 a63f
